mnist_transformer_my_own.pth (torch, 91024 bytes, 13 tensors)

pos_embed f4 [1, 16, 64]
-0.88970935 -1.9252499 0.8116127 -0.97871125 -0.72964644 -1.523001 1.5072874 -0.19576304
0.07923071 -0.41385853 -0.5710775 -2.009271 -0.55452013 -1.1407735 1.3657157 0.53731906
-0.46823576 -0.14257388 1.4866935 0.21095361 -0.0039907168 -0.88529897 -0.8181191 0.31765565
-0.54526234 -0.27570054 0.6094082 -0.79264206 0.10691646 1.8792431 -1.8076283 0.09898274
-0.24371189 -0.4076708 0.39498731 0.8480269 0.53373617 -0.37072957 0.25064367 -0.66796476
0.80446786 -1.0496868 -0.5793585 0.5741288 -0.77681226 -1.6490575 0.18146448 -1.5674881
1.0569962 -0.05934214 -0.51266813 -0.39734125 -1.7194593 -1.0885851 -0.16450456 0.9691431
0.62547773 -1.5783132 -0.257794 -1.3108578 0.86178064 0.13454281 1.2493856 1.137402
-0.46080887 1.2453389 0.5699263 0.09355607 -0.009892981 1.1381792 0.08506544 1.0129664
-1.0590614 0.048585173 -0.5634769 0.6701463 -1.4036012 -0.78086734 -0.4500228 1.1147082
-1.487595 -1.2455829 -1.3551654 0.81282806 -0.2823929 0.40257275 -0.6998695 -1.2119443
0.5574559 0.4546155 1.2637912 -0.180243 0.5427762 1.0831454 -0.8525498 -1.1091255
1.0496057 0.3628324 -0.23679747 1.2043915 0.68752974 -0.10686172 -0.14947532 1.5660199
1.3375283 2.0817647 -0.40965125 -1.3578115 -0.8749347 1.0321143 -0.06952402 -1.5251594
-1.4538611 0.96951556 -0.14892459 -0.573754 -0.85647345 -0.97041595 0.71127003 -0.8278394
0.6834524 0.35453075 -0.7689095 -0.8226819 -1.1959568 -0.068959504 -0.05262327 -0.38748652
2.174117 1.1048058 -0.6884079 -0.16286811 -0.72071856 -1.8717356 1.7178731 0.9214535
1.1851482 -0.3121851 -0.3092834 -0.6322644 0.7876965 0.52474445 0.4033222 -0.15285459
1.268462 -0.3226527 -1.6600717 -1.0575467 0.6594765 -0.009091427 0.21374238 -0.3136332
0.8709014 0.09660212 -1.7838424 -1.6897203 1.1899313 0.90415204 -0.95839185 -2.4317079
-1.1417092 2.0442855 0.18480806 -2.0819464 1.9840952 0.39807573 0.71925455 0.24750946
1.1312467 -0.7120157 -0.40755725 -0.833343 -0.12712306 0.92402726 0.33997324 -0.26342967
-1.8238461 -0.54340136 -1.8306581 -0.45354742 0.9476828 0.16507138 -0.04988675 0.36428934
1.3557853 -1.4729905 -0.04402997 2.0880485 0.19119152 0.34205174 -1.2362666 1.0523775
-1.1292676 0.37867534 0.8133212 -0.33117196 -1.3951602 -0.31796512 1.2595425 -1.3129578
1.0467176 0.78883713 0.16337901 -1.3255095 1.0278848 0.10040469 -0.5943438 -1.0349796
1.23646 0.24843416 2.41602 -1.3667251 -0.7256944 1.1858773 -0.47667515 0.15238717
0.1808802 0.08934186 -0.6605787 -1.0762488 0.6559553 0.2271017 -0.08365183 0.10901265
0.29233208 1.9166574 -1.8134779 0.46570715 -2.8294783 -0.31825668 -0.07346345 0.6920893
-1.9351283 -0.27339542 0.14268829 -1.9276794 -0.46853384 1.033901 -0.5752735 1.4320053
0.7241483 -0.8578288 -2.2824266 0.6242331 -1.295333 -1.6559585 1.2089999 -1.2077897
0.63236946 -0.23666441 -0.7696544 -0.69396436 -1.4724618 -1.1834139 -1.5504467 -1.0701786
00000000: fec3 63bf 976e f6bf dac5 4f3f d28c 7abf
00000010: 1cca 3abf b2f1 c2bf cbee c03f 1b76 48be
00000020: b643 a23d 44e5 d3be 2332 12bf e597 00c0
00000030: 08f5 0dbf de04 92bf c6cf ae3f be8d 093f
00000040: 99bc efbe e3fe 11be f94b be3f 3904 583e
00000050: 8fc4 82bb f4a2 62bf 4170 51bf c3a3 a23e
00000060: 5096 0bbf 9f28 8dbe 2d02 1c3f 97ea 4abf
00000070: 04f7 da3d 0a8b f03f 5d60 e7bf 76b7 ca3d
00000080: 9c8f 79be 3aba d0be c73b ca3e 4a18 593f
00000090: efa2 083f 44d0 bdbe 5e54 803e bdff 2abf
000000a0: 9bf1 4d3f 235c 86bf d750 14bf 1bfa 123f
000000b0: 2bdd 46bf 5114 d3bf d3d1 393e 73a3 c8bf
000000c0: a74b 873f be10 73bd 383e 03bf 5070 cbbe
000000d0: 3e17 dcbf c256 8bbf e273 28be c319 783f
000000e0: 4f1f 203f 2b06 cabf 93fd 83be 30ca a7bf
000000f0: a89d 5c3f 97c5 093e deeb 9f3f 6496 913f
00000100: 24ef ebbe 4467 9f3f b1e6 113f 539a bf3d
00000110: 2b16 22bc dbaf 913f ca36 ae3d e2a8 813f
00000120: 538f 87bf 3f01 473d 0640 10bf b58e 2b3f
00000130: 34a9 b3bf ece6 47bf 6369 e6be c2ae 8e3f
00000140: 8369 bebf 436f 9fbf 0f76 adbf 8015 503f
00000150: cd95 90be 041e ce3e a62a 33bf fe20 9bbf
00000160: 6eb5 0e3f 5dc3 e83e e9c3 a13f 9f91 38be
00000170: 62f3 0a3f 82a4 8a3f b440 5abf d3f7 8dbf
00000180: 7b59 863f 2bc5 b93e 097b 72be 8029 9a3f
00000190: f301 303f 51da dabd 0f10 19be 5773 c83f
000001a0: 2134 ab3f a23b 0540 cfbd d1be c4cc adbf
000001b0: b8fb 5fbf 521c 843f 9c62 8ebd 6c38 c3bf
000001c0: 1f18 babf 2c32 783f b07f 18be 8be1 12bf
000001d0: d841 5bbf 2e6d 78bf cb15 363f 48ed 53bf
000001e0: bdf6 2e3f 0e85 b53e 41d7 44bf 489b 52bf
000001f0: 1d15 99bf a43a 8dbd 7f8b 57bd a264 c6be
00000200: bc24 0b40 476a 8d3f 803b 30bf e6c6 26be
00000210: 0381 38bf 0895 efbf 44e3 db3f 60e4 6b3f
00000220: f0b2 973f bad6 9fbe 655a 9ebe 14dc 21bf
00000230: 7aa6 493f a755 063f 3f80 ce3e ea85 1cbe
00000240: f65c a23f bc32 a5be 3b7d d4bf b15d 87bf
00000250: 74d3 283f 35f4 14bc 48df 5a3e 8894 a0be
00000260: 65f3 5e3f 55d7 c53d f354 e4bf c148 d8bf
00000270: ab4f 983f 8276 673f 2b59 75bf 1aa1 1bc0
00000280: 8723 92bf 93d5 0240 533e 3d3e 9c3e 05c0
00000290: d5f6 fd3f 95d0 cb3e 1121 383f 1f73 7d3e
000002a0: b1cc 903f a946 36bf 58ab d0be f855 55bf
000002b0: 8c2c 02be 0d8d 6c3f f910 ae3e 41e0 86be
000002c0: ca73 e9bf 5a1c 0bbf 0153 eabf 5e37 e8be
000002d0: 579b 723f 7908 293e 0c56 4cbd 2284 ba3e
000002e0: 5f8a ad3f f48a bcbf c558 34bd 96a2 0540
000002f0: b6c7 433e 6821 af3e fc3d 9ebf 4eb4 863f
00000300: d78b 90bf bce1 c13e d135 503f 5f8f a9be
00000310: 9c94 b2bf 53cc a2be b038 a13f 000f a8bf
00000320: d8fa 853f 3bf1 493f d44c 273e 4caa a9bf
00000330: bb91 833f f9a0 cd3d ea26 18bf 367a 84bf
00000340: 5244 9e3f 8665 7e3e 12a0 1a40 d9f0 aebf
00000350: 1cc7 39bf d4ca 973f c40e f4be 620b 1c3e
00000360: a938 393e ddf8 b63d b01b 29bf 85c2 89bf
00000370: b0ec 273f 598d 683e a751 abbd 0642 df3d
00000380: 8dac 953e 0855 f53f 0b20 e8bf 2b71 ee3e
00000390: 2c16 35c0 8af2 a2be 0174 96bd c42c 313f
000003a0: 49b2 f7bf 7cfa 8bbe e11c 123e 33be f6bf
000003b0: abe3 efbe de56 843f 2045 13bf f34b b73f
000003c0: c861 393f ab9a 5bbf 4713 12c0 becd 1f3f
000003d0: 79cd a5bf 73f6 d3bf 82c0 9a3f da98 9abf
000003e0: f7e2 213f 2858 72be 1208 45bf a6a7 31bf
000003f0: a179 bcbf 1b7a 97bf 0a75 c6bf 9dfb 88bf

patch_embed.weight f4 [64, 49]
0.1121473 0.11056928 0.14647453 -0.12812674 -0.06294895 -0.032445095 -0.26473454 0.1727828
-0.002676587 0.21057855 0.21391122 0.13639043 -0.06649604 0.114876054 0.109328225 0.09397757
0.033938266 0.031640094 0.18715067 0.038124546 0.28042847 -0.17582202 0.066457346 -0.051382285
-0.025613656 0.118627846 0.21858397 0.21378139 -0.08759032 -0.068971336 0.12910372 0.073828965
0.08993253 0.06220548 0.08097774 0.006536071 0.014824421 0.030346226 0.14650987 -0.020229237
-0.1276277 0.018288424 -0.027760329 0.013042472 -0.07872182 -0.10919636 -0.038695157 -0.04999095
0.07191749 0.23329204 0.18364702 0.18819861 0.08193908 -0.03690966 0.02332839 0.04350403
-0.13671069 -0.033974197 -0.0367865 0.05626539 0.083823204 0.02256703 -0.17522588 0.01272564
0.0021230476 -0.11650301 -0.012458435 -0.061115045 -0.0090696 -0.039508093 0.015213153 -0.04511067
-0.01879025 0.024678722 0.0002105562 -0.070751935 -0.08445415 -0.15338142 -0.06588176 -0.010655351
-0.066903904 0.110533595 0.030399216 0.085402854 0.013966989 0.011681028 -0.028750086 -0.043776773
-0.06966561 -0.02823042 0.25352624 -0.001316415 0.09439441 0.06672642 0.06125795 0.1873285
0.04932845 0.123057336 0.036453534 0.06420811 -0.12198184 -0.004051164 0.11828618 0.0245008
-0.22244917 0.10756269 0.03452424 -0.051422857 0.031926353 -0.12407385 0.1774786 -0.1428971
0.10567752 0.06811255 0.119330846 -0.031218773 -0.21957037 -0.008241689 0.25174186 -0.057740595
-0.12465112 0.28336534 0.13801616 0.16019002 0.22054493 0.21630023 0.25146067 0.103073806
0.09863933 0.19697736 -0.07678215 -0.031191535 0.033199545 0.24783906 -0.09052495 -0.02292298
0.20653124 0.11485935 0.1670089 0.02172053 -0.025799265 -0.10045525 -0.046421584 -0.118535616
-0.05181365 -0.15207465 -0.056597967 0.16567421 0.12261925 -0.017432524 0.1421048 0.09567566
-0.10830857 0.03085299 0.04210991 -0.0332522 0.02218174 0.012126107 -0.040946115 -0.107769795
-0.19554354 -0.028571835 0.0065402854 0.00040736626 -0.094613865 -0.13627787 -0.11781578 -0.13559304
0.020712443 0.0010913572 0.035540506 0.16943948 0.009561281 0.18583961 -0.106818944 0.04652503
0.078680634 0.028845618 0.062389564 0.10188798 0.06503102 -0.099347845 0.024668528 -0.07564224
-0.020966819 -0.09122373 -0.14096472 -0.0769817 -0.013367139 -0.0112375915 -0.21386994 -0.08665167
-0.05325512 0.011332639 -0.1269815 0.19878775 -0.06305126 -0.1300945 0.032757837 -0.11761398
0.062205784 -0.022560194 -0.13245824 0.0809702 -0.043581333 0.13829786 -0.01505431 -0.050765306
0.017315222 -0.0411342 -0.060491476 -0.04164313 -0.10096076 -0.06858228 -0.1174321 0.04484669
0.056562614 -0.074602775 -0.1677422 -0.16406053 -0.052340463 0.123076655 -0.014785109 0.057386257
-0.16924553 -0.050846 -0.06636969 0.02312057 -0.09546076 0.012450078 0.025371907 0.09347962
0.15078434 0.18113075 0.06679404 0.11693751 -0.00057428307 -0.15750179 0.21763588 0.118950084
-0.064725034 0.08430838 0.063148014 0.05715527 -0.058945898 0.17233682 -0.0155532025 0.15368663
0.04578489 0.02159604 0.06285582 0.046432853 -0.11855744 0.10290855 -0.013989056 -0.13962996
00000000: 7cad e53d 2672 e23d 6bfd 153e a833 03be
00000010: 61eb 80bd 26e5 04bd 498b 87be f9ed 303e
00000020: ae69 2fbb e7a1 573e 8b0b 5b3e efa9 0b3e
00000030: 132f 88bd 2344 eb3d 7ae7 df3d 5077 c03d
00000040: da02 0b3d 0b99 013d 6da4 3f3e 7c28 1c3d
00000050: 5294 8f3e b00a 34be ca1a 883d 3b76 52bd
00000060: bbd3 d1bc 28f3 f23d 7ad4 5f3e 82e9 5a3e
00000070: 8e62 b3bd d840 8dbd c433 043e a433 973d
00000080: 8c2e b83d 2ccb 7e3d a8d7 a53d 8a2c d63b
00000090: 21e2 723c a698 f83c af06 163e c9b7 a5bc
000000a0: d6b0 02be 9bd1 953c a169 e3bc 18b0 553c
000000b0: e838 a1bd 57a2 dfbd d07e 1ebd 4fc3 4cbd
000000c0: 7a49 933d 1ce4 6e3e f70d 3c3e 23b7 403e
000000d0: adcf a73d 952e 17bd 2e1b bf3c 4831 323d
000000e0: e3fd 0bbe 8728 0bbd 71ad 16bd 8a76 663d
000000f0: 80ab ab3d 7ede b83c 6a6e 33be 347f 503c
00000100: d422 0b3b 2199 eebd 771e 4cbc c553 7abd
00000110: a998 14bc 3dd3 21bd 9740 793c f7c5 38bd
00000120: 03ee 99bc 082b ca3c c0c8 5c39 64e6 90bd
00000130: 4cf6 acbd 0510 1dbe 04ed 86bd c893 2ebc
00000140: ea04 89bd 705f e23d c707 f93c b1e7 ae3d
00000150: ccd5 643c c861 3f3c 4d85 ebbc 464f 33bd
00000160: d8ac 8ebd 7b43 e7bc 31ce 813e 8f8b acba
00000170: db51 c13d dca7 883d 9ee9 7a3d 0bd3 3f3e
00000180: a10c 4a3d 7c05 fc3d 4d50 153d 8b7f 833d
00000190: 9dd1 f9bd a0bf 84bb 0640 f23d e7b5 c83c
000001a0: b7c9 63be d449 dc3d 4a69 0d3d c6a0 52bd
000001b0: 35c5 023d 6e1a febd f3bc 353e 9e53 12be
000001c0: 756d d83d 987e 8b3d bb63 f43d 83be ffbc
000001d0: 0ed7 60be 2608 07bc 4fe4 803e 6781 6cbd
000001e0: 1649 ffbd 4315 913e 1c54 0d3e da08 243e
000001f0: 88d6 613e cf7d 5d3e 74bf 803e 5c18 d33d
00000200: 6b03 ca3d 6fb4 493e f63f 9dbd 6485 ffbc
00000210: 3ffc 073d 86c9 7d3e 2565 b9bd f9c8 bbbc
00000220: ed7c 533e 613b eb3d 6204 2b3e 41ef b13c
00000230: fb58 d3bc 7bbb cdbd 8f24 3ebd cdc2 f2bd
00000240: 8d3a 54bd 75b9 1bbe 45d3 67bd 80a6 293e
00000250: cd1f fb3d a7ce 8ebc ec83 113e 9af1 c33d
00000260: e2d0 ddbd 69bf fc3c 717b 2c3d 7533 08bd
00000270: 7bb6 b53c 94ac 463c 1db7 27bd 69b6 dcbd
00000280: 913c 48be 7b0f eabc e44f d63b c693 d539
00000290: eac4 c1bd 6d8c 0bbe 6649 f1bd e7d8 0abe
000002a0: 24ad a93c df0b 8f3a ec92 113d 8b81 2d3e
000002b0: eba6 1c3c bd4c 3e3e e4c3 dabd 0891 3e3d
000002c0: 5023 a13d a54d ec3c 338c 7f3d a5aa d03d
000002d0: fc2e 853d e276 cbbd a715 ca3c 52ea 9abd
000002e0: 9bc2 abbc 82d3 babd 0e59 10be 95a8 9dbd
000002f0: d801 5bbc e01d 38bc b900 5bbe 6e76 b1bd
00000300: 0a22 5abd 88ac 393c 7007 02be 048f 4b3e
00000310: 0521 81bd 7e37 05be 152d 063d 99df f0bd
00000320: 7ecb 7e3d 28d0 b8bc 22a3 07be b4d3 a53d
00000330: 5782 32bd f49d 0d3e 5aa6 76bc 48ef 4fbd
00000340: a7d8 8d3c 567c 28bd e9c5 77bd fd91 2abd
00000350: 84c4 cebd de74 8cbd 3e80 f0bd 2ab1 373d
00000360: 33ae 673d 57c9 98bd 9cc4 2bbe 7cff 27be
00000370: f462 56bd 9d0f fc3d 3e3d 72bc da0d 6b3d
00000380: b34e 2dbe e543 50bd d5ec 87bd 5a67 bd3c
00000390: ee80 c3bd 69fb 4b3c bfd8 cf3c 3e72 bf3d
000003a0: 3667 1a3e 577a 393e 50cb 883d ef7c ef3d
000003b0: 7c8b 16ba 2648 21be f1db 5e3e 1a9c f33d
000003c0: 8f8e 84bd dfa9 ac3d bf53 813d a51b 6a3d
000003d0: 4171 71bd 1079 303e dcd2 7ebc 0760 1d3e
000003e0: f088 3b3d 2eea b03c 8dba 803d 6030 3e3d
000003f0: 3ece f2bd b8c1 d23d 5b32 65bc 28fb 0ebe

patch_embed.bias f4 [64]
0.043061957 0.03856109 -0.095760114 0.13283351 -0.1029232 -0.1401947 -0.077565074 0.118814535
-0.010681894 0.018712418 -0.06167187 -0.020642865 0.1665542 0.0034508589 0.19012187 0.0106509
-0.010845643 -0.027316978 0.045291148 0.07949788 -0.018076224 -0.06814848 -0.23537602 0.016892852
0.0010274103 -0.034489475 0.06457658 0.21470979 0.033219468 -0.099023715 0.15995052 -0.104062185
-0.11078094 -0.14355661 0.06733462 -0.06917307 0.030332714 0.017528616 0.028318506 0.04770413
0.21358585 -0.0073022963 0.08885435 0.08388774 -0.14391157 -0.07257768 -0.112228915 -0.021324292
-0.08067312 0.025636662 -0.028553538 -0.00029726364 0.07055171 -0.070196226 -0.23863249 0.024531553
-0.12712881 0.06303809 -0.072097 0.024851887 0.15587924 0.18280318 0.1310744 0.028325392
00000000: bc61 303d 3cf2 1d3d e11d c4bd 8205 083e
00000010: 66c9 d2bd 338f 0fbe 70da 9ebd 0955 f33d
00000020: 1c03 2fbc c94a 993c a59b 7cbd 3a1b a9bc
00000030: 2f8d 2a3e ce27 623b 4faf 423e 1d81 2e3c
00000040: ecb1 31bc dbc7 dfbc 3683 393d c9cf a23d
00000050: 9714 94bc 6e91 8bbd 6906 71be e162 8a3c
00000060: 2baa 863a d644 0dbd ba40 843d e2dc 5b3e
00000070: 2311 083d f2cc cabd 12ca 233e 8e1e d5bd
00000080: 1ee1 e2bd 8100 13be bce6 893d 9caa 8dbd
00000090: 507c f83c 2c98 8f3c 36fc e73c 6865 433d
000000a0: 40b6 5a3e 1a48 efbb 45f9 b53d 56cd ab3d
000000b0: 8e5d 13be 9ba3 94bd 46d8 e5bd 48b0 aebc
000000c0: f337 a5bd fa03 d23c 1ce9 e9bc 0dda 9bb9
000000d0: 6a7d 903d 0ac3 8fbd 135c 74be 65f6 c83c
000000e0: 0e2e 02be 1d1a 813d 98a7 93bd 2f96 cb3c
000000f0: cf9e 1f3e c230 3b3e 5e38 063e a70a e83c

transformer.wV.weight f4 [64, 64]
-0.23582205 -0.08207232 -0.0071735918 -0.0036765605 0.09954318 0.08257431 0.050630435 0.21754238
-0.11676957 -0.06944693 0.0047173486 -0.056524478 -0.329056 -0.58076787 0.2831338 -0.03431829
0.055345453 -0.26562858 0.09884429 0.029606918 -0.14974527 -0.21417333 0.23721077 0.018677019
0.30870315 0.20372026 0.09106488 -0.18790504 -0.21125807 -0.16921043 0.11726093 -0.21262993
-0.4943066 -0.15027635 0.11830125 0.23142615 0.08646248 -0.04564331 0.12023759 -0.11769707
0.18244693 -0.09708606 0.07050709 0.053626683 0.29785135 -0.055427354 0.16998819 0.020018004
0.1107788 0.08541134 0.018034952 0.032604013 0.016234186 0.10725307 0.10108134 0.006904493
0.015095781 -0.17030124 -0.12395319 -0.07434159 -0.0022715838 0.1445578 0.116723396 0.21894537
0.023824193 0.010257276 -0.07028519 0.22337814 -0.22717416 -0.26801327 -0.053986628 -0.12411253
-0.069152944 -0.20654581 0.25829065 -0.074023694 -0.036754377 0.36004907 -0.15191336 0.21381243
-0.0048054284 -0.22120167 -0.12223219 0.1600143 -0.3572797 0.037439138 0.24595226 0.21061207
-0.14652771 0.0406805 0.11000127 -0.015512785 0.05227244 -0.20514403 0.022948297 -0.08685853
-0.039437152 0.16431989 0.19922999 -0.24950887 -0.0011394139 -0.05667221 -0.16437803 -0.2963247
0.09788342 0.108081095 -0.08257591 0.023461206 -0.14342393 0.010806668 0.0016127132 0.035726506
0.28002962 0.12126324 -0.13893047 -0.05023587 0.007819143 -0.05509922 -0.08678072 0.09595098
-0.0915773 0.06955567 -0.017466577 0.34647363 0.08574277 0.047134705 0.10809506 0.011609208
0.17090374 0.012113026 -0.14499842 0.31015578 -0.052968446 -0.3538535 0.013328566 0.081180975
-0.014003439 -0.17570767 -0.028648483 -0.27874538 -0.027577827 0.397147 -0.1162296 -0.09576635
0.035903335 -0.15288827 -0.28523022 -0.06911956 -0.12217838 -0.322872 0.3495048 -0.057313193
-0.05235363 -0.16974264 0.06315172 -0.007869738 -0.15618277 -0.037514213 0.22201808 -0.27886584
-0.26339784 -0.08067877 0.25485638 -0.21251915 0.13846773 -0.2113347 -0.13195956 -0.23988329
0.20064665 0.0043180143 -0.25140384 0.015514845 0.20834653 0.0327821 0.21304765 0.28425178
0.24381974 -0.083347395 0.04015006 0.10649991 -0.046875287 0.26675618 0.10042406 0.08815492
-0.053802695 -0.21690789 0.29235622 -0.04443813 0.15458117 -0.039234076 -0.243277 0.047427654
0.059649013 -0.07195879 0.20429859 -0.19774394 0.075539276 0.22085878 -0.14018199 -0.16122237
0.10504005 -0.1167012 -0.4323124 -0.045615107 0.39550018 0.4829708 0.014536308 -0.09918472
0.06934347 0.17247133 -0.09629735 -0.011233426 -0.051929567 -0.21269238 0.026957082 -0.22513641
-0.058737163 0.011410468 0.20233884 0.16672577 0.15105626 0.18524028 -0.34558183 0.33241415
0.055293884 0.04861164 0.110600226 0.094545566 -0.04229669 0.13489793 -0.36651832 -0.23153825
0.10570301 0.19801414 0.13654654 -0.34196377 -0.13715898 -0.03598026 -0.09626449 0.02771191
-0.06379636 -0.096966244 -0.3105473 -0.05963679 0.1999155 -0.013811569 0.05677652 -0.14168067
0.16911004 -0.096619874 0.13126327 0.13775401 -0.014200263 -0.15688504 0.04630963 0.020391908
00000000: 567b 71be 8815 a8bd 7310 ebbb 73f2 70bb
00000010: 4bdd cb3d b81c a93d dc61 4f3d 6ec3 5e3e
00000020: e224 efbd 313a 8ebd fd93 9a3b 3686 67bd
00000030: 077a a8be 34ad 14bf eaf6 903e 5691 0cbd
00000040: eab1 623d 7800 88be e06e ca3d 358a f23c
00000050: d356 19be 4150 5bbe 61e7 723e 8c00 993c
00000060: 570e 9e3e 0b9c 503e 3980 ba3d 2e6a 40be
00000070: 0954 58be 8045 2dbe 8026 f03d a9bb 59be
00000080: c115 fdbe 0be2 19be ed47 f23d fafa 6c3e
00000090: 3e13 b13d 7bf4 3abd 203f f63d 290b f1bd
000000a0: 5ed3 3a3e 0ed5 c6bd 0566 903d a7a7 5b3d
000000b0: f97f 983e cb07 63bd 6211 2e3e ccfc a33c
000000c0: ffdf e23d 24ec ae3d 09be 933c c98b 053d
000000d0: 8efd 843c 7fa7 db3d bc03 cf3d 163f e23b
000000e0: 4b54 773c 7363 2ebe 2cdb fdbd 6740 98bd
000000f0: dade 14bb f606 143e ad0c ef3d 3733 603e
00000100: f42a c33c 220e 283c aff1 8fbd 3dbd 643e
00000110: 58a0 68be 0939 89be 1521 5dbd b62e febd
00000120: 0fa0 8dbd bf80 53be ac3e 843e bc99 97bd
00000130: c28b 16bd 5a58 b83e 2d8f 1bbe a5f1 5a3e
00000140: db76 9dbb b182 62be df54 fabd cada 233e
00000150: 5ded b6be c859 193d e9da 7b3e b1aa 573e
00000160: 5c0b 16be 99a0 263d 5948 e13d 5629 7ebc
00000170: a01b 563d 4711 52be 11fe bb3c e3e2 b1bd
00000180: da88 21bd 7943 283e f202 4c3e 417f 7fbe
00000190: 6358 95ba 1f21 68bd b752 28be dfb7 97be
000001a0: 1a77 c83d 9f59 dd3d 8f1d a9bd b731 c03c
000001b0: b9dd 12be 730e 313c ad61 d33a f555 123d
000001c0: 0b60 8f3e dd58 f83d ca43 0ebe 21c4 4dbd
000001d0: dd1b 003c b8af 61bd 17ba b1bd f381 c43d
000001e0: e18c bbbd 3473 8e3d 1116 8fbc fe64 b13e
000001f0: e899 af3d 5210 413d f160 dd3d 8c34 3e3c
00000200: 6401 2f3e b775 463c 777a 14be bdcc 9e3e
00000210: 71f5 58bd 492c b5be 0f60 5a3c 3642 a63d
00000220: ae6e 65bc b6ec 33be 39b0 eabc b7b7 8ebe
00000230: e5ea e1bc da56 cb3e c909 eebd 2621 c4bd
00000240: 600f 133d be8e 1cbe b209 92be 8e8e 8dbd
00000250: a938 fabd 7b4f a5be 4bf2 b23e 3dc1 6abd
00000260: c370 56bd 04d1 2dbe b055 813d 13f0 00bc
00000270: 60ee 1fbe 81a8 19bd b558 633e 81c7 8ebe
00000280: 15dc 86be e93a a5bd 897c 823e 9f9e 59be
00000290: 7cca 0d3e 2068 58be 6820 07be f7a3 75be
000002a0: 5176 4d3e 217e 8d3b 01b8 80be fa31 7e3c
000002b0: cb58 553e 8646 063d 2a29 5a3e 7389 913e
000002c0: e2ab 793e 0ab2 aabd 6474 243d a01c da3d
000002d0: 4d00 40bd 4494 883e 21ab cd3d 918a b43d
000002e0: 3760 5cbd 1a1d 5ebe b7af 953e c204 36bd
000002f0: 874a 1e3e e9b3 20bd 9b1d 79be 8043 423d
00000300: 8652 743d 215f 93bd a633 513e 637d 4abe
00000310: 56b4 9a3d ce28 623e de8b 0fbe 7a17 25be
00000320: 3d1f d73d 0a01 efbd 0d58 ddbe e8d6 3abd
00000330: 007f ca3e f347 f73e b229 6e3c 5c21 cbbd
00000340: f303 8e3d 539c 303e 8c37 c5bd 670c 38bc
00000350: 19b4 54bd 08cc 59be 19d5 dc3c 298a 66be
00000360: 6196 70bd f9f2 3a3c ea31 4f3e 29ba 2a3e
00000370: 7eae 1a3e a1af 3d3e 1af0 b0be 3032 aa3e
00000380: d77b 623d 001d 473d 5f82 e23d 1ba1 c13d
00000390: 4b3f 2dbd af22 0a3e 4aa8 bbbe 5d18 6dbe
000003a0: d27a d83d 38c4 4a3e dbd2 0b3e e015 afbe
000003b0: 6773 0cbe 0a60 13bd 5126 c5bd 1604 e33c
000003c0: aaa7 82bd 3d96 c6bd 0e00 9fbe b545 74bd
000003d0: a6b6 4c3e eb49 62bc 7f8e 683d bd14 11be
000003e0: 2f2b 2d3e a4e0 c5bd e169 063e 630f 0d3e
000003f0: 38a8 68bc 79a6 20be 2baf 3d3d ee0c a73c

transformer.wV.bias f4 [64]
-0.06955975 0.10376389 0.053232282 -0.007618994 -0.05235304 -0.07453881 -0.060687006 0.036971804
0.04236699 0.12557237 -0.103959166 -0.05533883 0.021436037 -0.0046178172 -0.17116429 -0.0026760034
-0.11846886 0.04524601 0.07521914 -0.11812837 -0.03205785 -0.15538251 0.04987129 0.08287377
-0.2107658 0.077416286 -0.16386971 0.083445296 -0.16504312 0.20574325 0.063287094 0.064545594
-0.04700265 0.106579006 -0.04810691 0.0030662504 0.042052593 0.027648924 0.017492902 0.09374411
0.017824715 0.0746142 -0.015308964 -0.07708621 -0.22589684 -0.033622622 0.03632991 0.07994989
-0.013042774 -0.07509363 -0.079656005 -0.0061659194 -0.020901328 0.0037054457 0.03646828 -0.15846887
0.038823612 0.12181904 -0.031425927 0.095061764 -0.05509046 0.012767958 0.13012142 -0.120918766
00000000: 5875 8ebd 2a82 d43d 180a 5a3d c1a8 f9bb
00000010: 2470 56bd cea7 98bd f092 78bd bf6f 173d
00000020: 0289 2d3d 0b96 003e 8be8 d4bd f8aa 62bd
00000030: a19a af3c 0f51 97bb b145 2fbe e35f 2fbb
00000040: cd9f f2bd e153 393d 7e0c 9a3d 49ed f1bd
00000050: 184f 03bd 981c 1fbe d645 4c3d b9b9 a93d
00000060: fdd2 57be 6e8c 9e3d 76cd 27be 5ee5 aa3d
00000070: 1001 29be 5cae 523e aa9c 813d 7b30 843d
00000080: da85 40bd 1846 da3d c00b 45bd 25f3 483b
00000090: 573f 2c3d ff7f e23c 464d 8f3c e9fc bf3d
000000a0: 2305 923c 54cf 983d 73d2 7abc 60df 9dbd
000000b0: 8051 67be e0b7 09bd acce 143d c5bc a33d
000000c0: 5cb1 55bc b0ca 99bd b022 a3bd 7b0b cabb
000000d0: 4339 abbc 10d7 723b c35f 153d aa45 22be
000000e0: 8205 1f3d 437c f93d 79b8 00bd beaf c23d
000000f0: 89a6 61bd b330 513c 8d3e 053e 42a4 f7bd

transformer.wQ.weight f4 [64, 64]
-0.03080651 0.1260733 0.2730418 0.100701384 -0.08984378 -0.150347 -0.04133724 -0.34053132
0.10860425 -0.27129945 -0.0011645006 -0.021120822 -0.05799585 0.11854995 -0.14299737 0.05422114
-0.10168945 0.18262684 -0.005002726 -0.041848734 -0.28616282 -0.30234474 -0.096374504 -0.16896208
0.30032873 0.22860023 0.21890774 -0.06342118 0.16618165 0.13066304 0.08158035 -0.12277589
-0.19807391 0.046437044 0.13547587 -0.03906585 -0.27099028 -0.032267977 -0.16972457 0.2217794
-0.02828531 0.024230827 -0.034348186 -0.10195957 -0.079338565 -0.15588628 0.012190812 0.18577586
0.2735197 0.081168465 -0.25261825 0.11648788 -0.07136963 -0.016644405 -0.0100924745 -0.033841785
-0.0063278293 -0.10870784 0.14577541 -0.20277537 -0.006678358 -0.15673974 0.009544461 -0.063525125
-0.007407191 -0.05629745 -0.10650453 -0.16014794 0.43218914 -0.12708823 -0.0917562 0.037349578
-0.1000592 0.1400802 0.13802949 0.076991655 0.020362025 -0.13614538 0.303693 0.0010135893
0.052880358 -0.11585255 0.032931745 -0.006869076 -0.019548789 0.09655434 -0.1852459 -0.019084454
-0.16972964 0.028001713 -0.23857424 -0.17186168 -0.1547329 -0.0451129 0.24401464 0.052899156
-0.21016195 -0.15808083 -0.19532727 0.06811512 -0.017166575 0.12392731 0.15009956 0.062698446
0.18056615 0.19886304 -0.020935636 0.06790049 0.070310585 -0.1746464 -0.114270836 0.016952503
0.100211985 -0.14560907 0.21539447 0.12072224 0.0058472217 0.31759638 -0.24435149 0.20679322
-0.15500166 0.124134704 -0.04378833 0.032219373 -0.06691384 0.137517 0.24086507 0.13216947
-0.06436781 0.08280645 -0.17762503 0.42478678 -0.31912947 0.20089547 -0.02333337 -0.085102424
-0.00022097859 -0.12404966 0.29145902 -0.31198502 -0.17609145 0.030042443 0.16570881 0.075575374
-0.06489364 0.21714537 0.09098151 -0.09370675 0.17255591 0.093374126 -0.10982395 -0.031563442
-0.13749677 -0.1552609 0.06512915 -0.15986878 -0.091516 -0.029630115 -0.33257818 -0.18519823
-0.2042284 -0.17657201 -0.028277911 -0.13105169 -0.02656709 -0.05914061 0.22128184 -0.11986758
0.1940926 -0.003051355 0.013189978 0.077761084 0.10402412 -0.09429022 -0.13478717 0.1373172
0.009237182 0.14154045 0.20822571 -0.05667748 0.29408333 -0.17281699 0.15134946 0.11887806
0.23691511 0.037984297 0.088163264 -0.2633602 -0.05373837 -0.007982616 -0.050470624 -0.05301979
-0.20449445 0.10120431 -0.10828902 0.25625712 -0.0052001914 0.09405233 0.17497626 0.17316036
-0.040347476 0.030853977 0.19530328 0.03385365 -0.024539895 -0.22085668 -0.3329265 0.09322208
-0.1377146 -0.08576223 -0.06883579 0.3642327 -0.2150602 -0.024910284 -0.019492812 0.16767988
-0.17115797 -0.13324222 0.14170061 -0.22727574 -0.024693595 -0.22338198 -0.03770002 0.008002915
0.025209282 -0.180893 0.10199191 0.19726709 -0.1128502 -0.15239659 0.20387569 0.23024437
-0.2211533 0.1101089 -0.11113972 -0.030767206 -0.11095498 0.09734735 0.18114762 -0.13910644
0.3166038 0.17244007 -0.0849885 0.55742794 -0.041447703 -0.0309373 -0.008329356 0.15318732
-0.19615544 0.037977837 0.20669205 -0.30802155 -0.021660961 -0.033773452 -0.28239033 -0.1134399
00000000: ef5d fcbc 5c19 013e 23cc 8b3e 873c ce3d
00000010: 0400 b8bd 90f4 19be 3d51 29bd 1f5a aebe
00000020: e86b de3d c3e7 8abe 28a2 98ba 9305 adbc
00000030: 0e8d 6dbd 51ca f23d e76d 12be fc16 5e3d
00000040: 8f42 d0bd 8802 3b3e e8ed a3bb 9469 2bbd
00000050: ef83 92be eecc 9abe ff5f c5bd 6504 2dbe
00000060: b0c4 993e 2e16 6a3e 5a29 603e f7e2 81bd
00000070: 862b 2a3e 88cc 053e 9913 a73d ed71 fbbd
00000080: e3d3 4abe c534 3e3d 30ba 0a3e 8303 20bd
00000090: 3dbf 8abe 6d2b 04bd 47cc 2dbe 241a 633e
000000a0: 98b6 e7bc ba7f c63c afb0 0cbd 2ed0 d0bd
000000b0: 427c a2bd a7a0 1fbe f9bb 473c 073c 3e3e
000000c0: c60a 8c3e a73b a63d 2e57 81be 3391 ee3d
000000d0: 3e2a 92bd d959 88bc e85a 25bc af9d 0abd
000000e0: ae59 cfbb 37a2 debd 2646 153e 59a4 4fbe
000000f0: 21d6 dabb 6280 20be 5f60 1c3c 7619 82bd
00000100: 06b8 f2bb 2898 66bd 0c1f dabd d2fd 23be
00000110: e547 dd3e 6b23 02be adea bbbd dffb 183d
00000120: d6eb ccbd 2f71 0f3e 9a57 0d3e cdad 9d3d
00000130: 43ce a63c b269 0bbe a67d 9b3e 6ada 843a
00000140: 1399 583d 1a44 edbd 70e3 063d fc15 e1bb
00000150: c824 a0bc 48be c53d 1ab1 3dbe 0057 9cbc
00000160: 9bcd 2dbe d963 e53c ce4c 74be 82fc 2fbe
00000170: 4d72 1ebe 4ec8 38bd f9de 793e c9ac 583d
00000180: b234 57be f1df 21be df03 48be f17f 8b3d
00000190: eba0 8cbc 9acd fd3d b3b3 193e 0b68 803d
000001a0: 55e6 383e c1a2 4b3e 3681 abbc 690f 8b3d
000001b0: fffe 8f3d 82d6 32be d406 eabd fadf 8a3c
000001c0: f13b cd3d 8b1a 15be 5e90 5c3e 393d f73d
000001d0: 0d9a bf3b fe9b a23e 4737 7abe 9ac1 533e
000001e0: c1b8 1ebe 563a fe3d 645b 33bd 76f8 033d
000001f0: 200a 89bd 42d1 0c3e 55a5 763e 6f57 073e
00000200: 45d3 83bd 6e96 a93d 56e3 35be a77d d93e
00000210: f064 a3be 8bb7 4d3e a025 bfbc 2e4a aebd
00000220: 7db6 67b9 c00d febd 1e3a 953e 80bc 9fbe
00000230: 5151 34be 921b f63c 92af 293e 43c7 9a3d
00000240: f5e6 84bd 5b5b 5e3e 8454 ba3d 53e9 bfbd
00000250: 7fb2 303e ef3a bf3d 61eb e0bd ab48 01bd
00000260: f4cb 0cbe b7fc 1ebe 6f62 853d a4b4 23be
00000270: be6c bbbd dbba f2bc b047 aabe 9ba4 3dbe
00000280: 4021 51be 4bcf 34be 14a7 e7bc 6a32 06be
00000290: 3aa3 d9bc 6d3d 72bd b597 623e 227d f5bd
000002a0: 36c0 463e 3ef9 47bb c71a 583c 3441 9f3d
000002b0: 990a d53d 3b1b c1bd a605 0abe e19c 0c3e
000002c0: 8d57 173c fbef 103e 1f39 553e a526 68bd
000002d0: 1792 963e f0f6 30be 5afb 1a3e 5776 f33d
000002e0: e099 723e 6c95 1b3d f18e b43d 26d7 86be
000002f0: c41c 5cbd 85c9 02bc 49ba 4ebd 482b 59bd
00000300: fe66 51be 3544 cf3d a2c6 ddbd 2234 833e
00000310: 5e66 aabb 829e c03d fa2c 333e f350 313e
00000320: 6543 25bd 7bc1 fc3c 95fd 473e 20aa 0a3d
00000330: e407 c9bc 4128 62be 5875 aabe 38eb be3d
00000340: 0e05 0dbe 1ca4 afbd c7f9 8cbd b57c ba3e
00000350: be38 5cbe a710 ccbc 64af 9fbc 46b4 2b3e
00000360: 0944 2fbe a670 08be f719 113e f9ba 68be
00000370: 394a cabc 3fbe 64be 566b 1abd a91e 033c
00000380: b283 ce3c 043c 39be 22e1 d03d 6200 4a3e
00000390: 011e e7bd da0d 1cbe cac4 503e 2ec5 6b3e
000003a0: 0376 62be c680 e13d 399d e3bd 820b fcbc
000003b0: 5d3c e3bd 0c5e c73d c37e 393e eb71 0ebe
000003c0: e519 a23e 2194 303e 730e aebd 99b3 0e3f
000003d0: 11c5 29bd 3870 fdbc da77 08bc 23dd 1c3e
000003e0: f9dc 48be a68e 1b3d 15a7 533e 00b5 9dbe
000003f0: 5472 b1bc 0856 0abd 7795 90be 2e53 e8bd

transformer.wQ.bias f4 [64]
0.06638426 -0.035635617 -0.11650395 0.13633494 -0.009910007 0.02817738 0.2699308 0.054669112
0.009912739 0.05919458 0.11244916 0.008110898 0.1879887 0.20505871 0.10145889 -0.0020071773
-0.10570137 0.12265109 0.10226694 -0.13925007 0.2015126 -0.0018548782 -0.008367183 0.07827877
-0.032988627 0.038118783 -0.117588975 0.034131464 0.10409303 0.08116815 -0.012724865 0.26898584
0.030331666 -0.13495842 0.007109034 0.03005566 -0.006803142 -0.16807656 -0.14267762 -0.1301798
-0.07075982 -0.37385723 -0.068829924 0.106031716 0.25193283 -0.04698823 -0.21870454 -0.061951235
-0.11603324 0.13478959 -0.06815424 -0.03680788 0.18012261 -0.032714754 -0.103838064 0.017105872
0.061601255 -0.09823795 0.025532689 0.11751056 0.0070975414 -0.21806829 0.14833024 0.04645072
00000000: 79f4 873d a7f6 11bd 9f99 eebd 639b 0b3e
00000010: 955d 22bc 40d4 e63c 5f34 8a3e b8ec 5f3d
00000020: 0a69 223c 0476 723d bf4b e63d 92e3 043c
00000030: 1c80 403e e9fa 513e aec9 cf3d d98a 03bb
00000040: f679 d8bd 7f30 fb3d 5471 d13d 9297 0ebe
00000050: 5259 4e3e 621f f3ba 8216 09bc 9f50 a03d
00000060: 151f 07bd 7122 1c3d 7dd2 f0bd 6fcd 0b3d
00000070: ba2e d53d 7d3b a63d f47b 50bc 83b8 893e
00000080: 1d7a f83c 8a32 0abe e6f2 e83b 4a37 f63c
00000090: e4ec debb 431c 2cbe 151a 12be da4d 05be
000000a0: 86ea 90bd 376a bfbe b4f6 8cbd 2827 d93d
000000b0: 57fd 803e bb76 40bd 15f4 5fbe 94c0 7dbd
000000c0: d6a2 edbd 4806 0a3e 7394 8bbd dcc3 16bd
000000d0: 1072 383e e8ff 05bd 0da9 d4bd 9d21 8c3c
000000e0: 9951 7c3d fa30 c9bd ee29 d13c 60a9 f03d
000000f0: 7e92 e83b 4b4d 5fbe e2e3 173e 1c43 3e3d

transformer.wK.weight f4 [64, 64]
0.058824625 -0.14688437 -0.11487835 0.0068904744 0.052948102 0.19245282 0.12746106 -0.006672737
0.123172484 -0.19832985 -0.066635005 -0.20727734 0.031254232 -0.007023615 -0.12759183 0.06613599
-0.09038417 -0.30442813 -0.19202036 0.0057823267 0.14491929 -0.14271577 0.11005262 0.08590461
-0.010946447 0.082403935 0.13613386 0.15489228 0.009311493 0.020323426 -0.09094599 -0.03603378
-0.04271645 -0.066062994 0.25329575 -0.26066333 0.2948616 0.18971153 -0.055334702 -0.07897665
0.15423693 0.21116433 -0.30631623 0.051904183 -0.088756695 0.06194188 -0.0045719584 0.037339278
-0.20362285 0.14177534 0.114048995 -0.22254798 0.0810994 0.022800654 0.02333523 0.11307471
-0.0025781938 0.16807178 0.030608814 0.0011344987 -0.007187574 0.023734145 0.050112016 -0.13934396
0.0726688 -0.13874288 0.055809103 -0.002395597 -0.15428153 -0.2990271 -0.04489906 0.118422925
-0.11508686 0.05090953 0.15824446 0.0487336 0.030556608 0.15290603 -0.012166881 0.11447002
0.16837856 0.028306521 0.33901343 0.0068131415 -0.108014755 -0.022194112 -0.04713639 -0.020457435
-0.16774891 -0.12972163 -0.0321997 0.19917096 0.10577453 0.082014486 -0.107722886 -0.2276298
-0.038945787 -0.0886476 -0.30720767 -0.19578223 0.02575329 0.12901147 -0.09729763 -0.017310146
-0.076395236 -0.19143349 0.014471128 0.03557944 -0.09408814 -0.26800707 -0.07290532 -0.13002028
0.14763266 -0.20973296 -0.08450284 -0.13103682 0.015534844 0.040178265 -0.017741501 0.05336088
0.15008369 0.21029398 -0.03003655 0.0022542751 0.06276456 0.07942351 0.06669398 0.05585682
-0.028267937 0.01787626 0.13506769 -0.037966225 0.082546756 0.18377443 -0.14556026 -0.11997762
0.15112264 0.2106731 -0.16825278 -0.1319837 -0.012428429 0.022525914 0.015735947 0.015910236
0.09044844 0.04625287 0.07197578 -0.107064 -0.02752387 0.005759929 0.06918133 -0.18785232
0.047837876 0.06756355 -0.20213099 -0.11465572 -0.09504778 -0.08430199 0.2347016 0.20681134
0.04921275 0.23854625 -0.040756386 -0.14847368 -0.23018314 0.059232693 -0.082252756 -0.09108436
-0.10736338 0.100940295 0.26163915 0.013033243 -0.00670244 0.07607339 -0.13086586 0.13023351
0.0027897125 -0.091967426 0.058005687 -0.0176791 -0.01800296 0.073227905 -0.23416494 -0.23824815
-0.12520778 -0.067840815 -0.12081405 0.059900817 0.058872297 0.08098514 0.1400726 -0.25361446
-0.09648767 -0.15841228 -0.065931916 0.03722793 -0.1320115 0.024020446 -0.25508606 -0.17619532
0.067433834 -0.06614261 -0.06315529 -0.08557032 -0.1888231 0.25251245 -0.020848177 0.1978706
0.09035965 0.2576599 -0.13298506 0.09648539 -0.19156699 0.030099574 -0.033361495 -0.06748685
0.033188425 0.28196743 0.003153873 -0.012188427 0.09116965 -0.024494236 0.27058062 -0.058495563
0.16443852 0.28759587 0.23781191 0.09669003 0.07314861 -0.22498813 -0.036376562 -0.110409394
-0.010184925 0.07929245 0.12515318 0.19260725 -0.07275699 0.14429788 -0.11451177 0.28894258
-0.08460028 -0.0040660696 -0.031169293 0.025488129 -0.13820964 -0.25850582 0.07777067 -0.03154287
0.09297626 -0.21900862 -0.051327653 -0.061803393 -0.042935364 -0.18357532 0.123784795 -0.25697052
00000000: 17f2 703d db68 16be 5745 ebbd 7dc9 e13b
00000010: 1ce0 583d 5a12 453e 2785 023e faa6 dabb
00000020: db41 fc3d fb16 4bbe ef77 88bd 8340 54be
00000030: 7004 003d 5a26 e6bb 6fa7 02be 4e72 873d
00000040: 561b b9bd 01de 9bbe fca0 44be ac79 bd3b
00000050: b965 143e 1524 12be 4563 e13d c2ee af3d
00000060: ba58 33bc 65c3 a83d ad66 0b3e 159c 1e3e
00000070: 3b8f 183c 507d a63c e441 babd 2898 13bd
00000080: 72f7 2ebd 094c 87bd fbaf 813e aa75 85be
00000090: 1af8 963e bd43 423e a4a6 62bd 83be a1bd
000000a0: 49f0 1d3e 763b 583e 7bd5 9cbe 7b99 543d
000000b0: 12c6 b5bd c5b6 7d3d 5ed0 95bb 12f1 183d
000000c0: 8282 50be 8e2d 113e 8592 e93d 9ee3 63be
000000d0: 7117 a63d 70c8 ba3c 8629 bf3c b793 e73d
000000e0: eaf6 28bb 021b 2c3e 56bf fa3c 76b3 943a
000000f0: be85 ebbb 1c6e c23c 4242 4d3d 2fb0 0ebe
00000100: 61d3 943d 9d12 0ebe 1698 643d 73ff 1cbb
00000110: fafb 1dbe 141a 99be 14e8 37bd b887 f23d
00000120: a9b2 ebbd 8386 503d d60a 223e e29c 473d
00000130: da51 fa3c 6693 1c3e 9957 47bc 426f ea3d
00000140: 6e6b 2c3e 14e3 e73c 2b93 ad3e c640 df3b
00000150: d736 ddbd 6dd0 b5bc 1612 41bd 5a96 a7bc
00000160: 5fc6 2bbe bfd5 04be d5e3 03bd 79f3 4b3e
00000170: 51a0 d83d 36f7 a73d d19d dcbd c917 69be
00000180: 9e85 1fbd df8c b5bd 534a 9dbe 237b 48be
00000190: 90f8 d23c 951b 043e fb43 c7bd 02ce 8dbc
000001a0: 1b75 9cbd 2407 44be 4f18 6d3c bfbb 113d
000001b0: 48b1 c0bd 3938 89be 624f 95bd 0924 05be
000001c0: 042d 173e 3dc4 56be d30f adbd 842e 06be
000001d0: dc85 7e3c f791 243d a056 91bc f090 5a3d
000001e0: 8aaf 193e 4e57 573e 360f f6bc 76bc 133b
000001f0: b58a 803d cba8 a23d da96 883d 1fca 643d
00000200: 2992 e7bc 3c71 923c 2f4f 0a3e 7982 1bbd
00000210: 460e a93d 5d2f 3c3e c00d 15be d4b6 f5bd
00000220: e5bf 1a3e b0ba 573e 754a 2cbe bc26 07be
00000230: 9ca0 4bbc 4488 b83c ace8 803c 2f56 823c
00000240: 083d b93d a673 3d3d 0a68 933d 5f44 dbbd
00000250: bd79 e1bc c9bd bc3b f1ae 8d3d 5c5c 40be
00000260: a6f1 433d c25e 8a3d 6dfb 4ebe 9ed0 eabd
00000270: 69a8 c2bd 86a6 acbd 9e55 703e 5ac6 533e
00000280: 4f93 493d 7845 743e 2bf0 26bd 7c09 18be
00000290: 21b5 6bbe fb9d 723d 2274 a8bd 708a babd
000002a0: 55e1 dbbd c9b9 ce3d 91f5 853e 6289 553c
000002b0: 24a0 dbbb 5ecc 9b3d b301 06be ef5b 053e
000002c0: 9cd3 363b 6b59 bcbd 5f97 6d3d c3d3 90bc
000002d0: f27a 93bc 83f8 953d efc8 6fbe 53f7 73be
000002e0: 7836 00be 20f0 8abd 5b6d f7bd 8f5a 753d
000002f0: 1424 713d 89db a53d 316f 0f3e c1d9 81be
00000300: 549b c5bd d436 22be 5007 87bd 507c 183d
00000310: 062e 07be 87c6 c43c a49a 82be 8c6c 34be
00000320: c01a 8a3d c775 87bd 9057 81bd 7e3f afbd
00000330: d85a 41be 5049 813e ccc9 aabc 979e 4a3e
00000340: 7b0e b93d 00ec 833e 3c2d 08be 229a c53d
00000350: 232a 44be 6293 f63c 10a6 08bd 8c36 8abd
00000360: 96f0 073d 095e 903e 35b1 4e3b f8b1 47bc
00000370: 27b7 ba3d 23a8 c8bc 8b89 8a3e 0b99 6fbd
00000380: 9262 283e c43f 933e f784 733e 6c05 c63d
00000390: f0ce 953d 4a63 66be 97ff 14bd 521e e2bd
000003a0: acde 26bc 1464 a23d 2828 003e d63a 453e
000003b0: 9e01 95bd d3c2 133e 2685 eabd 48f0 933e
000003c0: e942 adbd aa3c 85bb bf56 ffbc 7bcc d03c
000003d0: d486 0dbe e05a 84be 3b46 9f3d 1933 01bd
000003e0: 566a be3d cc43 60be f23c 52bd 8e25 7dbd
000003f0: fedc 2fbd 2bfb 3bbe e282 fd3d a491 83be

transformer.wK.bias f4 [64]
-0.07292287 -0.12025396 -0.10082231 0.06982285 -0.10572319 0.055567738 -0.069613636 -0.12673931
0.057656717 -0.07640391 -0.07783874 0.04214708 0.11583908 0.12587765 0.004293026 0.09751332
-0.100151114 -0.042527866 -0.009676281 -0.083148986 -0.048102293 0.097892605 0.07577026 0.05999906
-0.06119092 -0.0023401976 -0.05495199 0.11155245 0.017294364 0.09444648 -0.07334625 0.020228004
-0.08292846 0.124433026 -0.048868347 0.11340107 -0.05362382 0.09894571 -0.08691489 0.043626357
-0.05666753 0.024972321 0.06815415 0.06857017 -0.11794586 -0.059539717 0.08612744 -0.12556139
0.05163823 0.047727287 0.039113928 0.077649534 0.097824916 0.08251293 0.062210407 0.10800812
0.043871243 -0.14673558 -0.0045806174 -0.017927779 -0.05996901 -0.05229597 -0.046455417 0.03891397
00000000: 9658 95bd b547 f6bd ed7b cebd 48ff 8e3d
00000010: 6685 d8bd ff9a 633d 9891 8ebd f3c7 01be
00000020: 7329 6c3d a779 9cbd eb69 9fbd 6ba2 2c3d
00000030: 0a3d ed3d 12e6 003e 83ac 8c3b 10b5 c73d
00000040: 071c cdbd b331 2ebd 4489 1ebc 044a aabd
00000050: e906 45bd eb7b c83d 702d 9b3d 93c1 753d
00000060: 55a3 7abd 005e 19bb 5615 61bd 9c75 e43d
00000070: e9ac 8d3c 286d c13d 8f36 96bd 33b5 a53c
00000080: 65d6 a9bd bed6 fe3d 2d2a 48bd d23e e83d
00000090: a7a4 5bbd 0ca4 ca3d 6f00 b2bd 8db1 323d
000000a0: 361c 68bd c192 cc3c 6794 8b3d 846e 8c3d
000000b0: 998d f1bd ebdf 73bd 9563 b03d 2a93 00be
000000c0: 9c82 533d b07d 433d ed35 203d b806 9f3d
000000d0: 6e58 c83d 8afc a83d 57d0 7e3d 5c33 dd3d
000000e0: 55b2 333d da41 16be 0119 96bb 47dd 92bc
000000f0: 11a2 75bd 4d34 56bd 0948 3ebd 4164 1f3d

transformer.wO.weight f4 [64, 64]
-0.35115054 -0.011814938 0.062361196 0.1145057 0.2040271 0.013966159 -0.04278266 -0.15350387
-0.093580514 -0.011527652 0.06979697 0.022791948 0.10997471 0.11839833 0.085691296 0.058897838
-0.043334838 -0.19212142 0.106880546 0.036012758 0.0314531 -0.20969744 -0.010570582 0.11317103
0.19979766 -0.030683095 -0.07990866 0.06684772 -0.045306243 0.050283313 -0.2487525 0.05559616
0.01802783 -0.079043165 -0.20907904 -0.31187993 0.30517074 -0.13462932 -0.03327271 0.08397147
-0.19237867 -0.06436329 -0.0075977705 0.012090193 -0.0020207616 0.10527372 0.107545435 -0.08302946
0.13914712 -0.19203019 -0.12395546 -0.08259558 0.01275623 0.0660282 0.2737906 0.14470752
-0.1648811 -0.080575205 0.14336401 0.06668623 -0.23572798 -0.24886444 -0.08187433 0.0040688943
0.080141485 -0.21130519 -0.22307837 0.1208742 0.047173485 0.08410802 0.13224913 -0.0459154
0.11009782 -0.30302367 0.16047505 0.23762234 -0.18042374 0.04346133 0.14900032 -0.06378417
0.22440037 -0.17519195 0.07033619 -0.18481988 0.005099607 -0.013925404 0.24312696 -0.19065998
0.16920614 -0.19979274 0.20552391 0.12208549 0.043036405 -0.18947123 -0.2960196 0.04508209
0.39735404 -0.17265193 -0.04232024 -0.2610176 -0.10705165 0.022164471 -0.0076674046 0.08556269
-0.13933147 0.10779726 -0.10001519 -0.21897069 0.045194145 -0.08549417 0.11585529 -0.05755296
-0.09364962 0.2116657 -0.2248562 -0.05532999 -0.12816001 -0.19933072 -0.083549604 0.1352148
-0.22989888 -0.0498504 -0.23947607 -0.081981584 0.042093556 0.012197201 -0.15142745 -0.148019
0.022278164 -0.015397295 -0.14961483 -0.12042761 0.026747916 -0.13308653 -0.013964449 0.32743406
0.0014362547 -0.09561641 0.118511915 -0.05362451 0.04399748 0.045164745 0.3620007 -0.15056314
0.007616052 -0.07540731 0.1258495 0.05196948 -0.013711885 0.10884951 0.21103117 -0.3337633
-0.008848993 -0.063171275 -0.075298235 -0.03026866 0.089547835 0.119512685 0.09784766 -0.016558139
0.24132553 -0.21110238 0.06777829 -0.15633164 0.20543092 -0.11271052 -0.038773794 -0.07937318
-0.19624585 0.32446617 -0.20801175 0.054648068 0.23452558 0.03767438 -0.060429353 -0.137973
0.15842739 0.109168194 0.2750036 0.23006703 0.17641406 -0.03755942 -0.09293629 -0.20099688
0.02441237 -0.018175632 -0.08795559 0.33714974 -0.41046482 0.12332451 0.34968558 -0.10997594
-0.119123094 0.054499187 0.0405188 -0.15809654 0.31257185 0.10367041 -0.18236193 0.422292
-0.040977567 -0.04492514 0.1091923 -0.24520452 0.2532462 0.067312896 0.09714751 -0.0802182
-0.15409878 0.13133024 0.09810126 0.14307553 -0.069641836 -0.020367254 0.12402934 0.04041126
-0.19011728 0.10815936 0.03982652 0.12557884 -0.025701683 -0.034666464 0.11246965 0.017361043
0.079360716 0.042743552 0.2276815 0.07965116 0.34006104 -0.14951755 -0.009215749 -0.14915359
-0.18715833 0.05962773 -0.067959 0.23548591 0.20389915 0.18626484 -0.26714906 -0.14366047
0.27310544 -0.11581815 0.34891534 0.18627302 0.1993741 0.09780687 -0.22756687 -0.031749237
0.1503856 0.04503277 0.062127788 0.21598479 -0.1225715 0.04264689 0.1001345 0.012192517
00000000: 01ca b3be 7193 41bc 746e 7f3d f781 ea3d
00000010: 7bec 503e 51d2 643c df3c 2fbd 1e30 1dbe
00000020: 24a7 bfbd 7ade 3cbc b7f1 8e3d 2eb6 ba3c
00000030: 6c3a e13d d37a f23d eb7e af3d dc3e 713d
00000040: df7f 31bd 7abb 44be 30e4 da3d 1d82 133d
00000050: f7d4 003d edba 56be 3c30 2dbc 37c6 e73d
00000060: c297 4c3e 1d5b fbbc 27a7 a3bd 75e7 883d
00000070: 0a93 39bd e0f5 4d3d fab8 7ebe cdb8 633d
00000080: 1aaf 933c 62e1 a1bd d118 56be baae 9fbe
00000090: 573f 9c3e 45dc 09be f748 08bd 3cf9 ab3d
000000a0: eafe 44be e7d0 83bd b8f6 f8bb f215 463c
000000b0: c16e 04bb c099 d73d c840 dc3d 590b aabd
000000c0: 957c 0e3e 90a3 44be 5cdc fdbd df27 a9bd
000000d0: 82ff 503c cb39 873d 482e 8c3e 352e 143e
000000e0: 97d6 28be 9d04 a5bd 04ce 123e ca92 883d
000000f0: ad62 71be 52d6 7ebe bbad a7bd 5c54 853b
00000100: 3821 a43d 6360 58be a86e 64be e48c f73d
00000110: fc38 413d d340 ac3d 516c 073e c911 3cbd
00000120: f77a e13d eb25 9bbe 9253 243e 4553 733e
00000130: 00c1 38be 8204 323d 8a93 183e 46a1 82bd
00000140: 36c9 653e 8565 33be 6c0c 903d 6c41 3dbe
00000150: 9b1a a73b 6127 64bc 46f6 783e 5f3c 43be
00000160: 6044 2d3e 7896 4cbe dc74 523e f507 fa3d
00000170: f146 303d bf04 42be e28f 97be ffa7 383d
00000180: fd71 cb3e abcb 30be fd57 2dbd 19a4 85be
00000190: e53d dbbd 4492 b53c da3e fbbb 7e3b af3d
000001a0: e9ac 0ebe cfc4 dc3d c4d4 ccbd da39 60be
000001b0: 7f1d 393d 9117 afbd 8a45 ed3d a7bc 6bbd
000001c0: 5fcb bfbd e5be 583e b440 66be b3a1 62bd
000001d0: 613c 03be 5a1d 4cbe 0e1c abbd c075 0a3e
000001e0: 9d6a 6bbe ef2f 4cbd 3739 75be f6e5 a7bd
000001f0: 4b6a 2c3d c5d6 473c cc0f 1bbe 4b92 17be
00000200: b280 b63c f044 7cbc a134 19be c0a2 f6bd
00000210: 721e db3c d647 08be 25cb 64bc 70a5 a73e
00000220: b640 bc3a 89d2 c3bd 60b6 f23d 60a5 5bbd
00000230: b436 343d abfe 383d 2858 b93e 392d 1abe
00000240: 1390 f93b 266f 9abd b1de 003e f3dd 543d
00000250: d0a7 60bc 7eec de3d 8e18 583e 06e3 aabe
00000260: 5efb 10bc f15f 81bd f635 9abd fbf5 f7bc
00000270: db64 b73d 11c3 f43d 5b64 c83d efa4 87bc
00000280: 0a1e 773e 392b 58be 58cf 8a3d 6715 20be
00000290: 7c5c 523e c6d4 e6bd 45d1 1ebd 688e a2bd
000002a0: acf4 48be 6e20 a63e 0801 55be a7d6 5f3d
000002b0: 7927 703e 7350 1a3d c584 77bd cb48 0dbe
000002c0: ca3a 223e 9393 df3d 46cd 8c3e b196 6b3e
000002d0: e3a5 343e e8d7 19bd 6255 bebd 20d2 4dbe
000002e0: 73fc c73c 10e5 94bc 0f22 b4bd e49e ac3e
000002f0: 7228 d2be 9091 fc3d fd09 b33e 113b e1bd
00000300: cff6 f3bd 8a3a 5f3d 0bf7 253d 0fe4 21be
00000310: 6b09 a03e 2751 d43d 16bd 3abe a836 d83e
00000320: 18d8 27bd 6c03 38bd 36a0 df3d e516 7bbe
00000330: 7ca9 813e 58db 893d 46f5 c63d 7149 a4bd
00000340: 12cc 1dbe 6f7b 063e 50e9 c83d 6482 123e
00000350: 61a0 8ebd 3ad9 a6bc 1803 fe3d 4786 253d
00000360: 1bae 42be a882 dd3d 2221 233d bd97 003e
00000370: 568c d2bc 6cfe 0dbd 7d56 e63d bf38 8e3c
00000380: df87 a23d dd13 2f3d 5725 693e 2620 a33d
00000390: 7b1c ae3e 211b 19be a7fd 16bc b8bb 18be
000003a0: 6fa6 3fbe 353c 743d 172e 8bbd 3823 713e
000003b0: f0ca 503e 36bc 3e3e c3c7 88be bb1b 13be
000003c0: 7ad4 8b3e 1132 edbd 08a5 b23e 5bbe 3e3e
000003d0: b928 4c3e f84e c83d 4a07 69be 7d0b 02bd
000003e0: affe 193e 4874 383d b579 7e3d 1e2b 5d3e
000003f0: c406 fbbd 81ae 2e3d 5113 cd3d 1fc3 473c

transformer.wO.bias f4 [64]
0.14802101 -0.08862383 0.08031765 0.13473877 0.05579171 -0.09607009 -0.08636597 0.14305405
0.026563307 -0.104885444 0.14950973 -0.12679212 -0.039603375 0.07836735 -0.116427384 0.084917285
-0.071008265 0.013120105 0.02540698 0.0076035997 0.078225754 0.034248456 -0.006697608 -0.0612179
0.0034055957 -0.10097094 -0.039843857 -0.14383963 -0.032758284 0.053644985 0.011564165 -0.07151926
0.040313095 -0.08796527 -0.025479719 0.013092605 -0.08914068 0.109862156 0.047551274 0.1091247
0.06311186 0.045470394 0.048565693 0.09431015 -0.027248045 -0.0059795654 0.05528385 0.0715275
0.07984419 -0.0031226256 0.055577625 -0.009099964 -0.03397097 0.058899168 0.05432004 -0.014527153
-0.104701266 0.17106487 0.103917494 0.054907788 0.18928243 0.101960495 0.082605645 -0.05807142
00000000: d292 173e 6980 b5bd 957d a43d f6f8 093e
00000010: d985 643d 65c0 c4bd a4e0 b0bd c37c 123e
00000020: 4b9b d93c 2ece d6bd 1419 193e cbd5 01be
00000030: 2637 22bd 107f a03d 7b71 eebd 1de9 ad3d
00000040: c86c 91bd b5f5 563c 4d22 d03c 9e27 f93b
00000050: d334 a03d 1c48 0c3d 9c77 dbbb 9fbf 7abd
00000060: 6a30 5f3b dac9 cebd 5033 23bd b24a 13be
00000070: 8d2d 06bd d8ba 5b3d a077 3d3c b178 92bd
00000080: 581f 253d 2327 b4bd d8ba d0bc 5e82 563c
00000090: 648f b6bd 69ff e03d 20c5 423d c57c df3d
000000a0: ca40 813d 2a3f 3a3d d2ec 463d ae25 c13d
000000b0: 4b37 dfbc 3bf0 c3bb 5171 623d 037d 923d
000000c0: 5a85 a33d f7a4 4cbb 5da5 633d 0418 15bc
000000d0: 2525 0bbd 4140 713d b17e 5e3d 4c03 6ebc
000000e0: 9e6d d6bd a12b 2f3e b2d2 d43d fde6 603d
000000f0: 41d3 413e aad0 d03d 262d a93d 4cdc 6dbd
