mnist_transformer_my_own.pth (torch, 91024 bytes, 13 tensors)

pos_embed f4 [1, 16, 64]
0	0xbed7acc8	-0.4212401
1	0x3f4f9bfb	0.8109738
2	0x3f01ff4d	0.50780183
3	0xbed956ee	-0.42449135
4	0x3f7fb1ab	0.99880475
5	0xbf4ad5c0	-0.79232407
6	0xbeabd0b1	-0.33557656
7	0x3f5c0482	0.8594438
8	0xbf7a4fc4	-0.9777796
9	0xbdb2124c	-0.08694896
10	0x3f5d6498	0.8648162
11	0x3f126776	0.5718912
12	0x3f183f49	0.59471565
13	0x3f0cbd65	0.54976493
14	0xbf95adaf	-1.1693629
15	0x3ef8fced	0.48630467
16	0x3ee1e9d5	0.44123712
17	0xbf2d0c89	-0.6759725
18	0xbf14dce5	-0.5814956
19	0x3f431c6e	0.76215255
20	0x3db015f4	0.08597937
21	0x3ea6f3ea	0.32607967
22	0x3efe7758	0.49700427
23	0x3e026b1e	0.12736174
24	0xbfa98187	-1.3242654
25	0xbfc0ad61	-1.5052911
26	0xbf128600	-0.5723572
27	0x3ed6e7e8	0.41973805
28	0x3f8a0c44	1.0784993
29	0xbebb5b69	-0.36593178
30	0x3f217d2f	0.6308164
31	0x3f7673ba	0.96270335
32	0x3f187cf1	0.59565645
33	0xbe6be793	-0.23037557
34	0x3f5e10a4	0.8674414
35	0xbf3c612e	-0.73585784
36	0xbdd8c2a8	-0.10584003
37	0xbfdcebf5	-1.7259508
38	0x3fa7ec9a	1.311908
39	0xbf43ff11	-0.76561075
40	0x3feea814	1.8645043
41	0xbf95a9bd	-1.1692425
42	0xbeadd78f	-0.3395352
43	0xbeab8a73	-0.33504066
44	0x40353686	2.8314528
45	0x3f38dc3d	0.72211057
46	0xbfaf4b3b	-1.3694834
47	0xbd690570	-0.05688995
48	0xbfde84d6	-1.7384288
49	0x3f239350	0.63896656
50	0x3f139320	0.5764637
51	0x3e176c7b	0.14787476
52	0x3fdc7099	1.7221862
53	0x3dfbdec6	0.1229835
54	0x3f26b95e	0.651266
55	0x3f6dec5d	0.92938787
56	0x3f439abf	0.76408
57	0xbed927db	-0.4241322
58	0xbe6f8ae3	-0.23392825
59	0x3e193d15	0.14964707
60	0xbd655564	-0.055989638
61	0xbdbd496b	-0.09242519
62	0xbf3065bb	-0.6890523
63	0x3fe98c50	1.8245945
64	0x3faebb83	1.3650974
65	0x3dc9507e	0.09829806
66	0x3b620d78	0.0034492891
67	0xbfa85441	-1.3150712
68	0x3e961192	0.2931028
69	0x3d7118c1	0.058861498
70	0x3e126e13	0.14299802
71	0x3d8d473a	0.06898351
72	0x3e80beb1	0.25145486
73	0xbe38e9ce	-0.1805794
74	0xbf670cf4	-0.9025414
75	0xbf9476c8	-1.1598749
76	0xbe8a9e8d	-0.2707409
77	0x3fa4ccaa	1.2874959
78	0x3f1e447e	0.6182326
79	0x3f95800c	1.1679702
80	0x3f5fd6d2	0.87437165
81	0xbef36742	-0.47539717
82	0x3eefa721	0.46807197
83	0x3eca50ca	0.39514762
84	0x40107dec	2.2576857
85	0xbfe914d3	-1.820948
86	0x3f4292be	0.7600516
87	0xbf42a4e4	-0.76032853
88	0xbeae5156	-0.3404643
89	0x3fa7f4f3	1.3121628
90	0xbd47f7f2	-0.048820443
91	0x3e8a0ce6	0.26962966
92	0x3f947dc4	1.1600881
93	0x3fa8708d	1.3159348
94	0x3ce180d7	0.027527256
95	0x3fa8147c	1.3131251
96	0xbee240d0	-0.44190073
97	0x3f035609	0.51303154
98	0xbeb1839b	-0.3467072
99	0x4032782c	2.7885847
100	0x3f4faa2b	0.8111903
101	0x3fa28116	1.2695644
102	0xbee9bc45	-0.4565145
103	0xbee4ec2a	-0.4471143
104	0x3ef71212	0.48255974
105	0xbde350bc	-0.11099383
106	0xbecd1cd0	-0.40061045
107	0x3f96ad65	1.1771666
108	0xbd4535af	-0.0481469
109	0xbee0928e	-0.43861812
110	0xbf74e7c4	-0.95666146
111	0x3f65b08b	0.8972251
112	0xbf0c295e	-0.5475062
113	0xbdc0c218	-0.094120204
114	0xbe2c8964	-0.16849285
115	0xbf804c93	-1.0023369
116	0xbe2afd95	-0.16698296
117	0x3fc946ec	1.5724769
118	0x3e8d22c5	0.2756559
119	0x3f2d1d89	0.6762319
120	0x3face63e	1.3507764
121	0x3ef0e356	0.47048444
122	0x3f9de97c	1.2336879
123	0xbf48e247	-0.7847027
124	0x401b764d	2.4290955
125	0x3f3249d0	0.6964388
126	0xbf7dc597	-0.99129623
127	0xbeb43ff8	-0.35205054
128	0xbf729f41	-0.9477425
129	0xbf186bcd	-0.5953949
130	0xbe04fb30	-0.12986445
131	0x3fd247d5	1.6428171
132	0xbfdb707c	-1.7143703
133	0x3d55bfbc	0.052184805
134	0xbf36d040	-0.71411514
135	0xbf416e70	-0.7555914
136	0xbea3031d	-0.31838313
137	0x3f48d56e	0.7845067
138	0xbf3a7753	-0.72838324
139	0x4014ffa5	2.3281033
140	0x3e935ad4	0.28780234
141	0xbe83391c	-0.25629508
142	0x3d5d7ea4	0.054075852
143	0xbf60ecf9	-0.8786159
144	0xbd4b534f	-0.049639996
145	0x3e9cf095	0.306523
146	0xbd8613d5	-0.065467514
147	0xbf113df4	-0.5673516
148	0xbe8f0023	-0.27929792
149	0xbef3fd8e	-0.47654384
150	0x3fe5478d	1.791246
151	0xbf153b3b	-0.58293504
152	0x3e5ae9c1	0.21378233
153	0x3fe77205	1.8081671
154	0x3de0fd5f	0.10985827
155	0x3f792b26	0.97331464
156	0x3f5871b8	0.8454852
157	0xbe48e362	-0.1961799
158	0xc00295da	-2.0403962
159	0xbede510a	-0.43421203
160	0x3fbc5919	1.471469
161	0x3fc009f2	1.5003035
162	0xbf70075b	-0.93761224
163	0x3da83769	0.08213694
164	0x3f2cd90d	0.67518693
165	0x3f90b359	1.1304733
166	0xbf20b06b	-0.6276919
167	0xbfe60d0a	-1.7972729
168	0xbfab6afb	-1.3392023
169	0xbeb1cf2a	-0.34728366
170	0xbf9b7900	-1.2146301
171	0x3f98602d	1.190435
172	0xc0240d1c	-2.5633001
173	0xbe80e6e8	-0.25176167
174	0x3f9e4a19	1.2366363
175	0xbeb38f0e	-0.3507008
176	0xbfe47ea7	-1.7851151
177	0xbec4c513	-0.38431606
178	0x3eef04c8	0.46683335
179	0xbf4feb10	-0.8121805
180	0x3f6a6402	0.9155885
181	0x3e5f0a63	0.21781306
182	0xbf258214	-0.6465161
183	0xbd9b5126	-0.07583837
184	0x3e611c93	0.21983556
185	0xbf1dda7b	-0.616615
186	0x3f979746	1.184304
187	0x3f604d97	0.8761839
188	0xbe4a8417	-0.19776951
189	0xbf67acf6	-0.9049829
190	0xbf2e1ee5	-0.6801589
191	0x3e0c98e0	0.13730192
192	0xbe32e68c	-0.17470759
193	0xbe7550c9	-0.23956598
194	0xbe9c8447	-0.3056967
195	0x3fd60b5d	1.6722218
196	0x3ef2ef11	0.47448018
197	0x3ed75f8a	0.42065078
198	0xbe8500ba	-0.25977117
199	0xbfec9b04	-1.8484807
200	0xbf590c2e	-0.8478421
201	0x3fd9a8fb	1.7004694
202	0x3f333d72	0.70015633
203	0x40040a1e	2.0631175
204	0x40031c62	2.0486073
205	0x3fcf31e1	1.6187097
206	0x3fa85689	1.3151408
207	0x3fc1e0b9	1.5146705
208	0x3e2892f6	0.16462311
209	0xbfcd46a5	-1.6037184
210	0x3f9c5605	1.2213751
211	0x40332320	2.7990189
212	0xbfb250c5	-1.3930899
213	0xbfc30799	-1.5236694
214	0x3e0c9371	0.1372812
215	0x3fbd7c4a	1.4803555
216	0xbf1138b1	-0.5672713
217	0x3fa7a208	1.3096323
218	0xbf44e99c	-0.7691896
219	0xbedcf3d1	-0.43154767
220	0x40231eb8	2.54875
221	0xbe834cff	-0.2564468
222	0xbfa84b39	-1.3147956
223	0xbf18626d	-0.59525186
224	0x40406aee	3.0065265
225	0x3fd212f5	1.6412035
226	0x3c7e424a	0.015518734
227	0xbf412d62	-0.75459874
228	0x3f1394b8	0.576488
229	0xbfad4ce4	-1.353909
230	0xbf85e22e	-1.045965
231	0xbf77e1f7	-0.9682917
232	0xbffdf1e3	-1.9839443
233	0x3f90168b	1.125688
234	0xbf346c15	-0.7047742
235	0x3e26bc27	0.16282712
236	0xbf944ac0	-1.1585312
237	0xbea5ef57	-0.32409164
238	0xbe89cc24	-0.2691356
239	0xbfa0746a	-1.2535527
240	0xbf123d72	-0.5712501
241	0xbf971319	-1.1802703
242	0xbf84d889	-1.0378581
243	0xbf2426c3	-0.64121646
244	0xbfa1d802	-1.2644045
245	0x3fbf736b	1.4957098
246	0x3d0d9709	0.034567866
247	0xbe809758	-0.25115466
248	0xbf768c78	-0.9630809
249	0xbf34052e	-0.70320404
250	0x3d583e69	0.052793894
251	0xbea7a675	-0.32744184
252	0x3f1a0ec6	0.6017879
253	0x3f100d3d	0.562702
254	0xbf58157a	-0.8440777
255	0x405481f9	3.320433

patch_embed.weight f4 [64, 49]
0	0x3e45f4ff	0.1933174
1	0x3dcd05e5	0.1001089
2	0xbdb9b3b8	-0.09067482
3	0x3cddbc01	0.027067186
4	0xbdeed0dc	-0.116609305
5	0x3daf625c	0.085636824
6	0x3bdfe648	0.0068328716
7	0xbdb60ba9	-0.08888943
8	0x3dad3a16	0.08458345
9	0xbcde4cc1	-0.027136208
10	0x3dc56935	0.09639207
11	0xbb46ac52	-0.0030315113
12	0xbd81c3d0	-0.063361764
13	0xbd6c05ae	-0.057622604
14	0xbe052436	-0.13002095
15	0x3d6277eb	0.055290144
16	0x3dcc2baa	0.09969266
17	0x3e01bfdf	0.1267085
18	0x3df353b9	0.11881203
19	0x3e09269c	0.13393635
20	0xbc890788	-0.016727224
21	0xbc4b0961	-0.012392373
22	0x3e26bd6e	0.16283199
23	0x3dafc5d8	0.085826576
24	0x3e4550f6	0.19269165
25	0x3e27a223	0.16370444
26	0x3c81fe92	0.015868459
27	0xbc14db4a	-0.009085486
28	0x3ddb72f0	0.10715282
29	0x3d8266c5	0.06367258
30	0xbd1fd658	-0.039022774
31	0xbd4cc442	-0.049991854
32	0x3cbeee98	0.02330713
33	0xbd9d2853	-0.07673707
34	0x3b289384	0.0025722692
35	0x3dd67e25	0.10473279
36	0xbd0b9542	-0.03407789
37	0x3db704ee	0.08936487
38	0xbc0dbe2c	-0.008651298
39	0xbe11e16a	-0.14246145
40	0xbe17eedd	-0.14837213
41	0x3e246acc	0.16056365
42	0x3e0d3fc3	0.13793854
43	0xbcc9e9ca	-0.024647612
44	0xbe0de70b	-0.13857667
45	0xbe32cabf	-0.17460154
46	0xbe796c41	-0.24357702
47	0xbcbb7521	-0.022883
48	0xbde6fa14	-0.11278167
49	0xbde5bcdf	-0.11217665
50	0xbe27ff4d	-0.16405983
51	0xbd8642a8	-0.065556824
52	0xbe124bf0	-0.1428678
53	0xbd6f0f07	-0.05836394
54	0x3d568835	0.05237599
55	0xbcc9e0f8	-0.024643406
56	0x3e0389fb	0.12845604
57	0xbe10a979	-0.14127149
58	0x3c9e36f9	0.019313322
59	0xbe0181f3	-0.12647228
60	0xbdedabe0	-0.11605048
61	0xbe082b0b	-0.1329767
62	0xbdf8aa00	-0.121418
63	0x3da50ffe	0.08059691
64	0xbdb6f20b	-0.08932885
65	0xbdfceca5	-0.12349824
66	0xbe581aae	-0.21103927
67	0xbe0315e7	-0.12801324
68	0xbe7fe4f4	-0.24989682
69	0xbe6092d1	-0.21931006
70	0x3dc5c752	0.09657158
71	0xbd5fafe4	-0.0546111
72	0xbd936644	-0.0719724
73	0xbe1676f1	-0.1469381
74	0xbd487bac	-0.048946068
75	0xbe2da7d4	-0.16958553
76	0xbe06dd01	-0.13170244
77	0x3d9d9b12	0.07695593
78	0x3d9ddb36	0.07707827
79	0x3e38b1e3	0.18036608
80	0x3dc29748	0.09501511
81	0xbc2c20bc	-0.010505851
82	0x3d8ba127	0.06817847
83	0x3e4679fd	0.19382472
84	0x3d9297a2	0.07157828
85	0x3deed42f	0.116615646
86	0x3b662086	0.00351146
87	0x3db6631c	0.08905622
88	0x3e2a87ff	0.16653441
89	0x3dd0f524	0.10203007
90	0x3d378751	0.044806782
91	0xbd99252e	-0.074777946
92	0x3dcc5a4c	0.0997816
93	0x3e33c285	0.17554672
94	0x3cbf07b1	0.023319097
95	0x3d59f641	0.05321336
96	0x3da9ceae	0.08291374
97	0x3e1938bc	0.14963049
98	0x3e1082c9	0.1411239
99	0xbc83c329	-0.01608427
100	0x3c0315ab	0.0080007715
101	0x3d759830	0.05995959
102	0xbd6b668f	-0.057470854
103	0xbb82cca1	-0.003991679
104	0xbdfc7d4c	-0.12328586
105	0x3e33a4d8	0.17543352
106	0xbe1a6793	-0.15078573
107	0xbd38f5cc	-0.045156285
108	0x3dc1465c	0.09437248
109	0x3c4f5a61	0.012655825
110	0x3ccde985	0.025135765
111	0xbca7e196	-0.02049331
112	0x3ddd61f3	0.10809698
113	0xbc7d4fc4	-0.015460912
114	0xbe386cce	-0.18010256
115	0xbb0c3337	-0.002139283
116	0xbddfd884	-0.10929969
117	0xbdc9a8b7	-0.09846633
118	0xbe0bc471	-0.13649155
119	0xbe1923e4	-0.14955097
120	0xbdb46307	-0.088079505
121	0xbdbd53cc	-0.092444986
122	0xbde15ead	-0.11004386
123	0xbc9f8467	-0.019472314
124	0xbe0009ba	-0.1250371
125	0xbcc6c631	-0.024264427
126	0xbd93d619	-0.0721857
127	0x3dc4b52a	0.09604867
128	0xbd5301af	-0.051515277
129	0xbbec17aa	-0.0072049694
130	0x3c3a7f60	0.011382908
131	0x3d8e39ec	0.069446415
132	0x3c94de24	0.018172331
133	0x3e0c1201	0.13678743
134	0xbc852f4c	-0.016257904
135	0x3e1c4052	0.15258911
136	0x3daa13cf	0.083045594
137	0x3e4ffc50	0.20311093
138	0x3c43fe2f	0.011962458
139	0x3c4d85cf	0.0125441095
140	0x3ddb3d2b	0.10705026
141	0x3e3b1670	0.18270278
142	0x3e1f5728	0.15560591
143	0x3de1ff81	0.11035062
144	0x3e0b5eed	0.1361043
145	0xbe15cdf2	-0.14629343
146	0x3e061c1e	0.13096663
147	0x3defbbe7	0.117057614
148	0x3db3a660	0.08771968
149	0x3dc2a74e	0.09504567
150	0x3daaa2bd	0.08331821
151	0x3de98a53	0.114033364
152	0xbc799e40	-0.015235484
153	0xbe313d8c	-0.17308635
154	0xbe3d0e61	-0.18462516
155	0x3d043cc6	0.03228452
156	0xbdeb7c6b	-0.1149834
157	0xbc290746	-0.0103166755
158	0xbddf407a	-0.1090097
159	0x3d8acc85	0.0677729
160	0xbe559124	-0.20856148
161	0x3da26658	0.07929677
162	0xbca719e4	-0.020398088
163	0x3cc9ce72	0.024634574
164	0x3d45fcf3	0.048336934
165	0xbdbf4b85	-0.09340576
166	0xbddd24a7	-0.107980065
167	0xbe8df919	-0.2772911
168	0xbda91efc	-0.08257863
169	0x3dffa7d0	0.124831796
170	0x3d2a70d7	0.04161152
171	0xbdef0012	-0.11669935
172	0xbdb45b16	-0.08806436
173	0x3c21dd24	0.009879384
174	0xbe8129b8	-0.2522714
175	0xbb30491c	-0.0026899045
176	0xbda2412c	-0.07922587
177	0xbd937681	-0.07200337
178	0x3d269dde	0.040677898
179	0x3ca7d65f	0.020487962
180	0xbd364cef	-0.044506963
181	0x3d1c7370	0.038196027
182	0xbe13ea00	-0.14444733
183	0x3ce85bb6	0.028364044
184	0xbdb8526c	-0.09000096
185	0xbd9f1aad	-0.0776876
186	0xbdb23341	-0.08701182
187	0x3aaf0387	0.0013352492
188	0x3bfa7fc8	0.0076446272
189	0x3d002d77	0.03129336
190	0xbd6c81e1	-0.05774105
191	0xbd9e092f	-0.077165954
192	0xbe2aaf37	-0.16668402
193	0xbc404e93	-0.011737484
194	0x3a76d516	0.00094159076
195	0x3d1e01a2	0.038575776
196	0xbe69d847	-0.2283641
197	0xbd4f8d66	-0.050671957
198	0xbcafdbfd	-0.021467203
199	0x3df9bb9a	0.12193985
200	0x3d038b38	0.03211519
201	0xbdac3091	-0.08407701
202	0xbdf62a3f	-0.120197766
203	0xbe10fb28	-0.14158309
204	0xbcf8cf98	-0.030372426
205	0xbdd7ec29	-0.10543091
206	0xbe02a3e8	-0.12757838
207	0xbd60dbbc	-0.054897055
208	0xbd44a357	-0.048007336
209	0xbd37ac7d	-0.044842232
210	0xbd5374c2	-0.05162502
211	0xbdf4c3ca	-0.11951406
212	0xbd6bace5	-0.057537932
213	0x3dbdca8a	0.09267147
214	0xbc353695	-0.011060377
215	0x3d020c9b	0.031750303
216	0xbd106770	-0.035254896
217	0x3e154821	0.14578296
218	0x3e2da096	0.1695579
219	0x3e3dac74	0.18522817
220	0xbddf879b	-0.109145366
221	0x3c7d1906	0.015447861
222	0xbdb345b9	-0.08753533
223	0xbe12be5a	-0.14330426
224	0xbe14b602	-0.14522555
225	0xbe5f4455	-0.2180341
226	0x3b45ed1d	0.0030201145
227	0xbd772ebb	-0.0603473
228	0xbdd2f54c	-0.10300693
229	0x3cddfc44	0.027097829
230	0xbdfeb1f6	-0.12436287
231	0xbe4a6e57	-0.19768654
232	0xb7861510	-1.5983853e-05
233	0xbe71a5bb	-0.23598377
234	0xbdff5351	-0.12467063
235	0xbd2e8f5b	-0.042617183
236	0x3d47e552	0.04880268
237	0x3d41d543	0.047322523
238	0xbdbfbaf0	-0.093618274
239	0xbddbe658	-0.10737294
240	0xbdb1b209	-0.08676536
241	0x3dc10237	0.094242506
242	0xbd69102a	-0.05690018
243	0xbd8a2069	-0.06744463
244	0x3e35eabb	0.17765324
245	0xbe8669bb	-0.2625254
246	0xbdc66112	-0.096864834
247	0xbd9e01e4	-0.07715204
248	0x3d066940	0.032815218
249	0xbcded2f4	-0.0272002
250	0x3cc6a397	0.024247928
251	0x3e05c33b	0.13062756
252	0xbc908d43	-0.017645484
253	0xbda35710	-0.0797559
254	0xbdfb6672	-0.12275399
255	0x3c769223	0.01504949

patch_embed.bias f4 [64]
0	0x3dbe2383	0.09284117
1	0xbc046ee2	-0.008083077
2	0xbe0da81b	-0.13833658
3	0xbe23b66a	-0.15987554
4	0xbe16049d	-0.14650197
5	0xbe20a282	-0.15686992
6	0x3d0a9f39	0.033843253
7	0x3db4d5b3	0.088298224
8	0x3e92b857	0.28656265
9	0x3e136632	0.14394453
10	0xbdaed1fe	-0.085361466
11	0x3dc5559c	0.09635469
12	0xbdf922e8	-0.12164861
13	0x3db5d128	0.08877784
14	0xbe0acaf6	-0.13553986
15	0xbc68688b	-0.014185081
16	0x3c8eac65	0.017416188
17	0xbcb6591a	-0.022259284
18	0x3e50433f	0.20338152
19	0xbddf35f1	-0.108989604
20	0xbd8e6e25	-0.06954602
21	0x3ce53efa	0.027984131
22	0xbd9a5903	-0.07536509
23	0xbd1be76f	-0.03806251
24	0x3dd157a1	0.10221792
25	0xbde0636c	-0.10956463
26	0xbdd75ac3	-0.10515358
27	0xbd174009	-0.036926303
28	0xbd6da2d0	-0.0580166
29	0x3d793ee7	0.060851004
30	0x3bd3f001	0.0064678197
31	0xbd126926	-0.03574481
32	0x3c101e0c	0.008796226
33	0xbdbfbcf6	-0.09362213
34	0x3e4fd097	0.20294414
35	0xbde5052d	-0.11182628
36	0x3d184a2a	0.037180103
37	0xbc9b3def	-0.01895043
38	0xbdd3f70a	-0.10349853
39	0x3ce51afa	0.027966965
40	0xbdd2e78a	-0.10298069
41	0xbd5414bb	-0.051777583
42	0xbc173930	-0.009229943
43	0xbe58bdfe	-0.21166226
44	0x3cafeb22	0.021474425
45	0x3d55ae94	0.052168444
46	0xbd102338	-0.035189837
47	0xbc209a3f	-0.0098024
48	0x3d75f089	0.060043845
49	0x3d105f3c	0.035247073
50	0x3db49c70	0.088189006
51	0x3ebc6a0a	0.3679965
52	0xbdde4e3c	-0.10854766
53	0xbe9ccba6	-0.3062412
54	0xbe2a8aca	-0.16654506
55	0x3e07b516	0.13252673
56	0x3e4733a6	0.19453296
57	0x39ebda06	0.00044985133
58	0xbb5cdb20	-0.0033699945
59	0x3bde0bd5	0.006776313
60	0xbc329e13	-0.010901946
61	0x3e0f5a00	0.13999176
62	0x3e435aa0	0.1907754
63	0xbe83ee6c	-0.2576784

transformer.wV.weight f4 [64, 64]
0	0x3cd73740	0.026271462
1	0xbe1503cc	-0.1455223
2	0xbe2f6d02	-0.17131427
3	0x3d7b22b1	0.06131238
4	0xbb83ce42	-0.0040223906
5	0x3b811fbb	0.00394055
6	0x3c66ae84	0.014079694
7	0xbec6e15c	-0.3884381
8	0xbe920844	-0.2852193
9	0xbd2415d5	-0.040059883
10	0xbe305390	-0.17219377
11	0x3de190b6	0.110139295
12	0x3da15a3a	0.078785375
13	0xbdfad563	-0.122477315
14	0xbe3f246b	-0.18666236
15	0x3c82e86f	0.015979974
16	0x3e2b323d	0.16718383
17	0xbe6b0b51	-0.22953536
18	0xbdd1aa95	-0.10237614
19	0xbd937b81	-0.07201291
20	0x3dff6db5	0.12472097
21	0x3e678617	0.22609745
22	0xbddb5c69	-0.10710985
23	0x3da11d68	0.07866937
24	0x3d83b6d7	0.06431358
25	0x3e284f90	0.164366
26	0x3e1b9160	0.15192175
27	0x3d1631be	0.03666853
28	0xbd231dc7	-0.03982332
29	0x3e56569a	0.20931473
30	0x3e77eb77	0.24210916
31	0xbd618c0a	-0.055065192
32	0x3db4cae0	0.08827758
33	0x3cad80c3	0.021179562
34	0x3e63ac84	0.22233778
35	0xbe50793a	-0.20358744
36	0xbe366e3f	-0.17815493
37	0x3ec76b36	0.38948983
38	0xbc2b45d9	-0.010453665
39	0xbdb987ec	-0.09059128
40	0xbe9dcce2	-0.30820376
41	0xbe06e681	-0.13173868
42	0x3d78d4b6	0.060749732
43	0xbd8e161e	-0.06937812
44	0xbea140e8	-0.31494832
45	0xbbc961d1	-0.006145694
46	0x3e1e2cdf	0.15446804
47	0x3e17945d	0.1480269
48	0x3e7baa4e	0.24576685
49	0xbddb0c2b	-0.1069568
50	0x3dd8ac65	0.10579757
51	0xbe507c5d	-0.20359941
52	0xbdf2a2da	-0.11847468
53	0xbdf54a2e	-0.11977039
54	0x3e485b2c	0.1956603
55	0x3d4162dc	0.04721342
56	0xbe42afa8	-0.1901232
57	0x3df3601e	0.11883567
58	0x3e0dc5aa	0.13844934
59	0x3ce77c6e	0.028257575
60	0xbe623983	-0.22092251
61	0x3c7f1360	0.015568584
62	0x3ea9e24e	0.3318047
63	0x3d069a5d	0.032862056
64	0x3dea5ee5	0.11443881
65	0x3e869088	0.26282144
66	0xbca76ab0	-0.020436615
67	0xbe60b3a9	-0.21943535
68	0xbe5be7c4	-0.2147513
69	0x3db6db80	0.08928585
70	0xbe4b07cb	-0.19827192
71	0x3ce95d9b	0.028487017
72	0x3db1bee2	0.08678986
73	0x3f02c1e8	0.5107713
74	0xbd8a3d48	-0.0674997
75	0x3d60b9a7	0.054864552
76	0xbe2a7556	-0.16646323
77	0x3dc54e9c	0.09634134
78	0xbd4c8f67	-0.049941447
79	0xbe9c20d2	-0.3049379
80	0x3e062ffc	0.13104242
81	0x3e56f64b	0.20992391
82	0x3e1d6a8f	0.1537268
83	0x3c5fc7f3	0.013658511
84	0x3e23758f	0.15962814
85	0xbd94e651	-0.07270492
86	0xbdb488cd	-0.08815155
87	0x3d1390e3	0.036026847
88	0xbe91f437	-0.28506634
89	0xbead7355	-0.33877054
90	0x3e52e0a6	0.20593509
91	0x3d8e4892	0.069474354
92	0xbd971dd6	-0.07378738
93	0x3d594163	0.053040873
94	0x3ce36e10	0.027762443
95	0xbcf284c1	-0.029604318
96	0x3e23974a	0.15975681
97	0x3b9d4ab6	0.004800166
98	0x3e4043f4	0.18775922
99	0xbebae257	-0.3650081
100	0x3e59b959	0.21262111
101	0xbe220310	-0.15821481
102	0xbdc400fe	-0.09570502
103	0x3b94b518	0.0045381896
104	0x3d96ae1b	0.07357427
105	0xbe7fb835	-0.24972613
106	0x3e6a045b	0.22853224
107	0x3d428ab7	0.04749557
108	0x3c8879ec	0.0166597
109	0x3dcda373	0.10040941
110	0xbdb48f15	-0.08816353
111	0x3e786a64	0.24259335
112	0xbe41b617	-0.18917118
113	0x3d2864e8	0.041111857
114	0xbd6c486e	-0.05768626
115	0x3df999ef	0.12187564
116	0x3dcf5f96	0.101256534
117	0x3c15ff08	0.0091550425
118	0xbe321117	-0.17389332
119	0x3e73d9e7	0.23813592
120	0xbd5f842d	-0.054569412
121	0x3b9aadf4	0.004720444
122	0x3db532c9	0.08847577
123	0xbe5aa058	-0.21350229
124	0xbd1bb7f0	-0.038017213
125	0x3e548ff0	0.20758033
126	0xbe362518	-0.17787588
127	0x3be2bde0	0.0069196075
128	0xbc04621f	-0.0080800345
129	0xbe1069a6	-0.14102802
130	0x3c2709cd	0.010195208
131	0x3ea86c37	0.3289506
132	0xbdb9aabe	-0.090657696
133	0x3bfbc066	0.007682848
134	0x3e9b2bb9	0.30306795
135	0xbda185c6	-0.078868434
136	0x3dd8291d	0.10554717
137	0xbe98e7b8	-0.29864287
138	0x3e7ac528	0.24489272
139	0x3e06400c	0.1311037
140	0x3d9b129f	0.07571911
141	0xbd3ab33c	-0.045581087
142	0x3e0e14cb	0.1387512
143	0x3cd6015b	0.026123693
144	0xbd0106a8	-0.03150049
145	0xbdd6219f	-0.104556315
146	0x3d6cc32f	0.05780333
147	0xbe5c0819	-0.21487464
148	0xbd812a2f	-0.06306874
149	0x3e3cee43	0.18450265
150	0x3ba78469	0.00511222
151	0xbd11fbef	-0.035640653
152	0x3cd57ef8	0.02606152
153	0x3d9730cd	0.07382355
154	0xbdb35695	-0.087567486
155	0x3d261aa2	0.040552743
156	0xbd8aebaf	-0.06783234
157	0xbdb9d51f	-0.09073853
158	0x3d5517fd	0.05202483
159	0x3c68f7c9	0.014219233
160	0xbe20f7d6	-0.15719542
161	0xbda6a463	-0.08136823
162	0xbe3530c4	-0.17694384
163	0x3cd6ae86	0.026206266
164	0x3c9c3167	0.019066526
165	0x3de26119	0.11053676
166	0xbc0b682e	-0.008508725
167	0xbe4b424b	-0.19849508
168	0x3d593342	0.0530274
169	0x3e935cf4	0.28781855
170	0xbda4f301	-0.08054162
171	0xbe1c3d3f	-0.15257739
172	0x3e5374d0	0.20650029
173	0xbe36d276	-0.17853722
174	0x3e1a613e	0.15076157
175	0xbe56860c	-0.20949572
176	0x3df99bf0	0.12187946
177	0xbd966bdd	-0.07344792
178	0x3d668d7f	0.056287285
179	0xbd05eed3	-0.032698464
180	0x3e2da575	0.16957648
181	0x3da5d4db	0.080972396
182	0x3e745604	0.23860937
183	0xbe96f330	-0.29482412
184	0xbc29c4e8	-0.0103618875
185	0x3da6e07b	0.08148285
186	0xbe0df2b2	-0.13862112
187	0x3d8d2c64	0.068932325
188	0xbda2794e	-0.07933293
189	0x3e4d49af	0.2004764
190	0x3d5a618b	0.05331568
191	0xbe82787f	-0.25482556
192	0x3d81ad54	0.06331888
193	0x3e1b5340	0.15168476
194	0x3d0f0173	0.03491349
195	0xbd7a5cc2	-0.061123617
196	0x3dcd811c	0.10034391
197	0xbe258764	-0.16164929
198	0xbdef81d8	-0.116946876
199	0xbe7d6341	-0.24744894
200	0xbe3d091e	-0.18460509
201	0x3d2fbc6c	0.042904302
202	0xbad2e38a	-0.001608954
203	0x3e064d4e	0.13115427
204	0xbe41489f	-0.18875359
205	0xbe3582a8	-0.17725623
206	0xbe76d2a0	-0.24103785
207	0x3ced5970	0.028973311
208	0xbd1ecbcc	-0.038768575
209	0x3d3ad161	0.045609836
210	0xbe0d5d06	-0.13805017
211	0x3d243d29	0.04009739
212	0x3e7ab256	0.24482092
213	0x3e06105b	0.13092177
214	0xbdbd41c9	-0.09241063
215	0x3e456233	0.19275741
216	0xbcf648d5	-0.030064026
217	0xbe20cc8d	-0.1570303
218	0xbe25e006	-0.1619874
219	0xbe5d53f9	-0.21614064
220	0xbe580b69	-0.21098103
221	0xbbb6c9cc	-0.0055782553
222	0xbd89124a	-0.066929415
223	0xbe2673f5	-0.16255172
224	0x3d82a388	0.06378847
225	0x3e0bbd36	0.13646397
226	0xbcf88f97	-0.030341906
227	0x3d41b700	0.047293663
228	0x3d30f4ee	0.043202333
229	0x3e4d828f	0.20069335
230	0xbd0a09db	-0.033700805
231	0x3e8b95b6	0.27262658
232	0x3e8e1a1a	0.2775429
233	0xbe58e01c	-0.21179241
234	0x3ea7259a	0.32645875
235	0xbe2c698a	-0.16837135
236	0x3e3e9f52	0.18615463
237	0xbd18de17	-0.037321176
238	0xbda89335	-0.082312025
239	0x3e0379d2	0.1283944
240	0xbd63a4ee	-0.05557721
241	0xbe48ef31	-0.19622494
242	0x3becf7e8	0.007231701
243	0x3d871542	0.065958515
244	0x3d8b243f	0.06794023
245	0xbe1f3cf3	-0.15550594
246	0xbdd02976	-0.10164158
247	0x3cdaea44	0.026723035
248	0x3d6bec92	0.057598658
249	0xbe0fe7ee	-0.14053318
250	0x3e9714d5	0.2950808
251	0xbe0d7f84	-0.13818175
252	0x3e23ce9b	0.15996782
253	0x3dd661f1	0.104678996
254	0xbe6da883	-0.23208813
255	0x3dd95c66	0.10613327

transformer.wV.bias f4 [64]
0	0xbdca129c	-0.09866831
1	0xbe3830d0	-0.1798737
2	0xbb587cec	-0.0033033444
3	0xbda2115a	-0.07913466
4	0xbc4898c9	-0.012243458
5	0xbbd9a09d	-0.006641461
6	0xbbd50bb9	-0.0065016416
7	0xbd8ffa3c	-0.0703015
8	0x3d7c0140	0.06152463
9	0xbd02143d	-0.031757582
10	0xbd29b946	-0.041436456
11	0xbe1ecb60	-0.15507269
12	0x3d1dc61e	0.038519017
13	0x3e133b51	0.14378096
14	0xbdba779a	-0.091048434
15	0x3d619f50	0.055083573
16	0xbe084055	-0.1330579
17	0xbe15b8b5	-0.14621241
18	0x3c090216	0.008362314
19	0xbc645260	-0.013935655
20	0xbd8bb51b	-0.068216525
21	0x3cf60cbb	0.030035367
22	0xbdb58c4e	-0.088646516
23	0xbd909242	-0.070591465
24	0x3e0d1284	0.13776594
25	0xbd497c64	-0.049190894
26	0x3d2b56d1	0.04183084
27	0xbdf1ea9a	-0.11812325
28	0x3e3dafaf	0.18524049
29	0x3c5dc006	0.0135345515
30	0xbb2f9d90	-0.0026796795
31	0xbe343a60	-0.17600393
32	0xbdafbc8a	-0.08580883
33	0xbda9b97c	-0.082873315
34	0xbd5f9a93	-0.054590773
35	0x3e227776	0.15865883
36	0x3d8ed86c	0.06974873
37	0xbd22a9fe	-0.0397129
38	0xbce377f7	-0.027767165
39	0xbde1722d	-0.110081054
40	0x3c8fd264	0.017556377
41	0x3c8f57f3	0.017497992
42	0x3d173ebb	0.03692506
43	0xbcd9422b	-0.02652081
44	0xbd1f517d	-0.038896073
45	0x3d16f340	0.036853075
46	0x3e1fc67b	0.15603058
47	0xbba3f326	-0.005003351
48	0xbd9dab00	-0.07698631
49	0xbdae9192	-0.08523859
50	0x3c040144	0.008056942
51	0x3d517973	0.051141214
52	0x3c276018	0.010215782
53	0x3dce627f	0.100773804
54	0xbde5f51d	-0.11228392
55	0xbbc10a8b	-0.0058911494
56	0x3e2ac713	0.16677503
57	0x3e06d84a	0.13168445
58	0x3d594454	0.05304368
59	0xbbdf1041	-0.0068073575
60	0x3b6eed19	0.003645724
61	0x3de77d2a	0.1130317
62	0x3d80f71c	0.062971324
63	0xbd6ed5cb	-0.058309358

transformer.wQ.weight f4 [64, 64]
0	0x3d434f84	0.047683254
1	0xbe8ea4a4	-0.27859986
2	0x3e12a3f1	0.14320351
3	0x3d2c4a88	0.042063266
4	0x3e20d817	0.15707432
5	0xbd026ab3	-0.031840038
6	0xbc6aa8f4	-0.014322508
7	0x3de1ae31	0.110195525
8	0xbd847f09	-0.064695425
9	0x3d282962	0.04105509
10	0xbd3aea54	-0.04563363
11	0xbdc49d60	-0.096003294
12	0x3e538135	0.20654757
13	0xbe62c2f5	-0.22144683
14	0xbda54c1d	-0.08071158
15	0x3e24d0ae	0.1609523
16	0xbb26592c	-0.002538274
17	0x3e1d449d	0.15358205
18	0xbdd47fff	-0.10375976
19	0x3d65321f	0.055956002
20	0xbe2a26f6	-0.16616425
21	0x3e73aeeb	0.23797195
22	0xbd0794b6	-0.033100806
23	0xbdc464f2	-0.09589566
24	0x3cf49954	0.029858269
25	0x3c053a88	0.008131631
26	0x3e2821e7	0.16419183
27	0xbda8d862	-0.08244397
28	0xbe5b3db9	-0.21410264
29	0xbe1c02fb	-0.15235512
30	0x3cd54923	0.02603585
31	0x3c966bfd	0.01836204
32	0x3e58f94e	0.21188852
33	0x3ded6da4	0.11593178
34	0xbe318d33	-0.1733902
35	0x3dfbbf9b	0.12292405
36	0xbed19f44	-0.40941823
37	0xbd2b390d	-0.041802455
38	0x3cc04a56	0.023472946
39	0x3c784d8a	0.0151552055
40	0xbd752009	-0.059845004
41	0xbe344e84	-0.17608076
42	0xbdc73a20	-0.09727883
43	0xbcab8c56	-0.02094094
44	0x3d044d30	0.032300174
45	0x3df0bbd0	0.117545724
46	0xbd325341	-0.04353643
47	0x3e32fc19	0.1747898
48	0x3e933690	0.28752565
49	0xbe54c44f	-0.20778011
50	0x3e30fa87	0.17283069
51	0x3d910d28	0.070825875
52	0x3e8c73db	0.2743214
53	0xbe3e41cc	-0.18579787
54	0xbda1d0e4	-0.07901171
55	0x3d847e82	0.06469442
56	0xbe5bd8f0	-0.21469474
57	0xbe1cd12a	-0.15314165
58	0x3e717f97	0.23583828
59	0x3dcd1fb7	0.10015815
60	0x3e964c81	0.29355243
61	0x397dae60	0.0002419292
62	0xbd4be184	-0.049775615
63	0x3d79798c	0.06090693
64	0x3e1dda63	0.15415339
65	0xbe3eb042	-0.18621925
66	0xbeb87509	-0.3602679
67	0x3b2f9ba7	0.0026795657
68	0x3b0fb73f	0.0021929292
69	0x3b394223	0.002826818
70	0x3da18cb7	0.07888167
71	0xbe5a1e27	-0.21300565
72	0x3e4ef4f9	0.20210637
73	0x3e09c569	0.13454212
74	0xbbbd5eae	-0.005779109
75	0x3e175f36	0.14782414
76	0x3bc8452c	0.0061117616
77	0x3ea8a812	0.32940727
78	0x3d94fc27	0.07274657
79	0xbe5c12da	-0.21491566
80	0x3dc772b3	0.09738674
81	0x3c5b7cea	0.013396481
82	0x3d50c614	0.050970152
83	0xbe6b041c	-0.22950786
84	0x3d904762	0.07044865
85	0x3d86e9f7	0.06587594
86	0x3e4ca574	0.1998499
87	0x3d7ac70a	0.061224975
88	0x3cc318ef	0.0238156
89	0x3e1b4f63	0.15167002
90	0xbe6b0e68	-0.22954714
91	0xbe2fbf01	-0.17162706
92	0xbdc0c6d3	-0.09412923
93	0x3e106f72	0.14105013
94	0xbdc81913	-0.097704075
95	0x3e28f04e	0.16497919
96	0xbccb7dcd	-0.02484026
97	0x3e2b09bb	0.1670293
98	0xbe29d680	-0.16585732
99	0x3e0da72d	0.13833304
100	0xbdf7463f	-0.12073945
101	0x3e028a7f	0.12748145
102	0x3cfa6c7c	0.030569308
103	0xbd957348	-0.07297379
104	0x3d9d8e9a	0.07693215
105	0xbe21b341	-0.15791036
106	0xbd50b8f8	-0.05095765
107	0x3c945614	0.018107451
108	0x3d725644	0.0591643
109	0x3dae8807	0.08522039
110	0x3e8b89e5	0.27253643
111	0xbe4e6ba5	-0.2015825
112	0x3d8eb711	0.06968511
113	0xbc96d5a0	-0.018412411
114	0x3d9a9ca0	0.07549405
115	0xbdb3de9a	-0.08782692
116	0x3d41a674	0.047277883
117	0x3e541413	0.20710783
118	0x3dc1f103	0.094697975
119	0xbe30841a	-0.17237893
120	0x3e2b2bfc	0.16715997
121	0xbe92bb13	-0.2865835
122	0x3ec25cfa	0.3796156
123	0x3d0091d0	0.031389058
124	0x3e99591a	0.29950792
125	0xbe61b78a	-0.22042671
126	0xbe19f344	-0.15034205
127	0xbd54907d	-0.051895607
128	0xbdccf767	-0.10008126
129	0x3db943c8	0.09046131
130	0xbdbba5dc	-0.091624945
131	0x3dc442e0	0.09583068
132	0x3e1b9f7a	0.15197554
133	0x3dfbf9ff	0.12303542
134	0xbd707f9a	-0.05871544
135	0xbd772715	-0.060340006
136	0xbd71ac64	-0.059002295
137	0x3d55dfa0	0.05221522
138	0x3da62e40	0.0811429
139	0x3ca16314	0.019700564
140	0xbd98f144	-0.07467893
141	0xbe63b504	-0.2223702
142	0x3e83b5a9	0.25724533
143	0xbe543058	-0.20721567
144	0xbe1119da	-0.14170018
145	0x3e150cd9	0.14555682
146	0xbe234ffd	-0.15948482
147	0x3d909614	0.07059875
148	0xbd827bc6	-0.06371264
149	0x3ea20a54	0.31648505
150	0xbe66f29e	-0.22553489
151	0x3be6f0b3	0.0070477366
152	0x3ce06911	0.02739385
153	0xbdbf7db8	-0.09350151
154	0x3e34bc5c	0.17649978
155	0xbdb287fd	-0.08717344
156	0xbe590982	-0.21195033
157	0x3d9a2f66	0.07528572
158	0xbe10082a	-0.14065614
159	0x3c253cea	0.010085324
160	0xbd80e49a	-0.06293602
161	0xbdf43b4e	-0.11925374
162	0x3de0ccbe	0.109765515
163	0x3df14a28	0.11781722
164	0xbceff20d	-0.029290223
165	0xbc92b9f3	-0.017910933
166	0x3d9bbe1e	0.07604621
167	0x3e0d5626	0.13802394
168	0x3dcee2ea	0.10101874
169	0x3dfdcfd9	0.123931594
170	0x3e85106c	0.2598909
171	0x3d57cc43	0.052685034
172	0xbcdc1b7e	-0.026868578
173	0xbe273cdf	-0.16331814
174	0x3de9b4c1	0.11411429
175	0x3e5bd174	0.21466619
176	0x3e8accd1	0.27109388
177	0xbcdd4ace	-0.027013209
178	0xbd5581c6	-0.052125715
179	0xbd3d34a6	-0.046192788
180	0xbeaecb5c	-0.34139526
181	0xbe6745ad	-0.22585173
182	0x3e4e5830	0.20150828
183	0xbe6824c1	-0.2267027
184	0xbe583159	-0.21112575
185	0xbe3ff93a	-0.18747416
186	0x3e61d7fb	0.22055046
187	0x3da009c4	0.07814363
188	0x3ea65f1d	0.3249444
189	0x3be658ca	0.0070296274
190	0xbdc6c37c	-0.097052544
191	0x3e195896	0.14975199
192	0x3d81c61f	0.06336617
193	0x3e125b7a	0.14292708
194	0x3bddf8de	0.006774052
195	0xbe7295d5	-0.23689969
196	0x3cd3bd70	0.025847167
197	0x3dac0f4f	0.084013574
198	0xbe3aece0	-0.18254423
199	0xbd7f39e8	-0.062311083
200	0xbbf29640	-0.007403165
201	0xbe572b0d	-0.21012516
202	0xbe3a47a6	-0.18191394
203	0xbc03f422	-0.008053811
204	0xbc6c3e87	-0.014419205
205	0xbe5d3cb4	-0.21605188
206	0xbe22c0f8	-0.15893924
207	0x3e0db509	0.1383859
208	0xbd96fad0	-0.073720574
209	0xbd6c848b	-0.05774359
210	0xbccf3726	-0.025294852
211	0xbe4bd711	-0.1990626
212	0x3e2fd95e	0.17172763
213	0xbc8f154a	-0.017466206
214	0x3cead456	0.028665703
215	0xbcf8b6c2	-0.030360583
216	0x3d89a920	0.06721711
217	0xbd9e332c	-0.07724604
218	0x3d8f4cf5	0.069971
219	0xbdb05152	-0.086092606
220	0x3cea64ef	0.028612582
221	0xbd15aac9	-0.036539827
222	0x3e43ae3b	0.19109432
223	0xbd9d2d35	-0.07674638
224	0x3e92400a	0.28564483
225	0xbc95d884	-0.01829172
226	0x3e0dafb9	0.13836564
227	0x3dc938e5	0.09825305
228	0xbd054612	-0.032537527
229	0x3e8ef507	0.27921316
230	0x3adc945d	0.0016828884
231	0x3e2d5735	0.16927798
232	0x3db0b4ed	0.08628259
233	0xbd52cdd9	-0.051465843
234	0x3d244c00	0.04011154
235	0xbcd38d0e	-0.025824096
236	0x3d9e1dcc	0.07720527
237	0x3e23e9ac	0.16007107
238	0xbe5bd0e6	-0.21466407
239	0x3e3d4d18	0.1848644
240	0x3e4884a6	0.19581851
241	0x3d1cd146	0.038285516
242	0x3d050311	0.032473627
243	0xbe2ce003	-0.16882329
244	0x3e04e76f	0.1297891
245	0xbde52fc5	-0.11190752
246	0xbeab07d7	-0.3340442
247	0x3daedce7	0.085382275
248	0xbd6146df	-0.05499923
249	0x3d944f36	0.07241671
250	0x3d605227	0.054765847
251	0xbe362704	-0.17788321
252	0xbe08c8ba	-0.13357821
253	0x3e21dbf8	0.15806568
254	0x3bb082f0	0.0053867027
255	0x3d157a3a	0.036493517

transformer.wQ.bias f4 [64]
0	0x3dacb02b	0.08432039
1	0xbd0bad78	-0.03410098
2	0xbb709dd7	-0.0036715174
3	0xbd8f3aa2	-0.06993605
4	0xbdbefde4	-0.093257695
5	0xbce01891	-0.027355464
6	0xbd9af0c6	-0.07565455
7	0xbe01f500	-0.12691116
8	0x3e1330db	0.14374106
9	0xbda68d9d	-0.08132479
10	0xbd844785	-0.06458954
11	0xbdd38dd2	-0.103297845
12	0x3d24d48e	0.04024177
13	0x3d0e24f1	0.0347032
14	0xbd6ea001	-0.05825806
15	0x3c035240	0.008015215
16	0xbcd1628e	-0.02555969
17	0x3d97f0bb	0.074189626
18	0x3dbc8657	0.09205311
19	0xbd55342a	-0.0520517
20	0x3e1543c2	0.14576629
21	0x3e1774b7	0.14790617
22	0xbbc11858	-0.0058927946
23	0xbd92befd	-0.071653344
24	0x3d9d08c4	0.076676875
25	0xbe2d5a27	-0.16928922
26	0xbe343e1c	-0.17601818
27	0xbd2457d1	-0.04012281
28	0x3b1637d7	0.0022921467
29	0x3d0428dc	0.03226553
30	0x3d6454f5	0.055745084
31	0xbe3feed4	-0.1874345
32	0x3dce1ae2	0.10063721
33	0xbe35218e	-0.17688581
34	0xbcb15e6b	-0.021651467
35	0xbdcb8110	-0.09936726
36	0xbd2105e4	-0.03931226
37	0xbdef865e	-0.116955504
38	0x3d2d3d3d	0.04229473
39	0x3e6c3e8e	0.23070738
40	0xbe04368f	-0.12911437
41	0x3de9da50	0.11418593
42	0x3dd64621	0.10462595
43	0x3e174ae6	0.14774665
44	0xbe6e88c1	-0.23294355
45	0xbe0221f7	-0.12708269
46	0xbe357f87	-0.17724429
47	0xbde56992	-0.112017766
48	0xbe464d5b	-0.19365446
49	0xbcfec900	-0.031101704
50	0x3de7379e	0.11289905
51	0x3dc154ad	0.09439979
52	0x3d01aaf8	0.03165719
53	0xbe4ba589	-0.19887365
54	0x3e9d645d	0.30740634
55	0xbde141b4	-0.1099886
56	0x3de6813f	0.112551205
57	0xbe0544fb	-0.13014595
58	0xbd817839	-0.06321759
59	0x3e0e47dd	0.13894601
60	0xbcd31201	-0.02576542
61	0x3db4b5ec	0.08823761
62	0xbe28a28d	-0.16468258
63	0x3e98205f	0.29712197

transformer.wK.weight f4 [64, 64]
0	0xbe77ecaf	-0.24211381
1	0xbdcdd051	-0.10049499
2	0x3c774296	0.015091559
3	0xbc9a7d1c	-0.018858485
4	0x3cea8e48	0.028632298
5	0x3e6b2e80	0.22966957
6	0x3e3d74ad	0.1850154
7	0x3e46263b	0.19350521
8	0xbdd5d406	-0.10440831
9	0xbe15648b	-0.14589135
10	0xbd2a6dcb	-0.041608613
11	0x3e192094	0.14953834
12	0xbba02f99	-0.0048884866
13	0xbdabd1c5	-0.0838962
14	0x3e6373ba	0.22212115
15	0xbe1bfda8	-0.15233481
16	0xbc89a67a	-0.016803015
17	0xbdbbdf2d	-0.09173427
18	0xbe2b5c67	-0.16734467
19	0xbca59ea5	-0.02021725
20	0xbcdc44d4	-0.026888289
21	0x3d646266	0.055757903
22	0xbcf037e8	-0.029323533
23	0x3dbe42fc	0.0929012
24	0x3d6347d7	0.055488434
25	0xbe24cc71	-0.16093613
26	0xbd9849de	-0.07435964
27	0x3ec576c7	0.38567182
28	0x3dd35c8d	0.10320387
29	0x3d19f3b8	0.037585944
30	0x3daae13e	0.08343743
31	0xbe6d33b3	-0.23164253
32	0xbc008264	-0.007843588
33	0x3e16d239	0.14728631
34	0xbe53aa92	-0.20670536
35	0xbdbaaff1	-0.091155894
36	0x3e01b83f	0.1266794
37	0xbe3cbc72	-0.18431261
38	0xbdedf593	-0.11619105
39	0x3ce67152	0.028130207
40	0xbc77d6a6	-0.01512686
41	0x390522f0	0.00012696884
42	0x3dafbd45	0.08581022
43	0xbe4b013c	-0.1982469
44	0x3e6e0632	0.23244551
45	0xbd741066	-0.05958595
46	0x3dbdba51	0.09264053
47	0x3c613e34	0.013747741
48	0x3dde1ab8	0.1084494
49	0xbcb38c26	-0.021917414
50	0xbd174ffa	-0.036941506
51	0xbdf1271e	-0.11775039
52	0xbe424571	-0.18971802
53	0x3d07efa0	0.03318751
54	0xbdd9c85e	-0.1063392
55	0xbe450d32	-0.19243315
56	0xbe118d40	-0.14214039
57	0x3e08a50b	0.13344209
58	0xbe428b27	-0.18998395
59	0x3e18499b	0.14871828
60	0x3cec80d0	0.028870016
61	0x3c2ccd29	0.010546961
62	0x3ca3d18a	0.019997377
63	0x3dfe76be	0.12424992
64	0xbd69f06e	-0.057114057
65	0xbe403f10	-0.18774056
66	0xbe0d4036	-0.13794026
67	0x3db4012d	0.08789287
68	0xbdc78d2b	-0.097437225
69	0xbdac6792	-0.08418192
70	0x3d80f66b	0.062970005
71	0xbdc60581	-0.096690185
72	0xbdb61401	-0.08890534
73	0xbe40d52d	-0.1883132
74	0xbe17beab	-0.14818828
75	0x3cb45e92	0.02201775
76	0x3daa7b7b	0.08324333
77	0xbb8be463	-0.004269169
78	0xbd645a71	-0.055750314
79	0x3dbaf629	0.091289826
80	0x3d24055b	0.04004417
81	0xbd9c9813	-0.07646193
82	0x3d7e09af	0.062020954
83	0xbe14b02a	-0.14520326
84	0xbd9ee4c8	-0.0775848
85	0x3e96049b	0.2930039
86	0x3d54ff45	0.052001256
87	0xbe373eb7	-0.17895018
88	0xbd1c04f7	-0.038090672
89	0xbd479db7	-0.048734393
90	0xbe000247	-0.12500869
91	0x3e912fc2	0.2835675
92	0x3e0d2076	0.13781914
93	0xbd6b8021	-0.05749524
94	0xbe26a101	-0.16272356
95	0x3d900bca	0.070334986
96	0x3e822669	0.2541993
97	0x3e45d82c	0.19320744
98	0x3d88848f	0.066659085
99	0x3d28d782	0.04122115
100	0x3e1ba013	0.15197782
101	0x3e22ada1	0.15886547
102	0xbb48782a	-0.0030589201
103	0xbe3317d5	-0.1748956
104	0xbcf0faae	-0.029416408
105	0xbd80d561	-0.06290699
106	0xbe3b4b43	-0.18290429
107	0x3db15707	0.08659177
108	0xbe1d0035	-0.1533211
109	0x3dabd786	0.08390717
110	0xbc73d7e3	-0.014883014
111	0xbda3c696	-0.07996862
112	0x3df61ace	0.12016831
113	0xbe8313ca	-0.25601035
114	0x3e3bc42c	0.18336552
115	0xbd4ea875	-0.050453622
116	0x3e2aea08	0.16690838
117	0xbd6e60d9	-0.05819783
118	0x3c209fa4	0.009803686
119	0x3da86b56	0.08223598
120	0x3d0d7856	0.03453859
121	0x3b647908	0.003486218
122	0xbc21e055	-0.009880145
123	0xbe4fa710	-0.20278573
124	0x3e0f2a40	0.13980961
125	0x3dbda787	0.09260469
126	0x3da13c17	0.07872789
127	0x3dd8d04f	0.10586607
128	0x3c0003a7	0.007813371
129	0x3dff31a8	0.12460643
130	0xbe05218a	-0.13001075
131	0x3e648304	0.22315603
132	0xbc335315	-0.010945101
133	0x3da47d48	0.08031708
134	0x3dbfe991	0.09370721
135	0x3c9868b7	0.01860462
136	0x3e3c1f52	0.18371323
137	0xbe1252a4	-0.14289337
138	0xbe687a19	-0.22702827
139	0x3c7906be	0.015199361
140	0xbe37584d	-0.17904778
141	0xbda664f6	-0.081247255
142	0xbe621119	-0.22076835
143	0x3d7faf46	0.062423013
144	0xbe26018d	-0.16211529
145	0xbe4092a3	-0.18805937
146	0xbe3f270d	-0.1866724
147	0xbe712162	-0.23547891
148	0x3de0870a	0.10963257
149	0xbe370083	-0.17871289
150	0x3ec5ff55	0.38671365
151	0x3de66708	0.112501204
152	0xbd408bc7	-0.047008302
153	0x3d09047b	0.03345154
154	0xbd0dcf88	-0.034621745
155	0x3e6af3b0	0.22944522
156	0x3de21955	0.11039988
157	0x3dd34623	0.10316112
158	0x3e4b7228	0.19867766
159	0xbd69c2ee	-0.057070665
160	0xbd9a3e4c	-0.075314134
161	0xbe466df2	-0.19377878
162	0xbc3e0743	-0.011598411
163	0x3d667597	0.056264486
164	0xbda8762c	-0.082256645
165	0x3e6e15ae	0.23250458
166	0xbd37f1cc	-0.04490833
167	0x39ae6ab6	0.00033267372
168	0xbe5989e5	-0.21244009
169	0xbe423d46	-0.18968686
170	0xbe2bf64a	-0.1679317
171	0x3d3c5729	0.04598156
172	0x3e1f7cba	0.15574923
173	0xbdfe3056	-0.12411563
174	0x3d48ac1c	0.04899226
175	0xbdad3850	-0.084580064
176	0xbda33e11	-0.079708226
177	0xbe69c0c2	-0.22827438
178	0x3db7710c	0.08957109
179	0x3d1b9589	0.037984405
180	0xbd3566ed	-0.04428761
181	0xbe000f2c	-0.12505788
182	0xbc3ba77c	-0.011453506
183	0xbd4fc1d8	-0.050721973
184	0xbc005af3	-0.007834184
185	0x3e2927b8	0.16519058
186	0x3ccfa966	0.02534933
187	0xbd3b0d34	-0.04566689
188	0xbd985257	-0.0743758
189	0x3c245c20	0.01003173
190	0x3e8d7482	0.2762795
191	0xbdee1a55	-0.11626116
192	0xbd17919e	-0.037004106
193	0x3d1f1409	0.038837466
194	0x3dcb7605	0.0993462
195	0x3cc6094a	0.024174351
196	0x3d9667fd	0.07344053
197	0x3d300a14	0.04297836
198	0x3bfd17c4	0.0077237803
199	0xb9890518	-0.0002613447
200	0xbc78cbfe	-0.015185354
201	0x3d1e4502	0.03864003
202	0x3d2a01d4	0.04150565
203	0x3d9eaed2	0.07748188
204	0x3e56b245	0.20966442
205	0xbe29e48e	-0.16591093
206	0x3e2f97df	0.17147778
207	0xbc404b21	-0.011736662
208	0x3e12c312	0.14332226
209	0x3d949d16	0.07256524
210	0xbd942f74	-0.072356135
211	0x3db47757	0.08811825
212	0x3e23d458	0.15998971
213	0xbba1b731	-0.004935168
214	0x3d48fee1	0.049071196
215	0x3e6b41fd	0.22974391
216	0xbe62a885	-0.22134598
217	0x3dc74521	0.09729982
218	0x3b377da0	0.0027998462
219	0xbc8750d6	-0.016518038
220	0x3ce5cb1e	0.028050955
221	0xbddaf3a0	-0.10690999
222	0xbdd2d7b9	-0.10295052
223	0xbd809450	-0.06278288
224	0xbe5a7d95	-0.21336968
225	0x3d5bd4a7	0.053669598
226	0xbdda100c	-0.10647592
227	0x3e3d8874	0.18509084
228	0xbe0bec34	-0.13664323
229	0xbe02feca	-0.12792507
230	0xbe9371f2	-0.2879787
231	0x3e9578cd	0.29193726
232	0x3e45f74e	0.1933262
233	0x3b0ddc0f	0.0021646058
234	0x3e46ff60	0.19433355
235	0xbe0e7b82	-0.13914302
236	0xbbdb8950	-0.0066997185
237	0x3c5b7928	0.013395585
238	0x3de908f8	0.11378664
239	0xbc62ba3a	-0.013838345
240	0xbe0e3334	-0.1388672
241	0xbdbe2c26	-0.092857644
242	0xbc78e3bc	-0.015191015
243	0x3d5d9f2e	0.054106884
244	0x3cb0cf06	0.021583091
245	0xbc6cf6e1	-0.014463157
246	0x3b2b9b82	0.002618522
247	0xbe8cf96f	-0.27534053
248	0x3d6855f8	0.05672261
249	0xbec78b97	-0.38973686
250	0x3e1f69d1	0.1556771
251	0x3e85d973	0.26142463
252	0xbcedf9e5	-0.029049823
253	0xbddaeb9c	-0.1068947
254	0xbe8a0270	-0.26954985
255	0x3e631ebb	0.22179691

transformer.wK.bias f4 [64]
0	0xbd5c3089	-0.053757224
1	0x3d2c0b29	0.04200283
2	0xbdc8538e	-0.09781562
3	0xbda30d6a	-0.07961543
4	0xbd1fe9e6	-0.039041422
5	0xbda3c770	-0.07997024
6	0x3d05181a	0.03249369
7	0xbd6335fb	-0.0554714
8	0xbd44d772	-0.048057027
9	0xbb587be6	-0.0033032834
10	0xbd1c3ca0	-0.038143754
11	0xbda023b9	-0.078193136
12	0xbd2c5e51	-0.042082135
13	0xbd9cd1ac	-0.07657179
14	0xbdbddc6e	-0.09270559
15	0x3c341b50	0.01099284
16	0x3dbcdb72	0.09221543
17	0x3d948078	0.07251066
18	0xbc2a8b4a	-0.010409186
19	0xbdd526c2	-0.10407783
20	0xbb4a9858	-0.0030913558
21	0x3e1be36b	0.15223472
22	0x3d628dec	0.05531113
23	0x3d9186c6	0.07105784
24	0x3d024a44	0.031809106
25	0xbdef698b	-0.116900526
26	0xbe03780d	-0.12838764
27	0xbdf29fcb	-0.11846884
28	0x3d8d8d69	0.069117375
29	0xbb4dd44a	-0.0031407052
30	0x3d3acac5	0.045603532
31	0xbc1eb751	-0.009687261
32	0x3e066e56	0.13128027
33	0x3ce08c88	0.02741076
34	0xbdea34e0	-0.11435866
35	0xbd7e156d	-0.062032152
36	0x3d015b39	0.031581137
37	0xbc27ea06	-0.010248667
38	0x3d87562d	0.066082336
39	0x3d03c1ea	0.032167353
40	0x3dcd2bc8	0.10018116
41	0x3dfb2d14	0.12264457
42	0x3ce51a15	0.027966538
43	0x3ddfc0cd	0.10925446
44	0x3dd364eb	0.10321983
45	0xbd9f74f1	-0.07785977
46	0x3dc0b945	0.09410337
47	0x3dd4d8c8	0.1039291
48	0x3d7113a4	0.05885662
49	0x3dde188e	0.10844527
50	0xba38b6b8	-0.000704627
51	0xbd7fc90f	-0.062447604
52	0x3d9f2c09	0.07772071
53	0xbd8fbde3	-0.0701864
54	0xbd7cd0fa	-0.061722733
55	0x3d5a57ed	0.05330651
56	0xba56824b	-0.00081828673
57	0x3dc19479	0.09452147
58	0xbd92a832	-0.07160987
59	0xbdaac57f	-0.08338451
60	0xbd12f283	-0.03587581
61	0x3cac1d4a	0.02101006
62	0xbd2fc8de	-0.04291617
63	0x3e03bde4	0.12865406

transformer.wO.weight f4 [64, 64]
0	0x3e4cdd15	0.20006211
1	0xbd079d01	-0.033108715
2	0xbdc9a235	-0.09845392
3	0xbdf01c39	-0.11724133
4	0x3c7b01a4	0.015320215
5	0xbe15e100	-0.14636612
6	0xbe26fd28	-0.16307509
7	0xbd79d570	-0.060994565
8	0xbe84e31b	-0.25954518
9	0x3e76abe7	0.24089013
10	0x3d81c84b	0.06337031
11	0x3e19cb2c	0.1501891
12	0xbdd8fb46	-0.105948016
13	0x3d1f610b	0.038910907
14	0x3e5b79a6	0.21433124
15	0x3e8d3656	0.27580518
16	0xbe920b46	-0.28524226
17	0xbc97b422	-0.018518511
18	0x3a8d901e	0.0010800397
19	0x3e35fa91	0.17771365
20	0x3c16130e	0.009159816
21	0xbcf37b30	-0.029721826
22	0xbe1db7b1	-0.15402104
23	0x3de999e6	0.11406307
24	0xbcfc7c93	-0.03082112
25	0x3dd99220	0.10623574
26	0xbd33dd01	-0.043911938
27	0xbe184458	-0.14869821
28	0x3e92dc2c	0.28683603
29	0xbd75e54d	-0.06003313
30	0x3dea9e76	0.11456005
31	0xbd33f3ca	-0.043933667
32	0x3e8902d3	0.26759967
33	0x3ea65834	0.3248917
34	0xbc89429b	-0.016755393
35	0xbe39b46c	-0.18135232
36	0x3c148264	0.009064291
37	0x3e44fa31	0.19236065
38	0x3d963eab	0.07336172
39	0x3e8190de	0.25305837
40	0x3a75a34d	0.0009370342
41	0xbd47bd95	-0.048764784
42	0xbe0ff10c	-0.14056796
43	0x3d8950b5	0.06704847
44	0x3aaebe61	0.0013331884
45	0xbcb6e884	-0.022327669
46	0xbe9ce5b9	-0.30644014
47	0x3dbca477	0.09211057
48	0x3d1ecd50	0.03877002
49	0xbd8cdf20	-0.06878495
50	0x3d6c4209	0.057680164
51	0xbd092690	-0.03348404
52	0x3dec4ead	0.11538444
53	0x3a1de20b	0.0006022758
54	0x3e2243e7	0.15846215
55	0xbcf7edda	-0.030264784
56	0x3e5d30f9	0.21600713
57	0xbdac1490	-0.084023595
58	0xbd4a7084	-0.04942371
59	0xbd2430c8	-0.040085584
60	0x3e8737fc	0.264099
61	0x3e10743a	0.14106837
62	0xbb8e9078	-0.004350718
63	0x3d7781f7	0.06042668
64	0x3d5e1e55	0.054228146
65	0xbd274626	-0.040838383
66	0x3d861892	0.06547655
67	0xbdf4d5c4	-0.11954835
68	0xbd30b37f	-0.04313993
69	0x3e2e3684	0.17012984
70	0x3e1b312c	0.15155476
71	0x3e3ffa7c	0.18747896
72	0x3ea430bf	0.3206844
73	0xbe49665b	-0.19667952
74	0xbccc3f7b	-0.024932614
75	0xbdd64c35	-0.10463754
76	0x3e8f6273	0.28004798
77	0x3d3984a1	0.0452925
78	0xbe1b00e1	-0.15137054
79	0xbe53e637	-0.20693289
80	0xbe058d51	-0.13042189
81	0x3e0b1d5a	0.13585415
82	0xbd70d088	-0.05879262
83	0xbe8d44b6	-0.27591485
84	0xbe34caa4	-0.17655426
85	0x3e0a39a9	0.13498558
86	0x3df84e17	0.121242695
87	0xbec0a488	-0.37625527
88	0x3e6da7b2	0.23208502
89	0xbd8857d6	-0.066573784
90	0x3a27cb0b	0.00064008
91	0x3cb15767	0.021648122
92	0xbdec62a9	-0.115422554
93	0x3df8699d	0.12129519
94	0x3cf56033	0.029953098
95	0xbcf09b9f	-0.02937108
96	0x3db0c77e	0.086318
97	0x3de2d9d0	0.11076701
98	0x3dd087be	0.10182141
99	0x3d76784b	0.060173314
100	0x3e6fc94f	0.23416637
101	0xbdf43e07	-0.11925893
102	0xbc9d6098	-0.019211099
103	0x3d1c3010	0.038131773
104	0xbe2cb468	-0.16865695
105	0x3e42cfbc	0.19024557
106	0xbe75923a	-0.23981562
107	0x3de7e87a	0.11323638
108	0xbe97a8c1	-0.29620937
109	0x3e5288ef	0.20560049
110	0x3d10b75b	0.03533111
111	0xbf0150da	-0.50513995
112	0xbd9a7d61	-0.075434454
113	0x3ddb21a7	0.10699778
114	0x3d10bf97	0.035338964
115	0x3c999399	0.018747138
116	0x3e269f90	0.16271806
117	0x3d2dfe9d	0.042479146
118	0xbd625911	-0.05526072
119	0x3e0d328b	0.13788812
120	0x3d5e2ea1	0.054243688
121	0x3d13f8eb	0.03612606
122	0xbbe6804d	-0.0070343376
123	0xbdb7083e	-0.08937119
124	0xbda1f592	-0.07908167
125	0xbc33512a	-0.010944644
126	0x3e1da91d	0.15396543
127	0xbe98b7d7	-0.2982776
128	0xbe0e66de	-0.13906428
129	0x3e020e90	0.12700868
130	0xbddb7a32	-0.10716666
131	0xbe4629f7	-0.19351946
132	0xbb5e034a	-0.0033876472
133	0x3df906cc	0.121594995
134	0x3e146f99	0.14495696
135	0x3e8092a0	0.25111866
136	0xbc631e45	-0.013862197
137	0xbe09ee0f	-0.13469718
138	0x3d01bf03	0.031676304
139	0xbdb51908	-0.08842665
140	0x3e761b88	0.2403394
141	0x3e066cf5	0.13127501
142	0xbeb1e00a	-0.3474124
143	0xbdf020e3	-0.11725023
144	0x3ed42304	0.41432965
145	0xbd5907bf	-0.052985903
146	0xbd7d8fc5	-0.061904687
147	0x3b03cd53	0.0020111396
148	0xbdad3451	-0.08457244
149	0x3eaf6092	0.34253365
150	0x3dacfe61	0.084469564
151	0xbd3a98c6	-0.045555852
152	0x3dea9f5d	0.114561774
153	0xbe63daf3	-0.22251491
154	0x3e988529	0.29789093
155	0xbd2136d6	-0.039358936
156	0x3d565899	0.052330587
157	0x3e8e4b55	0.2779185
158	0xbdefd4e9	-0.11710531
159	0x3d9c7cff	0.076410286
160	0xbe676911	-0.22598673
161	0xbcfa3250	-0.030541569
162	0xbd800fbd	-0.06253002
163	0x3e867337	0.26259777
164	0x3e29f406	0.16596994
165	0x3e6f1d1c	0.23350948
166	0x3debbb92	0.115103856
167	0xbd4b84c0	-0.049687147
168	0x3e547379	0.20747174
169	0xbebc0534	-0.3672272
170	0xbe29de8e	-0.16588804
171	0x3eb535d9	0.35392645
172	0xbe6ba7de	-0.23013255
173	0xbd287995	-0.041131575
174	0x3cfa4367	0.030549718
175	0xbdbf9db2	-0.0935625
176	0x3d5d4c87	0.05402806
177	0x3daf29db	0.08552905
178	0x3e9eb634	0.30998385
179	0x3de7803d	0.113037564
180	0x3df4237e	0.11920832
181	0x3de6a6a5	0.11262254
182	0xbe4204c3	-0.18947129
183	0xbca9c640	-0.020724416
184	0x3b7cd9ce	0.003858197
185	0xbe90972d	-0.28240338
186	0x3e76319f	0.24042366
187	0xbe407483	-0.18794446
188	0x3dcb0be3	0.099143766
189	0x3d4eb41a	0.050464727
190	0x3d868a78	0.065693796
191	0xbd6336ed	-0.055472303
192	0xbd086b78	-0.033305615
193	0xbbf87dff	-0.0075833793
194	0x3e243310	0.16035104
195	0xbd2de574	-0.04245515
196	0x3e870c31	0.2637649
197	0x3da7fedd	0.08202908
198	0x3d6c3d8c	0.057675883
199	0x3ea1c646	0.31596583
200	0x3daf7394	0.08566967
201	0xbe3cc8d2	-0.18435982
202	0x3dc17427	0.094459824
203	0xbe1a510f	-0.15069984
204	0x3e1dadbb	0.15398304
205	0x3df9090d	0.121599294
206	0xbbb42be7	-0.0054983976
207	0xbe42e15c	-0.1903128
208	0x3db29bcb	0.087211214
209	0xbb5ef8a6	-0.0034022718
210	0xbcfa5dbb	-0.030562272
211	0xbbe473b0	-0.006971799
212	0xbe4509ab	-0.1924197
213	0x3e43cf10	0.19121957
214	0xbd8f57d3	-0.06999173
215	0x3e0e2f67	0.1388527
216	0x3dce06c1	0.10059882
217	0xbea92166	-0.33033293
218	0x3e2839a9	0.16428246
219	0xbe5a6406	-0.21327218
220	0x3d8a46f0	0.067518115
221	0x3ec1b34b	0.37832102
222	0xbec2d426	-0.3805248
223	0xbdc2dfa4	-0.09515312
224	0xbea48f7f	-0.3214073
225	0xbdd25700	-0.102705
226	0xbe3daba1	-0.18522502
227	0x3e1d7804	0.15377814
228	0x3e1857d2	0.14877251
229	0x3db25cf6	0.08709137
230	0x3e93f3cb	0.28896937
231	0xbdf0dedc	-0.11761257
232	0x3e8e7442	0.27823073
233	0xbe11daec	-0.14243668
234	0x3df0a761	0.11750675
235	0x3ea0d726	0.31414145
236	0x3daf6952	0.0856501
237	0x3e1f4a95	0.15555795
238	0x3e5f1eb1	0.21789052
239	0xbe5c9260	-0.21540213
240	0x3d5c4f6e	0.053786688
241	0x3dff00aa	0.124512985
242	0x3e009909	0.12558378
243	0x3e7a5a99	0.24448623
244	0xbd64ca5e	-0.055857055
245	0xbe17c4ca	-0.14821163
246	0xbe884090	-0.26611757
247	0x3eb4e3ff	0.35330197
248	0x3dcc0b43	0.099630855
249	0x3c485aef	0.0122287115
250	0x3ea0ecdc	0.3143071
251	0xbd9098b8	-0.07060379
252	0xbe124731	-0.1428497
253	0xbe055cc9	-0.13023676
254	0x3d65d18d	0.056108046
255	0x3e891e86	0.267811

transformer.wO.bias f4 [64]
0	0x3dbfa9c1	0.0935855
1	0xbd5e5a3f	-0.054285284
2	0x3d2d8d60	0.042371154
3	0x3e004781	0.12527277
4	0x3d033789	0.032035384
5	0xbda57dd6	-0.08080642
6	0xbda91981	-0.082568176
7	0xbdfdf891	-0.12400926
8	0xbd632294	-0.0554529
9	0x3dac0966	0.0840023
10	0x3dc22554	0.09479776
11	0xbd98b488	-0.074563086
12	0x3daccbb5	0.084372915
13	0x3dd93e33	0.10607567
14	0xbde8596b	-0.1134518
15	0x3dbd3c23	0.09239986
16	0x3da20e7f	0.07912921
17	0x3d60ab04	0.054850593
18	0x3b9649ab	0.0045864186
19	0xbe36e995	-0.17862542
20	0x3dadf869	0.08494646
21	0xbc2e1774	-0.010625709
22	0xbe0e0364	-0.13868481
23	0xbd85dd8e	-0.06536399
24	0xbd01f7a6	-0.031730317
25	0x3dc97c77	0.09838193
26	0xbc70410d	-0.014663947
27	0xbd4f5ca5	-0.050625462
28	0x3d6a13f9	0.057147954
29	0xbc8a1329	-0.01685484
30	0x3c2a157f	0.010381102
31	0xbd4d0e11	-0.050062243
32	0xbc52fdfa	-0.012877936
33	0x3e0314a7	0.12800847
34	0xbe3336f4	-0.17501432
35	0xbe05953e	-0.13045213
36	0xbd825fb5	-0.06365911
37	0xbdfdc74b	-0.12391528
38	0x3abae4fd	0.0014258918
39	0x3d8042fc	0.06262776
40	0x3c0a318b	0.0084346635
41	0x3da442f4	0.08020583
42	0xbc9708c9	-0.018436806
43	0x3de7256f	0.11286437
44	0xbcf1f2a6	-0.02953465
45	0xbd140518	-0.03613767
46	0xbda2572e	-0.079267845
47	0x3d9af8ee	0.07567011
48	0x3d8f3897	0.069932155
49	0xbd0e0976	-0.03467699
50	0xbd187470	-0.03722042
51	0x3d083143	0.033250105
52	0xbe0029d1	-0.12515952
53	0xbbdf9422	-0.0068230787
54	0xbd8eba5f	-0.06969141
55	0xbd03c4a4	-0.032169953
56	0x3d440cf3	0.04786391
57	0xbe3ffdbd	-0.18749137
58	0x3c0a7c62	0.008452507
59	0xbdaa8428	-0.08325988
60	0xbe252851	-0.1612866
61	0x3d17c2ca	0.037051
62	0xbda3568d	-0.079754926
63	0xbd597823	-0.053093087
