mnist_transformer_my_own.pth (torch, 49488 bytes, 13 tensors)

pos_embed f4 [1, 16, 64]
0	0x3fcead39	1.6146613
1	0x3f6dfc69	0.9296327
2	0x4000b74b	2.0111873
3	0xbf958135	-1.1680056
4	0xbfc1732a	-1.511327
5	0x40012ff9	2.018553
6	0xbf482b7e	-0.78191364
7	0x3ff02d4b	1.8763822
8	0xbfbb6c1e	-1.464237
9	0xc040b4e5	-3.011041
10	0xbedb5593	-0.42838725
11	0xbfc261f5	-1.5186144
12	0x40055e7a	2.0838914
13	0xbf90be96	-1.1308162
14	0xbf4b434c	-0.7939956
15	0x400b22b3	2.1739929
16	0x3d86d971	0.065844424
17	0x3fab73ac	1.3394675
18	0x3f85afd8	1.0444288
19	0x3f5eca88	0.8702779
20	0xbf0b1f2a	-0.5434443
21	0x3e96dee8	0.2946694
22	0xbfbbb70c	-1.4665236
23	0x3f4b57c0	0.7943077
24	0xbf7f845f	-0.9981136
25	0x4008586c	2.1303968
26	0xbf595b78	-0.84905195
27	0x3cb95a94	0.022626199
28	0x3f41ff93	0.757806
29	0xbf78679e	-0.9703311
30	0xbf03bc91	-0.51459605
31	0x3e39479a	0.1809372
32	0xbfce0106	-1.6094062
33	0xc01c1b65	-2.439172
34	0x3f377b53	0.7167255
35	0x3dade872	0.08491601
36	0x3f62f23b	0.88650864
37	0x4034d72c	2.825633
38	0x3f5448e7	0.8292374
39	0xbfa4f09b	-1.2885927
40	0x40085dc3	2.1307228
41	0x3fcedacf	1.6160525
42	0x3ed0e67a	0.4080084
43	0x3e47cb27	0.1951109
44	0x3fb98837	1.4494694
45	0xbf945a41	-1.1590043
46	0x3f7b414d	0.98146516
47	0xbfc05605	-1.5026251
48	0xbea03a4b	-0.31294474
49	0x3eb662a1	0.35622123
50	0xbf53a62d	-0.8267544
51	0xbf2e26d7	-0.68028015
52	0xbfa27537	-1.2692021
53	0xbf527a31	-0.822177
54	0x3fb7f6dd	1.4372212
55	0xbe974a37	-0.2954881
56	0xbf97c9a8	-1.1858416
57	0x3fd0db08	1.6316843
58	0xbc4c61e2	-0.012474509
59	0xbd897e41	-0.06713534
60	0xbfeae3cb	-1.8350767
61	0x3ea7e488	0.32791543
62	0xbf6721fb	-0.90286225
63	0x3f81cfd6	1.0141551
64	0xc00d78f9	-2.2105086
65	0xbde16f77	-0.11007588
66	0xbecf349d	-0.40469828
67	0xbe7ef05c	-0.24896377
68	0x3eb1ca6d	0.3472475
69	0x3f9d6b72	1.2298415
70	0xbfbdb5ea	-1.4821141
71	0xbd11e3d1	-0.035617653
72	0x3f996116	1.1982753
73	0x4028daec	2.638362
74	0xbf813d4f	-1.0096835
75	0xbefd6f1e	-0.49498838
76	0x3f0767b2	0.528926
77	0x3f44bd4c	0.76851344
78	0xbe95fb6b	-0.2929338
79	0xbf582cd5	-0.8444341
80	0x3fe6e1f7	1.8037709
81	0x3fda7a93	1.7068657
82	0x400595a0	2.0872574
83	0xc0223885	-2.5346997
84	0xbf194b43	-0.59880465
85	0xbe9ea770	-0.3098712
86	0x403c51f7	2.9425027
87	0xbf7b3686	-0.9813007
88	0x3cffd361	0.031228723
89	0xbfd4d2db	-1.6626848
90	0x3f88baf2	1.0682051
91	0xbd23ed56	-0.040021263
92	0xbdb17a53	-0.086659096
93	0xbf9fbb38	-1.247901
94	0xbffba521	-1.9659768
95	0xbe85edc9	-0.26157978
96	0xbf91a987	-1.1379861
97	0xbf91ce5d	-1.1391102
98	0xbfa1056c	-1.257978
99	0xbf3ff720	-0.7498646
100	0x3f62f4ab	0.88654584
101	0xbd6a7ad3	-0.05724604
102	0x3f6d7902	0.9276277
103	0xbf7ae075	-0.97998744
104	0xbf7f8db5	-0.998256
105	0xbf3d235a	-0.7388207
106	0xbfac78af	-1.347433
107	0xbfb6a377	-1.4268636
108	0xbfd879be	-1.6912153
109	0x3f2a6271	0.6655646
110	0x3fb9afdb	1.4506792
111	0x3fa1cf26	1.2641342
112	0xbf9616d9	-1.1725723
113	0xbf216879	-0.6305004
114	0x3fc09eed	1.50485
115	0x3f4cff71	0.8007727
116	0x3f63aacb	0.88932484
117	0x3e594264	0.21216732
118	0xbe8c3ca1	-0.27390006
119	0xbf253591	-0.6453486
120	0xbfb661dd	-1.4248616
121	0x3f28ebd5	0.6598485
122	0xbfc514fe	-1.5397031
123	0x3f40b51c	0.7527635
124	0x3f824dd1	1.0179998
125	0x4029b95a	2.651938
126	0xbf8cb68b	-1.0993208
127	0xbf86c716	-1.0529506
128	0xbeb01ea8	-0.3439839
129	0x3fa567fb	1.2922357
130	0xbdd3d19b	-0.103427134
131	0xbf92b352	-1.1460974
132	0x3f11648b	0.5679404
133	0x3f632e73	0.8874275
134	0x3fb12478	1.3839254
135	0xbf128f24	-0.57249665
136	0x3f2b06ee	0.6680745
137	0x3fdb62bd	1.7139508
138	0xbf9554fa	-1.1666558
139	0xbf2444c0	-0.64167404
140	0x3f0bd193	0.5461666
141	0xbf826c19	-1.0189239
142	0x3e6885c0	0.22707272
143	0xbf47d04d	-0.78052217
144	0xbfc5b44b	-1.5445646
145	0x3c8d31d2	0.01723567
146	0xbe2d1c2f	-0.16905282
147	0xbf9dff29	-1.2343494
148	0x3e4718a3	0.19442992
149	0xbfb610b2	-1.4223845
150	0xbf4dde6f	-0.8041753
151	0x3fb16395	1.3858515
152	0xbe932f5b	-0.28747067
153	0xbeca4310	-0.3950429
154	0xbf9d7247	-1.23005
155	0x3d77beef	0.060484823
156	0xbf370288	-0.7148824
157	0xbecf5ccc	-0.40500486
158	0x3f7ab1e3	0.97927684
159	0x3eb307ac	0.3496679
160	0x3f413df1	0.7548514
161	0xbfbc6729	-1.4718982
162	0x3fdc5c44	1.7215657
163	0x3f5f4f23	0.8723013
164	0x3ea83d1f	0.32859132
165	0x3ee714de	0.45133108
166	0x3eb44a02	0.35212713
167	0xbf50ce4a	-0.8156477
168	0xbf2743ad	-0.6533764
169	0x3fc4deac	1.5380454
170	0x3da03659	0.07822866
171	0x3f67a0a4	0.90479493
172	0xbfb130c1	-1.3843004
173	0x3fcab667	1.5836915
174	0xbfa9e563	-1.3273128
175	0x3fc5296b	1.5403265
176	0x3e9eeabb	0.3103846
177	0xbd9ccc64	-0.07656172
178	0x3f8e212f	1.1103877
179	0xbe136741	-0.14394857
180	0x3fb144d8	1.3849134
181	0x3f824a94	1.017901
182	0x3fa83682	1.3141634
183	0xbfa6163e	-1.2975538
184	0xc0135ff6	-2.302732
185	0xbec38cb7	-0.38193294
186	0xbf7d4d49	-0.9894605
187	0xbeb2e183	-0.34937677
188	0x4010ec79	2.2644331
189	0x3ea033cc	0.31289518
190	0xbd6d27c6	-0.05789926
191	0xbf7d93b9	-0.9905353
192	0xbed8b661	-0.42326644
193	0xbf7ce363	-0.98784465
194	0xbf2966e1	-0.66172606
195	0x3e97d765	0.2965652
196	0xbfc80a54	-1.5628152
197	0xbfebfcd6	-1.8436534
198	0x3f3c540a	0.73565733
199	0x3f761f9e	0.96141994
200	0x3f4058f7	0.7513575
201	0xbece0f00	-0.4024582
202	0xbfafa402	-1.3721926
203	0x3f73953d	0.95149595
204	0x3fb02028	1.3759813
205	0x3ec5ddb5	0.38645712
206	0xbf815de1	-1.0106775
207	0x3c88d066	0.016700935
208	0xc0279f44	-2.6190958
209	0xbfe551d1	-1.7915593
210	0xbf2e09b8	-0.6798358
211	0x3ffc0029	1.9687549
212	0x3d914e1d	0.07094977
213	0xbfd0850b	-1.6290601
214	0x3fc98bb5	1.574576
215	0xbed1fb04	-0.41011822
216	0x3e4983b1	0.19679143
217	0x3e1c4057	0.15258919
218	0x3e2fc5cf	0.17165302
219	0xbfcb1163	-1.5864681
220	0x3e66967e	0.22518346
221	0xbf0420f1	-0.51612765
222	0xbff8147f	-1.9381255
223	0xbf55db1b	-0.83537453
224	0xbf816e13	-1.0111717
225	0x40312983	2.7681587
226	0xbfbaf8a8	-1.4607134
227	0x3ecdc3eb	0.40188536
228	0xbfcd1f2d	-1.6025139
229	0x4027c8c5	2.621629
230	0xbfb9a2ff	-1.4502867
231	0xbe7118e7	-0.23544656
232	0xbf619bc9	-0.88128334
233	0x3ee77588	0.45206857
234	0xbf0494fe	-0.51789844
235	0xbfec734d	-1.8472687
236	0x3dd7a937	0.10530322
237	0xbebce85f	-0.36896035
238	0x3f730c00	0.94940186
239	0x3f70d5c7	0.940762
240	0x3fea5500	1.830719
241	0x3f6d813a	0.9277531
242	0x3f8adb01	1.0848085
243	0xc0281bea	-2.6267037
244	0x3f024a28	0.50894403
245	0x3fc9a692	1.5753958
246	0xbe235c99	-0.15953292
247	0x3fe90f9c	1.8207889
248	0xbfb239a5	-1.3923842
249	0xbf4ac018	-0.7919936
250	0x3fb4da3e	1.4129102
251	0x3fb5ccec	1.4203162
252	0x3e779af6	0.24180207
253	0xc00aade5	-2.1668637
254	0x3fd01e36	1.625922
255	0xbf12828c	-0.5723045

patch_embed.weight f4 [64, 49]
0	0x3e178181	0.14795496
1	0x3d0cb36a	0.03435079
2	0x3dd03f89	0.10168368
3	0xbc8677e6	-0.016414594
4	0xbdda3644	-0.106548816
5	0xbdce1451	-0.10062469
6	0x3e1b130d	0.15143986
7	0x3d89003e	0.06689499
8	0x3d9255f2	0.07145299
9	0xbd8f581e	-0.06999229
10	0xbddca03c	-0.1077275
11	0x3dbb1463	0.09134748
12	0x3deeb1ee	0.11655031
13	0x3d9531df	0.07284903
14	0x3e49fc3b	0.19725125
15	0x3d94f5b0	0.07273424
16	0x3caf8864	0.02142734
17	0xbdd8ae87	-0.105801634
18	0x3d38608f	0.04501396
19	0xbd27ad54	-0.040936783
20	0x3e97368d	0.29533806
21	0x3df777ef	0.120834224
22	0x3d82e04d	0.06390438
23	0xbdb2f059	-0.08737249
24	0xbd72dd84	-0.059293285
25	0xbcfdbb59	-0.030973123
26	0xbdca5f1e	-0.098814234
27	0x3ec643ad	0.38723508
28	0x3dd99c73	0.106255434
29	0x3d952fd8	0.07284516
30	0xbd7f2e30	-0.062299907
31	0x3ced8c6f	0.028997628
32	0x3dca0970	0.09865081
33	0xbdbf08a8	-0.09327823
34	0x3bde2499	0.006779265
35	0x3ca73750	0.020412117
36	0xbd582b6f	-0.052775797
37	0xbdf4478d	-0.1192771
38	0xbe235112	-0.15948895
39	0xbe234bcc	-0.15946883
40	0x3cedd092	0.029030118
41	0x3d934faf	0.07192933
42	0x3d83acb5	0.064294256
43	0x3d3c13a5	0.045917172
44	0xbd6303f3	-0.05542369
45	0x3ce205d0	0.027590662
46	0xbd8ad53c	-0.067789525
47	0xbaaab8f9	-0.0013025097
48	0xbd8cc05d	-0.06872628
49	0xbe2df460	-0.16987753
50	0xbe0b74ea	-0.13618818
51	0x3d0f1f28	0.034941822
52	0xbd955b7f	-0.07292842
53	0xbc1edad8	-0.009695731
54	0x3d71a2cf	0.058993157
55	0x3dc29b9e	0.09502338
56	0xbdfc58e1	-0.1232164
57	0x3c18f7aa	0.009336391
58	0x3c2e2a07	0.010630137
59	0x3bbdce21	0.0057923947
60	0xbd39a37c	-0.045321926
61	0xbddfca56	-0.109272644
62	0xbcba066a	-0.022708137
63	0xbe0728fb	-0.13199227
64	0xbd90c4af	-0.070687644
65	0x3d4830b6	0.04887458
66	0x3d4d43c6	0.050113462
67	0xbd2e3998	-0.042535394
68	0x3dd97f67	0.10620003
69	0x3e138b8f	0.14408706
70	0xbe867f51	-0.2626901
71	0x3dddffa7	0.108397774
72	0x3deb92d9	0.11502618
73	0xbd48a35c	-0.048983917
74	0xbd961f6c	-0.07330212
75	0x3d6fe562	0.058568366
76	0x3da0ff46	0.078611895
77	0x3d3dfa72	0.04638142
78	0xbcc93746	-0.02456249
79	0xbca2f932	-0.019894216
80	0xbc27a25e	-0.010231582
81	0x3d862326	0.06549673
82	0xbd01fafc	-0.031733498
83	0x3d04dd35	0.032437522
84	0x3e04dfbb	0.12975971
85	0x3e0957d9	0.13412417
86	0x3e57f1bf	0.21088313
87	0xbdacd618	-0.08439273
88	0xbd5c4461	-0.05377615
89	0x3d6e9cae	0.05825489
90	0xbdf07958	-0.117418945
91	0xbe344aa2	-0.17606595
92	0xbdaa8c9a	-0.08327599
93	0xbdae5a78	-0.08513349
94	0xbccd71e4	-0.025078721
95	0xbdbb7ff2	-0.09155263
96	0x3d6077dd	0.05480181
97	0xbd52cb6e	-0.051463537
98	0xbe3636ac	-0.17794293
99	0xbb9c7c69	-0.004775573
100	0x3c8ea71a	0.017413665
101	0x3e429adf	0.19004391
102	0x3e0913f9	0.13386525
103	0xbda0ae38	-0.078457296
104	0x3e2ebbd8	0.17063844
105	0xbd794ff2	-0.060867257
106	0x3e06ef86	0.13177308
107	0xbe04529d	-0.1292214
108	0x3dc1b2d1	0.09457935
109	0xbce41caa	-0.0278457
110	0x3dc83dae	0.097773895
111	0xbd6d4db1	-0.05793542
112	0xbe094446	-0.1340495
113	0xbd0768bf	-0.033058878
114	0xbd61b438	-0.05510351
115	0x3d003a97	0.031305876
116	0xbdb582da	-0.088628486
117	0xbd73bc65	-0.05950584
118	0xbb157f38	-0.0022811424
119	0xbc0b56e7	-0.008504606
120	0x3bd62b8a	0.006535952
121	0x3e1bd040	0.1521616
122	0xbce97089	-0.028496044
123	0x3d93ec42	0.07222797
124	0xbddc9433	-0.10770454
125	0xbdaade18	-0.08343142
126	0xbcfd6570	-0.030932158
127	0xbe0071bb	-0.12543385
128	0x3d4dcd7b	0.05024479
129	0x3e20befa	0.15697852
130	0x3c093792	0.008375065
131	0x3b77081c	0.0037694043
132	0xbc8c8d24	-0.017157145
133	0xbd13eab6	-0.03611251
134	0xbdd5d6c8	-0.10441357
135	0x3dab6562	0.083689466
136	0x3e4566a6	0.19277439
137	0x39e57338	0.00043764128
138	0x3c1c66ae	0.009545965
139	0x3dc5f59a	0.096659854
140	0x3e0642b0	0.13111377
141	0xbe0b331f	-0.1359372
142	0xbd5bf98d	-0.053704787
143	0xbc321091	-0.010868208
144	0x3ca15ac6	0.019696604
145	0xbe2e3f82	-0.17016414
146	0xbe0065e0	-0.12538862
147	0xbd585bba	-0.052821852
148	0x3d8b1711	0.06791509
149	0xbca67c49	-0.020322936
150	0xbbe8949c	-0.0070977937
151	0x3be8c52c	0.007103583
152	0xbd8e5f4f	-0.069517724
153	0x3dc0336b	0.09384807
154	0xbdd90039	-0.105957456
155	0x3dc94b17	0.098287754
156	0x3dcf5ec5	0.10125498
157	0xbc81fe4e	-0.015868332
158	0xbd289a69	-0.041162882
159	0xbd0cda7f	-0.03438806
160	0x3e1b85fa	0.15187827
161	0xbe53c06a	-0.20678869
162	0x3dbc39ed	0.09190736
163	0x3e18a89f	0.14908074
164	0xbd3bff25	-0.04589762
165	0x3e0d1677	0.13778101
166	0x3e18c971	0.14920594
167	0xbdc01e9b	-0.093808375
168	0xbe163dcd	-0.14672013
169	0x3df22ef4	0.11825362
170	0xbd856923	-0.06514194
171	0x3c9e642a	0.019334871
172	0x3c47b347	0.012188739
173	0x3c0a6cf2	0.008448826
174	0xbcaab7a5	-0.020839522
175	0xbd948359	-0.07251615
176	0x3c87d68c	0.016581796
177	0xbdc4c540	-0.09607935
178	0x3d3cc1fb	0.04608343
179	0xbd3e3a64	-0.046442404
180	0x3d0c6edc	0.03428541
181	0x3d69ba7a	0.057062604
182	0xbe037282	-0.1283665
183	0xbda1db39	-0.079031415
184	0x3e080170	0.13281798
185	0x3dae4939	0.0851006
186	0x3c784830	0.01515393
187	0xbc2c886b	-0.010530571
188	0xbd610c2b	-0.054943245
189	0x3df9f620	0.12205148
190	0x3d9e939b	0.07742997
191	0x3dd3d01f	0.1034243
192	0x3d730508	0.05933097
193	0x3c97bdd2	0.01852313
194	0x3a9a6bfa	0.0011781447
195	0x3e05b6a3	0.13057952
196	0x3ebdb600	0.37052917
197	0x3d8dec51	0.069298394
198	0x3e1c2e02	0.15251926
199	0x3dae1484	0.08500007
200	0x3d8e72f2	0.06955518
201	0xbb22b3b8	-0.002482636
202	0x3ddc248b	0.107491575
203	0xbd0097dd	-0.031394828
204	0xbe0a4ee3	-0.13506655
205	0xbc3c1caa	-0.011481443
206	0x3d88a646	0.06672339
207	0x3d979d5e	0.07403062
208	0xbdc99af1	-0.09844006
209	0xbdc5a323	-0.096502565
210	0x3dbe887d	0.09303377
211	0x3dd621ac	0.10455641
212	0x3e0fd21e	0.14044997
213	0xbc973cb3	-0.01846156
214	0xbcc2fee2	-0.023803178
215	0xbe01b49c	-0.12666553
216	0xbdcda965	-0.10042075
217	0xbcf05979	-0.029339539
218	0xbda01a4a	-0.07817514
219	0x3da22c03	0.07918551
220	0xbd13559f	-0.035970327
221	0x3c84920a	0.016182918
222	0xbdc88a7a	-0.09792037
223	0x3cb7de1c	0.022444777
224	0xbdea3320	-0.114355326
225	0x3dd27da5	0.10277871
226	0xbe3317cd	-0.17489548
227	0x3d2a6ac9	0.041605745
228	0x3ce481bc	0.027893893
229	0x3d141478	0.036152333
230	0x3d95090d	0.07277117
231	0xbe017900	-0.12643814
232	0x3d5c26d6	0.053747974
233	0x3c28d30f	0.010304227
234	0xbd0af38f	-0.03392368
235	0x3da60672	0.08106698
236	0xbc3e0f59	-0.011600339
237	0x3e87b9a4	0.2650882
238	0xbe013ba5	-0.12620409
239	0x3d27418b	0.04083399
240	0xbd47ad4b	-0.04874925
241	0xbda02bfe	-0.07820891
242	0xbbf8a0a9	-0.0075875116
243	0xbe5cf3af	-0.21577333
244	0x3e67cf2b	0.22637622
245	0x3d9bc595	0.07606045
246	0xbdbae07b	-0.091248475
247	0x3dc58702	0.09644891
248	0x3d40e360	0.04709184
249	0x3cac6b7b	0.021047344
250	0xbda19f8d	-0.0789176
251	0xbde21ac7	-0.110402636
252	0x3d5b2070	0.05349773
253	0x3d17e2dc	0.037081584
254	0xbcbb7c44	-0.022886403
255	0xbd3bd672	-0.045858808

patch_embed.bias f4 [64]
0	0xbd1c7288	-0.038195163
1	0xbad47604	-0.0016209488
2	0x3dc3f81c	0.095688075
3	0xbe15020d	-0.14551564
4	0x3cc5a227	0.024125172
5	0x3e07cd97	0.1326202
6	0x3d4a48ca	0.049385823
7	0xbdef6aaa	-0.116902664
8	0x3d388ccb	0.045056146
9	0xbd02b1a6	-0.0319077
10	0xbe452510	-0.1925242
11	0x3bedfaf1	0.0072625806
12	0xbdb1175d	-0.08647034
13	0x3ca7d138	0.020485505
14	0x3de5bbe2	0.112174764
15	0x3df28a3c	0.11842772
16	0xbccdfdb9	-0.025145398
17	0x3e28e9ba	0.1649541
18	0xbde38430	-0.11109197
19	0x3b8d6ee8	0.0043161996
20	0xbdf123da	-0.11774416
21	0x3df690db	0.12039348
22	0x3e31393e	0.17306992
23	0xbd81ad8a	-0.06331928
24	0x3e2e966b	0.17049567
25	0xbd7b495f	-0.06134927
26	0xbd2bd980	-0.04195547
27	0x3df043b3	0.117316626
28	0xbd869019	-0.06570453
29	0xbbd0da0d	-0.00637365
30	0x3dddd2db	0.10831233
31	0x3ca6b62a	0.020350534
32	0x3d2698d1	0.04067308
33	0x3dff8cef	0.12478053
34	0xbbbd2527	-0.005772251
35	0x3a8db1e0	0.0010810457
36	0x3d2108bb	0.039314967
37	0x3cb17da5	0.021666357
38	0x3e02f4e6	0.12788734
39	0x3d6ef230	0.058336437
40	0x3d542180	0.05178976
41	0x3da8b946	0.08238463
42	0xbdb03a5d	-0.08604882
43	0xbddd9052	-0.108185425
44	0x3d83e012	0.064392224
45	0xbe4c54f2	-0.19954279
46	0x3d98b49a	0.07456322
47	0xbd18eba4	-0.0373341
48	0xbe1673cd	-0.14692612
49	0xbc88cf4f	-0.016700415
50	0xbe00f997	-0.12595211
51	0x3da026e0	0.07819915
52	0x3c10ca0c	0.008837234
53	0xba098332	-0.0005245685
54	0xbdac7dee	-0.08422457
55	0x3cf9d78a	0.030498285
56	0x3e07891a	0.13235894
57	0x3dda392d	0.10655437
58	0xbdfa069d	-0.12208293
59	0x3d3b0a2c	0.045663998
60	0x3d5076d4	0.050894573
61	0x3dacc6e7	0.08436375
62	0xbd68b2c8	-0.056811124
63	0xbdce83c6	-0.100837275

transformer.wV.weight f4 [24, 64]
0	0x3e270de3	0.16313891
1	0x3e586da1	0.2113557
2	0xbdf3bf5e	-0.11901735
3	0x3e12048f	0.14259551
4	0xbd17d586	-0.037068866
5	0xbe398e6d	-0.18120737
6	0xbbb33483	-0.0054689064
7	0x3e5613e0	0.20906019
8	0x3d527681	0.051382545
9	0xbe320a21	-0.17386676
10	0x3e281804	0.16415411
11	0x3dfb19b9	0.122607656
12	0xbd0d8a9c	-0.034556016
13	0xbd636971	-0.05552048
14	0xbe4b638a	-0.1986219
15	0x3c083f1f	0.0083158305
16	0xbe44c732	-0.19216612
17	0xbdb81692	-0.0898868
18	0xbd990c24	-0.07473019
19	0x3eb77b1b	0.3583611
20	0x3e4c0a98	0.19925916
21	0x3da633b0	0.08115327
22	0xbea2f83f	-0.31830022
23	0xbde25238	-0.11050838
24	0xbea39092	-0.31946236
25	0x3e4a61ae	0.19763824
26	0x3e4a9064	0.19781643
27	0x3e5b9bf5	0.21446212
28	0x3e0bc070	0.13647628
29	0x3ce4a75f	0.02791184
30	0x3dd40b3d	0.10353706
31	0x3d915c51	0.07097686
32	0x3e3c5ff0	0.18395972
33	0xbdd4be4a	-0.10387857
34	0x3e8567bc	0.26055706
35	0x3d5a7a6e	0.053339414
36	0x3da337fd	0.07969663
37	0xbd84350b	-0.0645543
38	0xbe51f5fb	-0.2050399
39	0xbbaa9597	-0.005205821
40	0xbc927c1a	-0.017881442
41	0xbe13d17c	-0.1443538
42	0xbbee16a3	-0.007265882
43	0x3e39c624	0.18141991
44	0x3e205400	0.15657043
45	0xbe2f8865	-0.17141874
46	0xbea0fb40	-0.3144169
47	0xbee33e95	-0.44383684
48	0x3e82fa13	0.25581416
49	0x3e04ef31	0.1298187
50	0x3d670d4f	0.056409176
51	0xbe24eb7e	-0.16105458
52	0xbe69ecb8	-0.22844207
53	0x3e354ece	0.17705843
54	0x3dd1f6ca	0.102521494
55	0x3c4e25a9	0.012582221
56	0xbda38b74	-0.07985583
57	0xbdac6957	-0.084185295
58	0x3e6c0712	0.23049572
59	0xbd43d654	-0.04781182
60	0xbe96b375	-0.2943379
61	0xbe814119	-0.25244978
62	0xbcd0ce05	-0.025488863
63	0x3e35f3cd	0.17768784
64	0x3c06aa18	0.008219264
65	0xbea1c6cb	-0.3159698
66	0x3be1e072	0.006893211
67	0x3e5ad9cd	0.21372147
68	0x3d6aef2b	0.057356995
69	0xbea35f4e	-0.3190865
70	0xbde41d33	-0.11138382
71	0xbe561098	-0.20904768
72	0xbd4e72a4	-0.0504023
73	0xbd745a06	-0.059656166
74	0x3df5a566	0.11994438
75	0x3d63f30f	0.05565172
76	0x3d2cbe4e	0.042173676
77	0xbe540b61	-0.20707466
78	0xbe35956b	-0.1773278
79	0x3dac6ab6	0.08418791
80	0xbe6a9646	-0.22908887
81	0xbe592fe9	-0.21209683
82	0xbe2faf80	-0.17156792
83	0x3db0e0e6	0.08636646
84	0x3d60ce5d	0.054884303
85	0xbdc22e09	-0.09481437
86	0xbd909ae6	-0.070607945
87	0xbdeb07f7	-0.114761285
88	0xbdb7342e	-0.08945499
89	0x3e47e462	0.19520715
90	0xbd15d44a	-0.036579408
91	0xbe4103c4	-0.18849093
92	0x3ecab2ad	0.39589444
93	0x3d99309d	0.074799754
94	0x3de25f2c	0.11053309
95	0xbe387f6b	-0.18017356
96	0xbbf8aa4b	-0.00758866
97	0x3ebc74c3	0.36807832
98	0xbe5d6829	-0.21621765
99	0xbe604981	-0.2190304
100	0xbd5c0b9c	-0.05372201
101	0x3e93cbd0	0.28866434
102	0xbe0320fe	-0.12805554
103	0x3e68e8cc	0.22745055
104	0xbc857b78	-0.016294226
105	0x3b2db705	0.0026506793
106	0x3d0e02b5	0.03467055
107	0xbe025b93	-0.12730245
108	0x3e5ec46d	0.21754618
109	0xbe1bab79	-0.1520213
110	0xbcb5a5c5	-0.022173772
111	0x3d9e9078	0.07742399
112	0x3e7ca624	0.24672753
113	0x3e74519d	0.23859258
114	0x3cbe7810	0.02325061
115	0xbee27241	-0.44227794
116	0x3de93dae	0.113887176
117	0x3dd40f98	0.10354537
118	0x3ccc3072	0.024925444
119	0x3e0ee565	0.13954695
120	0xbd966783	-0.07343962
121	0xbce6e4a5	-0.028185198
122	0x3e876262	0.26442248
123	0x3e2708da	0.1631197
124	0x3daf94c1	0.085732944
125	0xbdd6933f	-0.10477304
126	0x3db141a0	0.08655095
127	0xbe6d29ce	-0.23160478
128	0xbde51186	-0.11184983
129	0x3df1c636	0.11805384
130	0x3e4242c0	0.18970776
131	0xbd2ceb43	-0.04221655
132	0xbd913ad1	-0.070912965
133	0x3d8fe74b	0.070265375
134	0x3c86fd49	0.016478198
135	0x3daa08f6	0.083024904
136	0x3df2f9d1	0.11864055
137	0xbe46f244	-0.19428355
138	0x3e13be3c	0.14428037
139	0x3e803fcf	0.25048682
140	0xbd59effd	-0.053207386
141	0x3dfbd7cd	0.1229702
142	0xbbb835ac	-0.0056216326
143	0xbde9a6d7	-0.11408775
144	0x3e3136b0	0.17306018
145	0xbe3e5873	-0.18588428
146	0xbdbc0ee6	-0.09182529
147	0x3e2376fc	0.15963358
148	0x3cd02c3d	0.02541172
149	0xbd988fca	-0.074493006
150	0x3dbc0184	0.091799766
151	0xbe0e88ac	-0.13919324
152	0xbbabdecb	-0.005245065
153	0x3dad299c	0.08455202
154	0xbd5b9ff0	-0.053619325
155	0xbc587948	-0.013212509
156	0xbefd0069	-0.49414375
157	0x3e4cd8f2	0.20004633
158	0x3b70a048	0.0036716629
159	0xbe23480f	-0.15945457
160	0x3d647591	0.055776183
161	0xbd2c1905	-0.042016048
162	0x3e27473f	0.16335772
163	0x3cac6836	0.021045785
164	0xbe80e542	-0.2517491
165	0xbdf74381	-0.12073422
166	0xbbedfb3e	-0.0072626164
167	0xbe9dc071	-0.30810884
168	0xbdddc3c1	-0.10828353
169	0x3d1975b3	0.037465762
170	0x3e03b07b	0.1286029
171	0x3e317438	0.1732949
172	0xbeb8ff78	-0.36132407
173	0x3dcb003a	0.099121526
174	0x3dc919ef	0.098193996
175	0x3e2ba81b	0.16763346
176	0xbdd1bbd7	-0.10240906
177	0xbdd80a5a	-0.105488494
178	0xbe2c2125	-0.16809519
179	0xbbba7dbb	-0.005691258
180	0xbf084c89	-0.53241783
181	0x3e2507cb	0.16116254
182	0x3e612f39	0.2199067
183	0x3dad484f	0.084610574
184	0xbc95fd25	-0.018309185
185	0x3d58bb3d	0.05291294
186	0xbe04fd54	-0.12987262
187	0xbdeed158	-0.11661023
188	0x3c1de2ec	0.009636622
189	0xbe7773fe	-0.24165341
190	0x3e4f27ef	0.20230077
191	0x3e99152e	0.2989897
192	0x3ca9d6d1	0.020732315
193	0x3d9c1e0c	0.076229185
194	0xbe1b2ea0	-0.15154505
195	0xbc8afedf	-0.016967235
196	0x3ea9e858	0.33185077
197	0x3d903933	0.0704216
198	0x3e16919c	0.14703983
199	0xbdbdc6d6	-0.092664406
200	0x3e36b52a	0.17842546
201	0x3d1d4f95	0.038405973
202	0xbc89df3f	-0.016830085
203	0x3e781edc	0.24230522
204	0x3d8bf1ac	0.068332046
205	0xbc2d7a47	-0.010588235
206	0xbe157278	-0.14594448
207	0xbe1805e4	-0.14845997
208	0xbe2da3b9	-0.16956986
209	0x3dd6782c	0.1047214
210	0xbe0e2472	-0.1388109
211	0xbed12720	-0.40850163
212	0xbca4c811	-0.02011493
213	0xbd7e83ad	-0.062137295
214	0xbc913c40	-0.017728925
215	0xbd603dcb	-0.05474643
216	0xbe7b1c3c	-0.2452249
217	0xbecd8b52	-0.40145355
218	0xbc913c72	-0.017729018
219	0x3d5b0d22	0.05347932
220	0x3b29cf48	0.0025910903
221	0x3d8e086c	0.069352
222	0xbe0b0f77	-0.13580118
223	0x3d5c9fcf	0.053863343
224	0xbe089bf1	-0.13340737
225	0x3e3bd444	0.18342692
226	0xbd944da0	-0.07241368
227	0x3d2f3bd8	0.04278168
228	0xbe2b98f5	-0.16757567
229	0x3d928b35	0.07155458
230	0x3e3c41c6	0.18384466
231	0x3cf5d76b	0.030009946
232	0xbea06037	-0.31323406
233	0x3d9a84a3	0.0754483
234	0xbe35727b	-0.17719452
235	0xbdd2ff32	-0.10302581
236	0xbefefc8b	-0.4980205
237	0xbb72c895	-0.0037045826
238	0xbdef4990	-0.11683953
239	0x3e6d091d	0.23148008
240	0xbdbd7a02	-0.09251787
241	0x3e427a3c	0.18991941
242	0x3da212fb	0.079137765
243	0x3d7746fd	0.060370434
244	0x3dc10010	0.0942384
245	0x3dd4cbac	0.1039041
246	0x3d3d2e0d	0.046186496
247	0xbde1c3cc	-0.110236734
248	0xbeb52d0d	-0.35385934
249	0x3e2ddd66	0.16978988
250	0xbebd69d3	-0.369948
251	0xbec5d165	-0.38636318
252	0x3e0fdd56	0.14049277
253	0x3e024116	0.12720141
254	0x3d816524	0.06318119
255	0x3d594f8d	0.05305438

transformer.wV.bias f4 [24]
0	0xbdf22526	-0.11823492
1	0xbd86dde9	-0.06585295
2	0xbe02871f	-0.12746857
3	0xbc7ef238	-0.015560679
4	0xbdb4ee3e	-0.088345036
5	0xbdc1dea7	-0.09466296
6	0xbd14c955	-0.036324818
7	0xbc593f80	-0.0132597685
8	0x3c9f0c4a	0.01941504
9	0x3d2eb142	0.042649515
10	0xbd286d05	-0.041119594
11	0x3d8b5b95	0.06804577
12	0xbc987462	-0.018610183
13	0xbdf208d9	-0.11818094
14	0x3cbb2647	0.0228454
15	0xbdfbf76e	-0.12303053
16	0x3dacb0e0	0.08432174
17	0x3e41e577	0.1893519
18	0x3d8de4f7	0.06928437
19	0xbcc4a6e4	-0.02400536
20	0x3d4ad42f	0.04951876
21	0x3d2dff3a	0.04247973
22	0x3d1cc487	0.03827336
23	0x3cd63877	0.026149971

transformer.wQ.weight f4 [24, 64]
0	0xbd89b8dd	-0.06724713
1	0x3de2167a	0.11039443
2	0xbd638d6b	-0.05555479
3	0x3d009668	0.03139344
4	0xbc9df789	-0.019283073
5	0x3e6e4cc6	0.23271474
6	0xbda50808	-0.080581725
7	0xbe8688e1	-0.26276305
8	0x3e8002e7	0.25002214
9	0x3e96d530	0.29459524
10	0x3c98e74a	0.018664975
11	0xbd8afa15	-0.067859806
12	0x3ddcddc3	0.10784485
13	0xbe95ecea	-0.29282314
14	0xbc05a28a	-0.008156428
15	0xbe1dbfdd	-0.15405221
16	0xbe43d10e	-0.19122717
17	0x3e89e7ac	0.26934564
18	0xbde864df	-0.11347365
19	0x3dd23753	0.102644585
20	0xbe2edc7f	-0.170763
21	0x3df9e36b	0.1220158
22	0xbc3405ce	-0.010987712
23	0x3c817409	0.0158024
24	0xbe597d21	-0.21239139
25	0x3da0d31f	0.07852768
26	0xbe2aa6c9	-0.16665186
27	0xbd9e0dc9	-0.07717473
28	0xbcdf52a4	-0.027261086
29	0xbd15238b	-0.03641085
30	0x3e341e94	0.1758979
31	0x3d9216f7	0.071332864
32	0x3d84dc7e	0.06487368
33	0xbd5f0032	-0.054443546
34	0xbda562f7	-0.08075517
35	0xbe2b52d0	-0.16730809
36	0x3e0e65ed	0.13906069
37	0x3c111cc8	0.00885696
38	0xbd5b1cd9	-0.05349431
39	0xbe7d3549	-0.24727358
40	0x3d173b7f	0.036921974
41	0x3dda6de2	0.1066549
42	0xbe349b59	-0.17637385
43	0xbdb8aba6	-0.09017114
44	0xbe0bb6d3	-0.1364396
45	0x3e4d9ba4	0.20078903
46	0xbe447bb1	-0.1918781
47	0x3d902b07	0.07039457
48	0x3e44d0ae	0.1922023
49	0xbe3add82	-0.18248561
50	0x3ea330e9	0.31873253
51	0x3c8b5e18	0.01701264
52	0xbdd12994	-0.102130085
53	0xbdb026c8	-0.08601147
54	0x3d215bd9	0.039394233
55	0xbe528c69	-0.20561375
56	0xbe09557a	-0.13411513
57	0x3daabb07	0.08336454
58	0x3bf9cf47	0.0076235863
59	0x3e5284a3	0.2055841
60	0xbd04923e	-0.03236603
61	0x3dc78dd3	0.09743848
62	0xbe225c9a	-0.15855637
63	0xbd4a795d	-0.049432147
64	0x3e0a031a	0.13477746
65	0x3e288c6a	0.16459814
66	0x3d831702	0.06400873
67	0xbe856516	-0.26053685
68	0xbe093192	-0.13397816
69	0xbec9b026	-0.39392203
70	0xbe859395	-0.2608916
71	0x3e9cacc8	0.30600572
72	0xbe01aeca	-0.12664333
73	0xbe23a42e	-0.15980598
74	0xbe130a54	-0.14359409
75	0xbe5825ed	-0.21108218
76	0xbe59d636	-0.21273121
77	0x3d261939	0.040551398
78	0xbe9d3c10	-0.30709887
79	0xbb95a504	-0.0045667905
80	0xbe556fce	-0.20843431
81	0x3d9607f6	0.07325737
82	0xbaa61adb	-0.0012672798
83	0xbd6c3521	-0.057667855
84	0x3d420a9e	0.047373407
85	0xbd9a566d	-0.07536016
86	0x3d5c61a1	0.053804044
87	0xbe0b30aa	-0.13592783
88	0xbca63fb9	-0.020294057
89	0x3ce8da28	0.028424338
90	0x3d7408a6	0.05957856
91	0x3e073014	0.13201934
92	0xbddfbc40	-0.10924578
93	0xbe06dbdc	-0.13169807
94	0xbd2e00e8	-0.042481333
95	0xbe8bca1d	-0.27302638
96	0x3d92831c	0.071539134
97	0xbe3f6b51	-0.18693282
98	0xbe4b2fd9	-0.19842471
99	0x3e09fa23	0.13474326
100	0xbd1bd8ec	-0.03804867
101	0xbdc7ca17	-0.097553425
102	0xbe6df5bb	-0.2323827
103	0x3d1efe23	0.038816582
104	0x3e1109f7	0.14163958
105	0xbc77233c	-0.015084084
106	0xbdc83a5c	-0.09776756
107	0xbe2cbfa6	-0.16869983
108	0x3db732b0	0.08945215
109	0xbe3cbb0e	-0.1843073
110	0x3cda6bc8	0.026662722
111	0x3dc7b6b0	0.09751642
112	0x3dc7b526	0.09751348
113	0xbbfb6175	-0.00767153
114	0xbc4ccb48	-0.012499638
115	0xbbdb51f2	-0.0066931183
116	0x3cf6175c	0.030040435
117	0x3d1821b7	0.037141528
118	0x3dbb5ee2	0.09148957
119	0x3e773a01	0.2414322
120	0xbe31e5be	-0.17372796
121	0xbd5f8a80	-0.054575443
122	0xbe7bea05	-0.2460099
123	0xbe1a678f	-0.15078567
124	0x3d3ba423	0.04581083
125	0xbdab3a4e	-0.0836073
126	0x3b9dc74f	0.004815019
127	0x3e019f2d	0.12658377
128	0xbe3c817b	-0.18408768
129	0xbd94fc74	-0.07274714
130	0x3d1ce80b	0.03830723
131	0x3afbc69b	0.0019208969
132	0x3da171e7	0.07883053
133	0x3d994e18	0.07485598
134	0xbdfd87d5	-0.123794235
135	0xbe7ec8e5	-0.24881323
136	0x3e2769f3	0.1634901
137	0x3e58b300	0.21162033
138	0x3e2eae00	0.17058563
139	0x3de704a3	0.11280181
140	0x3e2d081e	0.16897628
141	0x3ad4cf13	0.0016236029
142	0xbe3ae28a	-0.1825048
143	0x3d55499b	0.05207215
144	0xbd8a5256	-0.067539856
145	0x3dfbc997	0.122943096
146	0xbdcd46c1	-0.10023261
147	0x3d77644a	0.060398377
148	0xbb12adbb	-0.0022381383
149	0xbde00bca	-0.109397486
150	0x3eb5bd75	0.35496107
151	0x3e17b166	0.14813766
152	0xbbaf079f	-0.0053414847
153	0x3e166944	0.14688593
154	0x3dc9fb8f	0.09862434
155	0xbe44bd00	-0.19212723
156	0x3d0141d2	0.03155691
157	0x3db8727f	0.090062134
158	0x3e133fe9	0.14379849
159	0xbd85b8ea	-0.0652941
160	0xbdcc2be5	-0.0996931
161	0xbe5d3415	-0.21601899
162	0x3d99696b	0.0749081
163	0x3dbd21d4	0.09234968
164	0x3cd10911	0.025517019
165	0x3e24776b	0.1606118
166	0x3e19d47d	0.15022464
167	0xbdccd124	-0.10000828
168	0x3c20d380	0.0098160505
169	0x3ca1ff8b	0.019775173
170	0xbe2199e3	-0.1578136
171	0xbe04cebf	-0.12969492
172	0x3bd2c226	0.0064318357
173	0xbdb8025c	-0.08984825
174	0x3e8308fa	0.25592786
175	0x3e8ec752	0.27886444
176	0x3cc4cad4	0.024022497
177	0x3e007200	0.12543488
178	0x3e99e086	0.3005411
179	0xbe496dfc	-0.19670862
180	0x3e5bf6b6	0.21480832
181	0x3e410c18	0.1885227
182	0x3e1491bc	0.14508718
183	0x3e8c7b87	0.27437994
184	0xbdb44048	-0.08801323
185	0x3d38641e	0.045017354
186	0xbe8de2dc	-0.27712142
187	0x3d946079	0.07244963
188	0x3df6f5ff	0.12058639
189	0x3d903934	0.07042161
190	0x3e2e910a	0.17047516
191	0x3dba1001	0.09085084
192	0xbdd65afa	-0.10466571
193	0xbd1b9c98	-0.037991136
194	0xbe09180e	-0.13388082
195	0x3dbc6f1b	0.09200879
196	0x3e4e6f14	0.2015956
197	0xbdf400f7	-0.119142465
198	0x3e1524fe	0.14564893
199	0xbe044200	-0.12915802
200	0xbe4d9123	-0.20074897
201	0x3b2c2bfd	0.0026271336
202	0xbe85b8e3	-0.2611762
203	0x3d8bcb96	0.0682594
204	0x3d49f3f0	0.049304903
205	0xbc8b0923	-0.01697213
206	0x3ec65482	0.3873635
207	0x3e44446f	0.1916673
208	0xbe292e46	-0.16521558
209	0x3cf282e6	0.029603433
210	0x3d347091	0.044052664
211	0x3e483b76	0.19553933
212	0x3d592983	0.053018104
213	0x3d5b3046	0.053512834
214	0x3e0b2c2a	0.13591066
215	0x3e11463c	0.14186949
216	0x3d55de18	0.05221376
217	0xbdfe080e	-0.1240388
218	0xbd9bb528	-0.07602912
219	0xbe2091f6	-0.1568068
220	0x3dc25cff	0.09490394
221	0x3de1b9f4	0.11021796
222	0xbe810772	-0.25200993
223	0xbdedb63d	-0.11607025
224	0x3e238074	0.1596697
225	0x3c9ebc55	0.019376913
226	0x3dda00d7	0.106446914
227	0x3e07cdad	0.13262053
228	0xbc33dc84	-0.010977868
229	0x3df156d8	0.11784142
230	0x3e74e481	0.23915292
231	0x3cd7141f	0.026254712
232	0xbdac098d	-0.08400259
233	0xbe2de831	-0.16983105
234	0x3e8a20b2	0.2697807
235	0xbe7e1249	-0.24811663
236	0xbd0feb9f	-0.035136815
237	0x3d4aa51d	0.04947387
238	0xbd2864d5	-0.041111786
239	0xbe4035b1	-0.18770482
240	0xbccf6713	-0.025317704
241	0xbde3b6a0	-0.11118817
242	0xbe1bff89	-0.15234198
243	0xbecb3172	-0.3968616
244	0xbe004af4	-0.12528592
245	0xbcce46e8	-0.025180295
246	0x3dc5ef80	0.096648216
247	0xbd2de29b	-0.042452436
248	0xbe3cfab2	-0.18455008
249	0xbdf35283	-0.11880972
250	0xbe12bf92	-0.14330891
251	0xbbc9ed88	-0.006162349
252	0x3d36e4a5	0.044651646
253	0xbe10d9cf	-0.14145587
254	0xbb55d9a6	-0.003263095
255	0x3ce47597	0.027888102

transformer.wQ.bias f4 [24]
0	0x3d950000	0.072753906
1	0xbb4a15ad	-0.0030835674
2	0x3e3a880a	0.18215957
3	0x3d5ce6aa	0.053930916
4	0x3d9a91b6	0.075473234
5	0xbe0f628e	-0.1400244
6	0x3e02aa7e	0.1276035
7	0x3cfebae4	0.031094976
8	0xbdfdc4b3	-0.12391033
9	0xbd2d52ab	-0.042315166
10	0xbdfde518	-0.12397212
11	0x3d70690f	0.05869394
12	0x3d547f39	0.05187914
13	0x3e5c5f5f	0.21520756
14	0x3d0c81f8	0.034303635
15	0xbd5089dc	-0.050912723
16	0xbdb01dcb	-0.085994326
17	0x3d73a97a	0.059487797
18	0xbde8d24a	-0.113682345
19	0x3d4a5666	0.049398802
20	0xbdde4385	-0.10852722
21	0x3b8059a1	0.0039169346
22	0x3d9cd076	0.07656948
23	0x3e14eb56	0.14542899

transformer.wK.weight f4 [24, 64]
0	0x3d475e39	0.048673842
1	0x3d49ceb6	0.0492694
2	0x3d750608	0.059820205
3	0xbc3e31ad	-0.011608523
4	0xbe2dc91b	-0.16971247
5	0xbdae68de	-0.085160956
6	0xbe0c76fa	-0.13717261
7	0x3d2e3d23	0.042538773
8	0x3d789bd0	0.06069547
9	0xbe1ce841	-0.15322973
10	0x3ea17c8d	0.31540337
11	0x3dff165d	0.12455437
12	0x3bd49472	0.0064874226
13	0xbccc2809	-0.024921434
14	0xbe309ed2	-0.17248085
15	0xbdbaa32f	-0.09113156
16	0x3d609720	0.054831624
17	0x3cffe089	0.031234996
18	0xbe1f7d82	-0.15575221
19	0x3d7d3baa	0.06182448
20	0xbdeb0072	-0.11474694
21	0x3e25dfd3	0.16198663
22	0xbe4db897	-0.20089947
23	0xbc414c0e	-0.011797918
24	0xbe1bb0ca	-0.15204158
25	0x3e1f81e5	0.15576895
26	0x3dd340a0	0.103150606
27	0xba63f2cb	-0.0008695542
28	0x3c23a56e	0.009988172
29	0x3cad8869	0.02118321
30	0x3d2b2390	0.041781962
31	0x3cf869b9	0.03032385
32	0xbd091667	-0.03346863
33	0xbdac0936	-0.08400194
34	0x3e06874a	0.13137546
35	0xbe0748c3	-0.1321135
36	0xbb3d204a	-0.0028858357
37	0xbda56921	-0.080766924
38	0xbe6fea20	-0.23429155
39	0xbe8268fa	-0.25470716
40	0x3e35402a	0.17700258
41	0x3cc36c5e	0.023855384
42	0x3e752873	0.23941211
43	0x3ce14101	0.027496817
44	0x3d89e1b9	0.06732506
45	0xbe09b961	-0.13449623
46	0xbdeafcea	-0.11474021
47	0xbd12001b	-0.03564463
48	0x3d1d6e78	0.03843543
49	0xbbfcc259	-0.0077135977
50	0x3de8886a	0.11354144
51	0xbd08a6f8	-0.03336236
52	0xbe66dcaf	-0.22545122
53	0x3e1520fc	0.14563364
54	0x3de3d1c8	0.11123997
55	0xbd8273f5	-0.06369773
56	0xbdaa175c	-0.08305237
57	0x3d0e3f45	0.034728307
58	0xbdc40877	-0.09571927
59	0xbc9926bf	-0.018695233
60	0xbd9bc29e	-0.0760548
61	0xbe5c86cb	-0.21535794
62	0xbc0664bd	-0.008202729
63	0x3e04eaff	0.12980269
64	0xbe3b9b4e	-0.18320963
65	0x3e1222f8	0.14271152
66	0x3e8728ef	0.26398417
67	0x3d5af17e	0.05345296
68	0xbb3afea6	-0.002853313
69	0x3d3c07ec	0.045905992
70	0xbcd99d5c	-0.026564293
71	0xbda78d07	-0.08181196
72	0x3d754c20	0.05988705
73	0xbc98ba29	-0.018643456
74	0xbdbae1f4	-0.091251284
75	0x3c99f495	0.018793384
76	0xbe3b25d9	-0.18276156
77	0xbd8eae29	-0.06966812
78	0x3cc93ca9	0.024565058
79	0xbe1acec8	-0.15117943
80	0xbbb2ff5a	-0.005462569
81	0xbdbd798c	-0.09251699
82	0xbe3223be	-0.17396447
83	0x3dc32e64	0.09530333
84	0x3d680975	0.056649644
85	0xbd87fa62	-0.066395536
86	0x3e1bc3ca	0.15211406
87	0x3e7c61ab	0.24646632
88	0x3df92d52	0.12166847
89	0x3e1dc6ad	0.1540782
90	0x3d9fa1fa	0.077945665
91	0xbe28e65b	-0.16494124
92	0x3e09db6a	0.13462606
93	0xbe989537	-0.29801342
94	0x3e953450	0.29141474
95	0x3e14f5ff	0.14546965
96	0x3dc5e4a8	0.09662753
97	0x3d954d0a	0.07290085
98	0xbe5fa215	-0.21839173
99	0x3d8d0128	0.06884986
100	0xbc038df3	-0.008029449
101	0x3df5cb49	0.12001664
102	0x3d38db85	0.045131225
103	0x3e578146	0.21045408
104	0xbe402dbe	-0.1876745
105	0x3de09a63	0.10966947
106	0xbde2f272	-0.11081399
107	0xbd0d1679	-0.03444526
108	0xbe28b2d1	-0.16474463
109	0x3ddf0bfe	0.10890959
110	0x3dbe6821	0.09297205
111	0x3e1bdf59	0.15221919
112	0xbe06c48f	-0.13160919
113	0x3db4bc7e	0.088250145
114	0xbbdb1a0c	-0.0066864546
115	0xbdd8cb60	-0.10585666
116	0x3e4b071b	0.1982693
117	0x3dde8de4	0.10866907
118	0xbe5b5251	-0.2141812
119	0x3c81bfed	0.015838588
120	0x3df7e6a4	0.12104538
121	0xbe65cb42	-0.22440818
122	0x3e0b417e	0.13599202
123	0xbd8e7789	-0.06956393
124	0xbdce8534	-0.10084
125	0x3e068025	0.13134821
126	0x3e00971c	0.12557644
127	0xbe93c742	-0.2886296
128	0x3cf0ab62	0.029378597
129	0x3d389688	0.045065433
130	0xbe0f2664	-0.13979489
131	0xbd36bf90	-0.044616282
132	0xbadbd550	-0.0016771946
133	0xbe219580	-0.15779686
134	0x3e08f5db	0.13375036
135	0xbd15fdce	-0.036619
136	0x3ca66d7f	0.020315884
137	0xbc224f24	-0.009906564
138	0x3d218470	0.039432943
139	0x3df75844	0.12077382
140	0x3e71f5c1	0.23628904
141	0x3cd6e734	0.026233293
142	0x3c4e5627	0.0125937825
143	0xbe8b3e19	-0.27195814
144	0xbe5553f3	-0.20832805
145	0xbdf6785f	-0.12034678
146	0xbe84bced	-0.2592539
147	0x3e26a606	0.1627427
148	0x3e1d44cf	0.1535828
149	0xbd90f743	-0.070784114
150	0x3cc4d39a	0.02402668
151	0x3e170e1f	0.1475148
152	0x3dafca4a	0.085835055
153	0xbdeef1ed	-0.116672374
154	0xbc0ecd5d	-0.008715955
155	0xbdb5db51	-0.08879722
156	0xbdaf6c65	-0.085655965
157	0x3e1f101a	0.15533486
158	0xbd1478c0	-0.03624797
159	0x3d412ff5	0.047164876
160	0x3e3c459d	0.1838593
161	0x3e2aa9c8	0.16666329
162	0xbe0487d8	-0.12942445
163	0x3d7a5923	0.061120164
164	0xbe50da67	-0.20395814
165	0xbde16c80	-0.11007023
166	0xbeaf2011	-0.34204152
167	0xbe705d18	-0.23473012
168	0xbd15e108	-0.03659156
169	0xbd9f5e36	-0.07781641
170	0x3e438231	0.19092633
171	0x3e8258cb	0.2545837
172	0xbae6941e	-0.001759175
173	0x3e0d2539	0.1378373
174	0xbe3487d8	-0.17629945
175	0x3d23c444	0.039982095
176	0xbda9d0be	-0.082917675
177	0xbdf6ffbd	-0.12060497
178	0x3cb29dab	0.021803698
179	0x3ca1af8a	0.019737024
180	0x3da8cab4	0.082417876
181	0x3e4665fa	0.19374838
182	0xbe901329	-0.28139618
183	0x3c893ad6	0.016751688
184	0x3d920ba1	0.07131124
185	0xbdc46b45	-0.095907725
186	0xbc91e8ce	-0.017811205
187	0xbd2ae231	-0.04171962
188	0x3d0b14e6	0.033955477
189	0xbe9505b4	-0.29105914
190	0x3e896ed6	0.26842374
191	0x3e3ec69b	0.1863045
192	0xbdd68add	-0.10475705
193	0xbe1785eb	-0.1479718
194	0xbe0a8766	-0.13528213
195	0xbd984adb	-0.074361525
196	0xbd30f0da	-0.043198444
197	0x3c2f9991	0.010717765
198	0x3ec320f0	0.38111067
199	0xbd8b74e3	-0.06809404
200	0xbdf02619	-0.117260166
201	0xbd33b01f	-0.043869134
202	0xbcd059b5	-0.0254334
203	0x3bcb4c96	0.006204198
204	0xbd08b333	-0.033374023
205	0xbbae92bb	-0.00532755
206	0x3d218cdd	0.03944098
207	0xbc5c42c0	-0.013443649
208	0x3e649be5	0.22325094
209	0xbdd0894b	-0.101824366
210	0xbe68dc15	-0.22740205
211	0xbc80ccac	-0.015722595
212	0xbe4613a0	-0.19343424
213	0xbe74580c	-0.23861712
214	0xbbf3e480	-0.007443011
215	0x3c0c78cb	0.008573721
216	0x3e592e57	0.21209083
217	0x3d3eb9ca	0.0465639
218	0x3d3ddb49	0.046351705
219	0xbceb5678	-0.028727755
220	0xbc3a14c2	-0.011357488
221	0xbd3c5e36	-0.045988284
222	0xbe7f99fb	-0.24961083
223	0x3d8dd5d4	0.0692555
224	0xbd999406	-0.07498936
225	0x3dde8019	0.108642764
226	0xbda374d4	-0.079812676
227	0xbe08db4a	-0.13364902
228	0xbe0d3a29	-0.13791718
229	0x3e124e90	0.14287782
230	0xbba29fde	-0.0049629053
231	0xbe917d3c	-0.2841586
232	0x3e671148	0.22565186
233	0x3e3a3376	0.18183693
234	0x3d078286	0.03308346
235	0xbd194d02	-0.037426956
236	0x3dea6e0f	0.11446773
237	0x3decd211	0.115635045
238	0x3ca874a7	0.020563437
239	0xbce3360b	-0.02773573
240	0xbd57afdf	-0.052657958
241	0xbd8873cb	-0.06662711
242	0x3df2713e	0.118380055
243	0xbd5301f1	-0.051515523
244	0x3e15e5ae	0.14638397
245	0xbddb7875	-0.10716335
246	0x3cd513e0	0.026010454
247	0xbde59c7b	-0.11211487
248	0xbda380bd	-0.07983539
249	0x3da48e37	0.08034938
250	0x3e011889	0.12607016
251	0x3e993042	0.2991963
252	0x3cf31b8d	0.029676223
253	0x3e815316	0.25258702
254	0xbe0fc633	-0.14040451
255	0x3cf975bb	0.030451646

transformer.wK.bias f4 [24]
0	0x3e1757dd	0.14779611
1	0xbcbf050d	-0.023317838
2	0x3d715df5	0.058927495
3	0xbe01a0cd	-0.12658997
4	0x3c2603c3	0.010132733
5	0x3c80b854	0.015712894
6	0x3ca95ca0	0.02067405
7	0x3da9c2eb	0.08289131
8	0x3d718cde	0.058972232
9	0xbe58829a	-0.2114357
10	0xbe627c92	-0.22117832
11	0xbdb78d60	-0.08962512
12	0x3d16c01b	0.0368043
13	0x3e0b33bc	0.13593954
14	0x3b800e8a	0.003907983
15	0x3d696176	0.05697771
16	0x3d04c545	0.032414693
17	0xbcef8ab9	-0.029240953
18	0x3d993aa0	0.07481885
19	0xbe11eaeb	-0.1424977
20	0x3da690b6	0.0813307
21	0x3d47a7e9	0.048744116
22	0xbac133fc	-0.0014740224
23	0xbda525d1	-0.080638535

transformer.wO.weight f4 [64, 24]
0	0xbede2af0	-0.43392134
1	0xbe6b06fb	-0.22951882
2	0xbeb6f6da	-0.35735208
3	0xbbf8a577	-0.0075880843
4	0xbe0d261e	-0.13784072
5	0xbe039505	-0.12849815
6	0xbdc83431	-0.0977558
7	0x3ddc88e6	0.10768299
8	0xbd39781c	-0.04528056
9	0xbeb90e62	-0.36143786
10	0x3e185f01	0.14879991
11	0x3de83a00	0.113391876
12	0x3df6e3ad	0.120551445
13	0xbed54fd1	-0.41662458
14	0x3e129437	0.14314352
15	0xbe6eea8b	-0.23331659
16	0x3e4d2c09	0.2003633
17	0xbda247b8	-0.079238355
18	0x3e869f12	0.26293236
19	0x3e6e127c	0.23249239
20	0x3d913c1e	0.070915446
21	0x3e889e97	0.26683494
22	0x3ec10e44	0.37706196
23	0xbdfd6510	-0.12372792
24	0x3e029770	0.12753081
25	0x3e5f7cfd	0.21825023
26	0x3e4510d5	0.19244702
27	0xbd4ef2c0	-0.050524473
28	0xbe1fb0cb	-0.15594785
29	0xbe80f541	-0.25187114
30	0x3e13d97f	0.14438437
31	0x3d99fdf8	0.07519144
32	0x3e3088d9	0.17239703
33	0x3e881867	0.26581118
34	0x3ea0d76e	0.3141436
35	0xbc9f618f	-0.0194557
36	0xbe7fa215	-0.24964173
37	0x3ec5ec92	0.3865705
38	0x3e3b0774	0.18264562
39	0x3e0fa84f	0.14029048
40	0x3e029e18	0.1275562
41	0xbe4b77d8	-0.19869936
42	0x3e776b43	0.24162011
43	0xbdc33115	-0.09530846
44	0x3dbe8f25	0.093046464
45	0x3edff222	0.4373942
46	0x3c49707a	0.012294883
47	0xbd3211c4	-0.043473974
48	0xba29db3f	-0.00064795086
49	0x3e3a94a9	0.18220772
50	0xbdff5aa1	-0.12468458
51	0x3e810670	0.25200224
52	0x3d4b855c	0.04968773
53	0x3ea0a1e1	0.31373504
54	0xbd22ed8f	-0.039777335
55	0xbdb8d697	-0.09025305
56	0x3dce493f	0.10072564
57	0xbd12eb68	-0.035869032
58	0x3e9655a0	0.29362202
59	0x3e61434c	0.21998328
60	0xbe49e5ef	-0.19716619
61	0x3e086043	0.13317971
62	0x3e17b923	0.14816718
63	0xbddf78cc	-0.10911712
64	0xbe8284ef	-0.25492045
65	0x3db05f1d	0.086118914
66	0x3d153825	0.036430497
67	0x3e7d0dea	0.24712339
68	0x3ece740e	0.40322918
69	0x3eabb93b	0.33539757
70	0x3e6c5e2b	0.23082797
71	0x3e84265d	0.2581052
72	0x3b934544	0.004494341
73	0x3e3a95c3	0.18221192
74	0xbe2e8d8d	-0.17046185
75	0x3e8a8903	0.27057657
76	0x3d4b02d0	0.04956323
77	0xbd09952b	-0.033589523
78	0xbdaf0535	-0.08545915
79	0x3d868a84	0.065693885
80	0x3ca82c12	0.020528827
81	0x3e0b7e91	0.136225
82	0xbde9e074	-0.11419764
83	0xbdce73c5	-0.10080675
84	0xbe376319	-0.17908897
85	0xbe18884b	-0.14895742
86	0x3d982eb5	0.07430784
87	0x3e3ccfe2	0.18438676
88	0xbe23340f	-0.15937828
89	0xbea1a4dc	-0.3157109
90	0x3e20f5ab	0.15718715
91	0x3dfc1884	0.123093635
92	0xbe10c799	-0.1413864
93	0x3e16af0c	0.14715213
94	0xbef6e783	-0.48223504
95	0x3e5be108	0.21472561
96	0x3db17f55	0.08666865
97	0x3cfb6fbf	0.030692933
98	0x3e422ee4	0.189632
99	0xbdf88b2a	-0.121359184
100	0xbe33e56b	-0.17567985
101	0xbeb97b27	-0.3622677
102	0x3e00a586	0.12563142
103	0xbdaabcd3	-0.083367966
104	0x3e4a0c08	0.19731152
105	0xbe9ca4f3	-0.30594596
106	0xbe746421	-0.23866321
107	0xbe5f979e	-0.21835181
108	0xbdbf6b5a	-0.093466476
109	0x3e3a6338	0.18201911
110	0x3df6a473	0.12043085
111	0x3d928bf4	0.071556
112	0x3d8e83f2	0.0695876
113	0x3e3b165d	0.1827025
114	0x3e90e5ea	0.2830041
115	0xbdd95abb	-0.106130086
116	0xbe38fea3	-0.18065886
117	0x3e52dcdb	0.20592062
118	0x3d2cd772	0.042197652
119	0xbe8d44c2	-0.2759152
120	0x3e1a75f4	0.15084058
121	0x3e141e2c	0.14464635
122	0xbdc8f1fe	-0.09811781
123	0x3e4192ca	0.18903652
124	0xbdb24210	-0.08704007
125	0xbdf87253	-0.121311806
126	0xbd3ce1e1	-0.046113852
127	0x3e822e5c	0.25425994
128	0x3d23bfbe	0.03997778
129	0x3d83faa1	0.06444288
130	0x3cce122b	0.025155148
131	0xbe3b73fd	-0.18305965
132	0xbdaa4960	-0.083147764
133	0x3e58c120	0.21167421
134	0xbbcde734	-0.006283665
135	0x3d1ac462	0.03778494
136	0x3e6d6043	0.23181252
137	0xbea6e536	-0.3259675
138	0x3e6bbb46	0.23020658
139	0x3e3e6acb	0.18595426
140	0x3d2d780e	0.04235082
141	0xbccfbd02	-0.02535868
142	0xbea0c983	-0.3140374
143	0x3ec2e957	0.3806865
144	0xbddc52d5	-0.107579865
145	0xbedd133a	-0.4317873
146	0xbd50cf7a	-0.050979115
147	0x3dab65c1	0.083690174
148	0x3ea8a64b	0.3293937
149	0x3d29b2fa	0.04143045
150	0xbd6c51ac	-0.057695076
151	0x3cce3332	0.025170896
152	0xbdb4ede2	-0.08834435
153	0x3d096a87	0.033548858
154	0x3dfb24a0	0.12262845
155	0x3e0b8ad3	0.13627176
156	0x3e3e73bd	0.18598838
157	0xbc88d8bf	-0.016704915
158	0xbe590b87	-0.21195804
159	0x3e910725	0.28325763
160	0xbe9a6221	-0.3015299
161	0x3e5c7ba9	0.21531548
162	0xbdd3d815	-0.10343949
163	0xbe894248	-0.2680838
164	0x3dfce128	0.12347633
165	0xbec110aa	-0.37708026
166	0x3e9983bb	0.29983315
167	0x3c82c969	0.01596518
168	0x3dc888ea	0.09791739
169	0x3eeda09c	0.46411598
170	0xbe35633d	-0.17713638
171	0xbe042c0d	-0.12907429
172	0xbed47456	-0.41495007
173	0x3e0b3038	0.13592613
174	0x3e0278f9	0.1274146
175	0xbcbe5b6c	-0.023236953
176	0xbe800414	-0.2500311
177	0xbe66ac45	-0.22526653
178	0xbe42370e	-0.18966314
179	0xbda2d447	-0.07950645
180	0x3c89c875	0.016819218
181	0xbdd66883	-0.10469153
182	0x3e751cfa	0.23936835
183	0x3e69b4d5	0.22822888
184	0xbe1e2b9a	-0.1544632
185	0x3e20b8fd	0.15695567
186	0xbe366226	-0.17810878
187	0x3dd3b1c9	0.10336644
188	0x3d979b4d	0.07402668
189	0x3b1ad1ed	0.002362366
190	0x3e64b64d	0.22335167
191	0x3d8bc745	0.06825117
192	0xbea101bd	-0.3144664
193	0xbd62148a	-0.05519537
194	0x3ddcc94c	0.10780582
195	0x3e826c2b	0.2547315
196	0xbca3fc6d	-0.020017827
197	0xbd2766e3	-0.040869605
198	0xbea2cb94	-0.31795943
199	0x3e8eeaf7	0.2791364
200	0xbea300e5	-0.3183662
201	0x3db5c94a	0.088762835
202	0xbe766ef1	-0.24065758
203	0xbe6b13ff	-0.22956847
204	0xbe38806e	-0.18017742
205	0xbeca74ef	-0.39542338
206	0xbe1e9955	-0.15488179
207	0xbdfe68e2	-0.124223486
208	0xbe84a56a	-0.2590745
209	0xbe398ec6	-0.1812087
210	0x3e4ae471	0.19813706
211	0x3d4fe82c	0.050758526
212	0x3e1fd177	0.15607248
213	0x3e5b28ce	0.21402285
214	0xbe2df419	-0.16987647
215	0x3e4ce380	0.2000866
216	0xbd97104a	-0.07376154
217	0xbc30177e	-0.0107477885
218	0x3d8a3ed0	0.06750262
219	0x3e6e9d99	0.23302306
220	0x3cbde22e	0.02317914
221	0xbe3525cd	-0.17690201
222	0xbbc9a1c3	-0.0061533167
223	0x3e64dc59	0.22349681
224	0xbea4642d	-0.32107678
225	0x3d1f3dc6	0.03887727
226	0xbe9aaa87	-0.30208227
227	0xbe8bf847	-0.27337858
228	0x3dce58e3	0.100755475
229	0xbe90bf17	-0.2827079
230	0x3dad79c1	0.08470488
231	0x3e62b4e9	0.22139324
232	0xba437e6b	-0.00074574974
233	0x3ea018cc	0.3126892
234	0x3e033745	0.12814052
235	0x3d3173c4	0.043323293
236	0x3d6f5f46	0.05844047
237	0x3e52b869	0.2057816
238	0x3e903ace	0.28169864
239	0x3e35e33c	0.17762464
240	0xbe705d44	-0.23473078
241	0x3e00724f	0.12543605
242	0x3e4b3c94	0.19847327
243	0x3e214a37	0.15750967
244	0x3d432ab0	0.04764813
245	0x3caa344c	0.02077689
246	0x3e1d8971	0.15384461
247	0xbdd25754	-0.10270563
248	0xbe13894f	-0.14407848
249	0x3e456208	0.19275677
250	0xbea56ed2	-0.32311112
251	0xbe93cf53	-0.28869113
252	0xbde4eace	-0.11177598
253	0x3e2d2ea4	0.16912323
254	0x3bb15293	0.005411455
255	0x3e7f9cd2	0.24962166

transformer.wO.bias f4 [64]
0	0x3e1fa567	0.1559044
1	0x3e064f3b	0.13116162
2	0x3e361eea	0.1778523
3	0xbe751d57	-0.23936974
4	0x3e1287f0	0.14309669
5	0xbe535821	-0.20639087
6	0x3df192ae	0.11795555
7	0xbe44d796	-0.19222865
8	0xbe3c1bb0	-0.18369937
9	0x3e60d583	0.21956448
10	0x3e798a23	0.24369101
11	0x3e0bbdf8	0.13646686
12	0xbe0ed341	-0.13947774
13	0xbd9ba853	-0.07600465
14	0x3e25287b	0.16128723
15	0xbe05dbff	-0.13072203
16	0xbd91a797	-0.07112043
17	0x3cc1f380	0.02367568
18	0xbd81873b	-0.06324621
19	0xbe0e6022	-0.1390386
20	0x3d4cf8c3	0.050041925
21	0xbdd4eeb2	-0.1039709
22	0x3e2ff5a2	0.17183545
23	0xbe2e707e	-0.170351
24	0x3e03d55e	0.12874362
25	0x3cc3522d	0.023842895
26	0x3db3bec4	0.0877662
27	0xbde64c16	-0.11244981
28	0x3e53e87a	0.20694152
29	0xbe198779	-0.14993085
30	0x3e7666fc	0.24062723
31	0x3d8b8bcd	0.06813774
32	0xbe44dc4d	-0.19224663
33	0xbd6b98e0	-0.05751884
34	0x3dd204ad	0.10254798
35	0x3d9ba1f5	0.0759925
36	0x3d67882c	0.056526348
37	0x3e315ba0	0.17320108
38	0x3c95f0d3	0.01830331
39	0xbd6dee2a	-0.05808846
40	0xbe408c0b	-0.18803422
41	0xbe62c1a1	-0.22144176
42	0xbd4321dc	-0.047639713
43	0xbe28a530	-0.16469264
44	0x3e6513f8	0.22370899
45	0xbd61f242	-0.055162676
46	0x3d9c7b54	0.076407105
47	0x3d5d5a0b	0.05404095
48	0x3d9386a8	0.07203418
49	0x3a7b33dd	0.00095826184
50	0xbe41cd5e	-0.18925998
51	0x3e8813ee	0.26577705
52	0x3eab9397	0.3351104
53	0xbd9c1029	-0.0762027
54	0x3c88e07b	0.016708603
55	0xbcfe285e	-0.031025108
56	0xbd63b0d5	-0.055588562
57	0xbd19699a	-0.037454225
58	0xbaa04066	-0.0012226223
59	0xbe430398	-0.1904434
60	0xbd6cc8d0	-0.057808697
61	0xbdfff905	-0.124986686
62	0xbd8d2b98	-0.068930805
63	0x3db3a8a3	0.08772399
