multi_digit_transformer_custom.pth (torch, 941198 bytes, 91 tensors)

pos_embed f4 [1, 64, 64]
000000 53 c8 04 3e b6 32 4d 3f 82 e3 8d bf d2 18 b5 3e
       0.12967043 0.80155504 -1.1085055 0.353705
000010 14 cb 5c be f4 8f f3 bd 96 5e fe bf 5a 65 da 3c
       -0.21561843 -0.11892691 -1.9872615 0.026659656
000020 b5 4b f8 3e b3 27 b0 be 8e de 90 3e 36 9a 09 3e
       0.4849526 -0.34405288 0.28294796 0.13437733
000030 86 86 b1 be 78 18 b6 3f 06 87 1d bf 58 c7 91 3f
       -0.34672946 1.4226217 -0.61534154 1.138896
000040 02 d5 2c bd 37 30 33 3f 3f 4a f4 bf 84 ff cc be
       -0.042195328 0.69995445 -1.9085158 -0.40038693
000050 d0 1d 4e 3f a9 8c 02 3e ef 28 8a 3f 6e 91 05 3f
       0.8051424 0.1274897 1.0793742 0.52175033
000060 2a 9f 25 3f 5f ce 25 3f 94 65 be 3e 4b bc 8b 3f
       0.6469599 0.6476802 0.37186873 1.0916837
000070 c2 5c 48 3f f2 f1 eb bd b5 76 d6 bf cb a4 1f bf
       0.7826654 -0.11520757 -1.6754977 -0.6236083
000080 b8 d1 00 3f ba 8a dc bf f0 33 ff be a5 a8 10 bd
       0.50320005 -1.7229836 -0.49844313 -0.035317082
000090 85 a1 f3 3e c4 7f 75 bf 6d 7b 63 3e cc ca e1 3f
       0.47584167 -0.9589808 0.22215052 1.7640014
0000a0 7b 04 07 be 0a cd e5 3e 43 85 5e bf 41 2d 8d 3f
       -0.13185303 0.44882995 -0.8692209 1.1029435
0000b0 4b a2 f0 3e c8 a1 c4 3f a4 5f 3d 3f ed ec c1 3d
       0.4699882 1.5361872 0.7397406 0.09469018
0000c0 c9 ca e6 3e f6 a4 a0 3d e8 84 66 bf 7a ea a5 3f
       0.45076588 0.07843964 -0.9004655 1.2962182
0000d0 50 98 8a bf 10 46 85 bf d4 14 4f 3f ff 8b d7 bf
       -1.0827732 -1.0412006 0.80891156 -1.6839598
0000e0 02 63 70 3e 9e 4d 18 bf 0a 66 92 3f 78 51 40 c0
       0.23475268 -0.59493434 1.143739 -3.0049725
0000f0 ee 46 35 bf b8 9a d6 bf d8 33 93 be 97 61 8b 3f
       -0.70811355 -1.6765966 -0.2875049 1.0889157
000100 15 93 86 be 8d d1 0d 3e 6e 84 a4 3f ac 46 b0 be
       -0.2628409 0.13849469 1.2852914 -0.34428918
000110 0f 16 96 3e 3e 26 69 3f 75 65 9f 3f 33 25 b4 bf
       0.29313704 0.9107398 1.2452837 -1.4073852
000120 de 13 40 3f 05 48 11 40 56 47 5e be 43 d6 31 bf
       0.75030315 2.2700207 -0.217069 -0.6946756
000130 11 95 4e bf c7 d5 a8 bf 32 bd bf 3f 68 9b f8 3e
       -0.8069621 -1.319024 1.4979613 0.48556066
000140 65 60 d8 bf 89 27 21 bf 61 4f 78 bf 4a fa 18 bf
       -1.6904417 -0.6295095 -0.9699612 -0.5975691
000150 be ef 5a 3e 92 2d d7 be a4 1b ce be 6c bc c9 3f
       0.21380517 -0.42026955 -0.40255463 1.5760627
000160 da e3 f2 3d 0a a6 3b 3f b6 e6 c7 be ea f2 50 be
       0.118598655 0.7330023 -0.39043206 -0.20405164
000170 bd f9 c0 bf a3 91 50 3d 8b b7 21 bf 64 74 0a bf
       -1.5076214 0.05092014 -0.6317069 -0.5408385
000180 64 c8 82 3d 25 bb 89 bf 66 5c 40 bf ce f9 b1 be
       0.06385878 -1.0760237 -0.7514099 -0.34760898
000190 4a ad 0c 3f 2a 56 83 3f ae d0 75 bf 3f 94 a5 bd
       0.5495192 1.026067 -0.96021545 -0.08084916
0001a0 62 bf a5 bf 2c 35 89 3f da 5c 96 bd 14 aa 8d 3f
       -1.294903 1.0719352 -0.07341929 1.1067529
0001b0 67 92 7f 3f 7e f9 84 bf f9 d0 a7 bf c9 29 43 bf
       0.9983277 -1.0388639 -1.3110648 -0.76235634
0001c0 6d 26 32 bf fd ae 96 3f ab cc 80 3d 03 58 90 3f
       -0.69589883 1.1772152 0.06289037 1.1276859
0001d0 8f 48 13 40 10 c0 90 bf c4 e2 9f bf 8b f9 c4 3f
       2.3013036 -1.1308613 -1.2491078 1.5388654
0001e0 e5 53 dd be 73 b1 98 bf 7b de 98 bf ec 6d 28 bd
       -0.4322807 -1.1929153 -1.1942896 -0.041120455
0001f0 c8 6a 6a 3f 7f d6 9e 3f 4f c6 05 be 75 ca d1 bd
       0.91569185 1.2409209 -0.1306393 -0.10243694
000200 d4 52 86 be 00 bd 7e 3f 03 91 11 be fe d2 07 40
       -0.26235068 0.9950714 -0.14215474 2.122253
000210 d3 d0 2f 3f a5 09 13 40 57 a0 b8 bf 5a cc cb be
       0.68678015 2.2974637 -1.4423932 -0.39804345
000220 d7 bf aa 3e 84 f2 ef be c7 12 4b 3e fd b7 30 bf
       0.33349487 -0.46864712 0.19831382 -0.69030744
000230 23 7b ac bf 4f 0d 85 bf 75 e6 02 c0 5a df a5 bf
       -1.3475078 -1.0394686 -2.045316 -1.2958786
000240 37 98 31 40 32 b2 bf 3f 44 49 13 bf ed 77 20 3e
       2.7749155 1.4976256 -0.5753367 0.15670748
000250 84 55 e9 3e cf 8a 2d bf 01 cc c2 3f 9e a7 c1 be
       0.45573056 -0.6778993 1.5218507 -0.37823194
000260 ab 50 1e bf 70 b9 c3 3f 56 1c 38 3f 3f 7c 99 bf
       -0.6184184 1.5290966 0.7191824 -1.1991042
000270 7f 99 95 bd a5 15 35 3f 57 3d 08 3f 7c cb a9 3e
       -0.07304668 0.7073615 0.532186 0.3316306
000280 33 d8 15 3f b9 3f 8d bf ae 1e 3b be cb 87 ce 3e
       0.5853302 -1.1035072 -0.18273422 0.40337977
000290 76 46 13 be e3 1c 64 3e b5 52 9f 3f dc 12 44 bf
       -0.14382347 0.22276644 1.2447115 -0.7659128
0002a0 84 e2 92 3e 43 66 92 3f 37 30 00 c0 83 eb 60 bf
       0.28688443 1.1437458 -2.0029428 -0.8785936
0002b0 68 60 66 be 11 79 66 3e 0c c9 b6 3f fb dd a5 bc
       -0.22497714 0.2250712 1.4280105 -0.02024745
0002c0 c6 d8 1c be 14 bc 1f bf 2c be 61 be 73 25 b7 bc
       -0.15317068 -0.6239636 -0.22045201 -0.022356724
0002d0 e0 19 53 bf df 24 1d bf a3 76 8d bf 22 89 b1 3d
       -0.8246136 -0.61384386 -1.105183 0.08668734
0002e0 11 8e 06 bf dd 7b 52 bf 9e 8a 09 3f 2a 12 97 3f
       -0.52560526 -0.8222025 0.5372714 1.1802418
0002f0 fc 39 5b 3f d2 cb 48 3e 9c 30 05 c0 07 99 e5 3e
       0.8563535 0.19609001 -2.081092 0.44843313
000300 d4 ba 38 be d8 6a 9a be c3 9e 32 3f 6b 4c 0c bf
       -0.1804002 -0.3015964 0.697735 -0.54804105
000310 12 0f 27 bf 8e 0e 47 3f 02 4b 68 3f ba 59 6d be
       -0.6525737 0.77756584 0.9073945 -0.23178759
000320 b2 6f 45 bf af 04 83 bf bb 18 d1 be 99 26 d9 be
       -0.7712356 -1.0235804 -0.4083918 -0.4241226
000330 38 6c eb 3e 3a e6 87 be 41 39 08 40 67 57 06 40
       0.45981002 -0.26542836 2.1284945 2.0990846
000340 38 9c ad 3f 5f 37 bb 3e 7a c2 0e bf 66 25 55 bf
       1.3563299 0.36565682 -0.557655 -0.8326019
000350 8b 52 d7 be c3 20 bc bf 6f 19 89 bf a6 a0 aa 3f
       -0.42055163 -1.4697498 -1.0710887 1.3330276
000360 c5 89 8e 3f da da 98 bc 67 66 b8 bf 62 33 a8 3e
       1.1135794 -0.018659044 -1.4406251 0.32851702
000370 59 aa 1b bf d9 ce 55 3d 2b e9 da 3d 8a 4e e7 bf
       -0.60806805 0.05219922 0.106890045 -1.8070843
000380 7c 6a a6 3f e3 2e 35 bf 77 00 01 40 d5 de 31 bf
       1.3001246 -0.7077467 2.0156534 -0.6948064
000390 32 fc a1 bf 7e 7b 99 3f 7d 07 92 bf 88 b8 03 40
       -1.2655089 1.1990812 -1.1408535 2.058138
0003a0 b9 7b c6 be 5c e9 ef 3e ef d8 78 bf 8e f7 8a 3f
       -0.38766268 0.46857727 -0.97206014 1.0856798
0003b0 bb 34 96 bd 2e 5c 74 3f 30 c8 88 be f9 03 86 3f
       -0.07334276 0.95453155 -0.2671523 1.0469962
0003c0 48 fc bf 3f bc 2d 07 be 40 1f e2 bf a8 6b 4d 40
       1.4998865 -0.1320104 -1.7665787 3.2096958
0003d0 92 70 8e 3f 3e 00 a6 bf 82 69 a4 3d 8a 49 f2 3f
       1.1128104 -1.2968824 0.080279365 1.8928692
0003e0 16 b8 bd 3f 93 3c 87 3e de 1c a0 be 69 44 23 bf
       1.4821804 0.26413402 -0.31272024 -0.6377626
0003f0 ae 4d 8f bf 2a 77 b6 be 9a a5 37 3f dd fb d9 be
       -1.1195581 -0.3563779 0.7173706 -0.4257497

patch_embed.weight f4 [64, 49]
000000 1b 0f 63 bc 19 f4 a2 3d ec 71 f3 3d 00 94 b3 bd
       -0.013858582 0.07956714 0.11886963 -0.08768463
000010 3e 39 f7 bd d2 29 cb 3d 3e 35 48 3d 0d 82 01 3e
       -0.12071465 0.09920086 0.0488789 0.12647267
000020 da ca 01 3e bc 0f 00 be 9f c9 35 3d 05 94 99 3c
       0.12675038 -0.12506002 0.044381734 0.018747339
000030 52 18 9c 3d ec 52 07 bd b2 db b9 3d 13 89 41 3d
       0.07621826 -0.033038065 0.09075107 0.047249865
000040 9f 1b b1 3a f0 db c6 bd 6c 50 19 bc 7b ac 72 3d
       0.001351226 -0.097099185 -0.009357553 0.05924652
000050 b6 6c 27 3e 29 12 71 bd 36 da 02 3e dc d7 99 bd
       0.16350064 -0.05885521 0.12778553 -0.07511875
000060 d1 84 2b bd d3 61 39 3d 30 74 38 3c 1a 7a 17 3d
       -0.04187471 0.045259308 0.01125817 0.03698168
000070 2d 95 1e 3e 78 3d 97 3d 3f 8c 87 3d 65 61 1c be
       0.15486594 0.07384771 0.06618547 -0.15271528
000080 8c 83 a0 bd ae 80 87 3d 95 c0 2d 3e 51 38 27 3d
       -0.078375906 0.066163406 0.16967995 0.040825192
000090 ef 00 c9 3d d0 96 05 be cd fb 2b be 7c bb 62 be
       0.09814631 -0.13045812 -0.16795273 -0.22141832
0000a0 2b 9a 8d be 8c dd 17 be cf 1e b4 bd e6 f8 af 3c
       -0.27656683 -0.14830607 -0.08794939 0.021480989
0000b0 10 1a 7a 3d a0 15 55 bd d2 f5 1e 3d b5 3a 33 be
       0.06106001 -0.052022576 0.03880865 -0.17502864
0000c0 33 20 0f 3e 12 a2 8c 3e ec 30 1f 3e 59 c4 3f 3d
       0.13977127 0.274674 0.15546006 0.04681811
0000d0 88 de 74 bc ab c4 40 bc ba 87 14 3d 0c b1 b5 3d
       -0.014945634 -0.011765639 0.03626225 0.0887166
0000e0 1a de e9 bb d6 d6 07 bd 78 47 de 3d d9 c4 e0 3c
       -0.0071370723 -0.033163868 0.10853475 0.027437614
0000f0 3d 2b c5 bc af ad 13 be 7d 68 05 3e 6e 05 6b bd
       -0.02406847 -0.14421724 0.1302814 -0.057378225
000100 ff 75 85 3d 73 4a af 3d 90 b0 c9 bd 92 56 72 3d
       0.065166466 0.08559122 -0.0984813 0.05916459
000110 d5 c1 09 be 70 69 14 bd 95 2c d5 3d be c2 22 3d
       -0.13452847 -0.036233366 0.10408894 0.039736502
000120 49 00 a9 ba a6 57 08 3e 70 53 a9 bd b4 b6 4f 3d
       -0.0012893762 0.13314685 -0.082678676 0.05071135
000130 9f 6b 4a 3d a0 f2 ea bc 74 a4 dd bc 34 fa 64 3d
       0.04941904 -0.028680146 -0.027055956 0.055902675
000140 2b 4f eb bc 30 a2 b8 bd 20 47 14 b9 fb 38 ca 3d
       -0.028724274 -0.0901531 -0.00014140876 0.098741494
000150 ed 5f d6 bd 45 78 ec bd 16 e0 93 3d 9c f5 8d 3d
       -0.10467515 -0.11546377 0.072204754 0.06931612
000160 1c 4a 32 3d f3 b1 98 ba f0 33 55 be f1 64 b8 bd
       0.043527707 -0.0011649713 -0.20820594 -0.09003628
000170 29 8a 04 be ec c4 82 3d f1 d1 1d be e8 a8 d6 bd
       -0.12943329 0.06385216 -0.15412118 -0.10481435
000180 99 b4 25 3e cf 8f 41 bd 9a 79 25 be 5f 35 e1 bc
       0.16182174 -0.047256287 -0.16159669 -0.02749127
000190 a0 89 1a be 84 89 a7 bc 15 8f 1d be 7a 48 7b 3c
       -0.15091562 -0.020451315 -0.15386613 0.015337104
0001a0 a6 79 83 bc f3 56 78 3d 7d a6 b5 3d 68 ff db bd
       -0.016049217 0.060629796 0.08869646 -0.10742074
0001b0 f7 95 8c 3d c3 91 84 3b db e4 fc 3d 5a 99 19 3e
       0.06864541 0.0040456965 0.12348338 0.14999905
0001c0 12 6f 09 3e 11 f5 9a bd a8 9a 77 3d db 16 37 3d
       0.13421276 -0.07566274 0.060450226 0.04469953
0001d0 53 ff e1 3d 78 e7 02 3e 64 7f 35 3d 92 3d f3 3d
       0.11035027 0.12783611 0.044310942 0.11876978
0001e0 e5 cb 45 3e 51 fe 2d 3e fb 71 18 be 2f fa ac bd
       0.19316061 0.16991545 -0.1488723 -0.08446156
0001f0 ca 91 01 3d 7c 4e 2e 3e 89 3e ba bd 8d f1 eb bb
       0.031633176 0.17022127 -0.09093959 -0.007200426
000200 3e f3 d2 bd 18 c6 21 be bd 46 04 be 9a 43 d9 bd
       -0.10300301 -0.15798223 -0.1291761 -0.10608597
000210 be 5d 07 be 65 72 3b 3e ab a6 78 3d 0c 6a 45 bb
       -0.13219354 0.18305357 0.060705822 -0.0030123023
000220 c9 df fd bd 04 54 dd 3c 18 ea fc bd ec 39 21 be
       -0.12396199 0.0270176 -0.12349337 -0.15744752
000230 f9 3d a3 3d c8 e2 18 3e 18 98 9f ba 40 b4 0f bd
       0.07970805 0.1493026 -0.0012176065 -0.03508401
000240 a3 d2 21 bb e7 bf b4 bd f2 a9 d2 bd 69 f8 06 3d
       -0.00246922 -0.08825665 -0.10286321 0.032951746
000250 b1 07 12 bd 29 e2 b7 bc 59 83 75 3c 0e 00 be 3d
       -0.035651866 -0.022446709 0.014984929 0.09277354
000260 ad 83 2a bc ae ca d0 bd 44 14 21 bd 20 12 6c 3d
       -0.0104073705 -0.10194908 -0.039325967 0.057634473
000270 5d 84 9d bd 10 31 5e bc 44 b2 9e 3d f0 19 79 bd
       -0.07691262 -0.013561502 0.07748845 -0.06081575
000280 90 62 ab 3d f8 b6 f3 3c aa b7 b3 3c 7e 96 2c bd
       0.08368409 0.029750332 0.021938164 -0.042135708
000290 31 45 cc bd 64 eb 0f be a9 ce e5 3d e2 7c 07 3d
       -0.09974135 -0.14054638 0.11221058 0.033078082
0002a0 08 55 08 3e 2a 2e e2 3d 8c 47 cb 3b 8b bd 27 bd
       0.13313687 0.11043961 0.0062035974 -0.040952247
0002b0 b1 97 8b bd e4 08 b5 bd dd 32 13 3d 1c f2 46 3d
       -0.06816042 -0.088395864 0.03593718 0.048570737
0002c0 cb 82 a1 3d 5f aa 09 3e 3f 3d cd bc 92 97 ee 3d
       0.07886275 0.13443898 -0.025053618 0.116500035
0002d0 c9 1d 92 3d 4b 38 a2 bc d5 c5 f5 3d 1a 91 ee bd
       0.07134587 -0.019802233 0.12000624 -0.1164877
0002e0 28 ad 02 3e ba f2 b3 bc 98 9a 76 bd 96 22 ec 3d
       0.12761366 -0.021966327 -0.060206026 0.11530034
0002f0 48 5f 79 bd a9 4f 44 bc ff b1 2e bd 12 7e b8 bb
       -0.060881883 -0.011981883 -0.04265022 -0.005630263
000300 b2 79 76 bd af bf 2f 3e aa 76 a8 bd f0 78 3f 3d
       -0.06017465 0.17162965 -0.082257584 0.046746194
000310 78 9b 95 3d 2f e5 0d be 2c 3c bb bd 80 25 5f ba
       0.07305044 -0.13856958 -0.09142336 -0.0008512363
000320 40 d2 87 bd 5f 0e 4b 3d 2f ff 3e 3e e6 5c 40 be
       -0.06631899 0.049574252 0.18652032 -0.18785438
000330 63 ea 31 be f9 e8 d3 3d c9 4e 5b 3d cf 4f 01 be
       -0.17374568 0.103471704 0.053541932 -0.12628101
000340 56 10 0b 3e 59 04 13 3e a1 97 59 bd 03 2e 8c 3d
       0.1358045 0.14357127 -0.05312312 0.068447135
000350 2a a6 f3 bd 80 09 ff bd 70 32 62 bd 9f d4 02 3c
       -0.11896928 -0.12452984 -0.055223882 0.007985263
000360 c3 c6 2a 3e 10 f5 dc 3d ce de 46 3d 3e 5b 89 3d
       0.16677384 0.107889295 0.048552327 0.06706856
000370 f1 89 8e bc b9 0b 22 bd f3 2a 17 bd 4b b3 e1 3d
       -0.01739976 -0.03956196 -0.036906194 0.110205255
000380 1e ff e1 3d f4 02 99 bd eb 16 31 3d ca 17 2c 3d
       0.11034988 -0.074712664 0.043234747 0.042014875
000390 55 e1 60 bd 59 f2 32 be f7 34 f5 3d 38 33 54 3c
       -0.054902393 -0.17475261 0.11972993 0.012951665
0003a0 2d 7f 2c 3e cd cc 41 3e f7 b6 e1 3d 2c c8 5c be
       0.16845389 0.18925782 0.11021226 -0.21560735
0003b0 a4 f5 07 be 30 6c b9 3d cd f7 b8 3d 82 6f 75 3d
       -0.13277298 0.09053838 0.09031639 0.059920795
0003c0 1b bb ef 3c bd e7 37 3d 63 33 c0 bd 3f fc 31 be
       0.029264024 0.044898737 -0.09384801 -0.1738138
0003d0 db 81 8d bd 84 27 66 bc 0d 3e a1 3d a9 ba dc bd
       -0.069095336 -0.014047507 0.07873163 -0.1077779
0003e0 9b 65 7b bd 34 13 fc bd 4d 1b cf 3d 0d d1 e8 3c
       -0.061376195 -0.1230835 0.10112629 0.028419996
0003f0 ee 1b e6 3d 27 8f d4 bd 85 ef 80 bd d9 b8 54 3d
       0.11235796 -0.10378867 -0.06295685 0.051934097

patch_embed.bias f4 [64]
000000 1c 29 ef 3c c2 d1 48 bd 52 56 33 3d a1 6c fe 3d
       0.029194407 -0.049028166 0.043783493 0.12423063
000010 54 77 43 3c 15 48 01 3e 09 b4 83 3d d9 b0 8f 3d
       0.0119303055 0.12625153 0.06430823 0.07016153
000020 c7 cf 0b be 66 6d ef 3d a1 08 84 bd 9d 0a 68 bd
       -0.1365348 0.11690788 -0.06446958 -0.056650747
000030 02 4f ea 3d 36 ad 6a 3c 93 fc 42 3d 7b b7 c8 ba
       0.11440851 0.014323523 0.047604155 -0.001531347
000040 7e c7 e6 bd 50 fb ea 3d 7b c8 b9 bd 04 e6 91 3c
       -0.11268519 0.11473715 -0.09071442 0.017809875
000050 72 e9 81 bc 10 34 d0 3d 07 7c 15 bd e2 ff ac bd
       -0.015858386 0.1016618 -0.036495235 -0.08447243
000060 4c cb 66 3d c6 c5 71 3d 55 5d fe bd 2b e7 d0 3c
       0.056346223 0.059026502 -0.124201454 0.025500854
000070 ac e8 69 3d a7 81 0d 3e 9b 8b 59 bc 61 4f a8 3d
       0.05710666 0.1381899 -0.013277913 0.08218265
000080 f6 18 04 3e 8c 73 c1 bd ec ac fb 3c 92 0f fe 3b
       0.12900147 -0.09445867 0.030722104 0.007753321
000090 b2 d2 af 3d 30 49 13 3e ce 00 cb 3d c4 52 ab bd
       0.08585109 0.14383388 0.09912263 -0.08365396
0000a0 3a c1 7a bd 71 60 89 bd e7 65 8b 3d a2 46 6f bd
       -0.06121943 -0.06707848 0.06806546 -0.05841697
0000b0 01 bc b9 bc 79 0a 06 be d2 37 59 bd 78 f1 0b bd
       -0.022672655 -0.13089933 -0.05303175 -0.03416583
0000c0 6c 00 8e bd 68 ec 0a 3e a1 21 03 3e 78 f6 0f be
       -0.06933674 0.13566744 0.12805797 -0.14058864
0000d0 2f da 9b 3d 36 8b fa 3d 8f 78 9d bc ef dd a8 bd
       0.076099746 0.12233584 -0.019222526 -0.082454555
0000e0 21 d4 f5 3d f2 22 13 3e fb 5b a5 bc 1a aa d0 3d
       0.12003351 0.143688 -0.020185461 0.10188694
0000f0 23 22 8f 3d c1 27 93 bc 43 90 10 3e 57 9d bb bd
       0.06988933 -0.017963292 0.14117531 -0.091608696

transformer.layers.0.attention.wV.weight f4 [64, 64]
000000 bc 6b 3d bd 30 6c cf bd 72 cd 08 3e fb 65 bb bd
       -0.04624532 -0.10128057 0.13359621 -0.091503106
000010 21 17 10 bd ba f3 1c 3e 07 82 be 3c 98 41 1e 3e
       -0.035178307 0.1532735 0.023255361 0.1545471
000020 b2 37 e6 3d eb 05 9c 3d d3 01 c2 bd 35 82 0c be
       0.11241092 0.07618316 -0.09473004 -0.13721545
000030 d1 83 57 3e ba b9 aa bc 4f 82 a1 bd 0e 73 5e bd
       0.21046378 -0.020840514 -0.078861825 -0.054308943
000040 b3 1b b9 3c 89 35 a8 ba 57 8f bb bd bc 74 24 bd
       0.022596216 -0.0012833338 -0.09158199 -0.04015039
000050 e8 a8 75 bd b5 79 55 3d 57 b8 03 3d 46 18 38 bc
       -0.059975535 0.052118022 0.032158222 -0.011236256
000060 97 81 a9 bd 0e 27 fa 3d 3c 34 6b bc 67 09 f0 3d
       -0.082766704 0.1221448 -0.014355715 0.11720543
000070 18 73 06 be 9e 4c 1e 3d d3 2c aa bd f2 37 11 be
       -0.13129842 0.038647287 -0.08309331 -0.14181498
000080 f3 6d 4b be 4d b3 5f 3d 66 12 98 3b a4 d0 e5 3c
       -0.19866161 0.054614354 0.004640865 0.02805359
000090 43 e9 94 3d 43 c2 e4 bd 3f 5c d1 bd d4 4f 45 bd
       0.07271054 -0.11169865 -0.10222673 -0.048171833
0000a0 85 e5 0c 3d b9 d6 3f bd 1b a6 79 3d f7 3e 91 bd
       0.034398574 -0.046835635 0.060949426 -0.07092088
0000b0 dc f5 5c 3d 10 d4 c7 3d 75 66 d3 3d 7d 8e b5 3d
       0.053945407 0.097572446 0.103222765 0.08865068
0000c0 e9 cb dd 3d 87 ca 8d 3d c3 ac ff 3c 1c 67 88 3d
       0.108299084 0.06923395 0.031210309 0.066602916
0000d0 b9 34 ba bc c0 e5 e7 3d a4 92 ba bd f2 e1 d0 3d
       -0.022730218 0.11323118 -0.09110001 0.10199346
0000e0 c1 63 db bd 49 55 eb 3c 55 ff 76 bc 71 2a e2 bd
       -0.10712386 0.02872719 -0.015075524 -0.11043251
0000f0 87 68 03 3e 4a d8 f5 bc 80 fe f3 bd 98 4d b2 bd
       0.12832843 -0.030010361 -0.119137764 -0.08706206
000100 15 04 5b 3d 4a 5c b6 3d fc 15 9a 3d 13 d7 ed bd
       0.05347069 0.089043215 0.075237244 -0.11613288
000110 49 0c 45 3d 2e b3 df bd a2 c7 db 3c 65 3b 85 ba
       0.04810742 -0.10922848 0.02682859 -0.0010164796
000120 2c 75 1d be 00 05 59 3d cc 01 9a bc a1 ae 28 3c
       -0.15376729 0.052983284 -0.018799685 0.010295541
000130 19 fb a4 3d 3a cd b4 3d 9e 3e 98 3c 08 dd 86 3d
       0.080557056 0.08828206 0.018584546 0.06585127
000140 3e fe 7f 3e 5c 21 06 3e e1 48 55 3c be 11 b3 3c
       0.2499933 0.13098663 0.013017864 0.021859046
000150 1b 4c d3 bd 0c ab 96 3d d8 47 d8 3c fc 44 09 be
       -0.1031725 0.07356843 0.026401445 -0.13405222
000160 97 03 89 bd 8b 71 cc bd 50 52 f3 bb 4c 83 96 3c
       -0.06690138 -0.09982594 -0.007425584 0.018373154
000170 1c d7 39 be 17 fe 04 3e cc 49 22 3d 79 38 79 3c
       -0.18148464 0.12987553 0.03962116 0.015211218
000180 49 ab 03 be 41 4e 24 bd 36 25 e5 3d 7e 8f e7 3d
       -0.12858309 -0.04011369 0.11188738 0.11306666
000190 71 bd 3f bd 8a 0b db ba b9 86 13 3e c9 3a ba 3d
       -0.046811525 -0.0016711813 0.14406861 0.09093244
0001a0 e7 d0 f6 3d b7 46 56 bd c7 db 16 bc b8 9d 96 3d
       0.12051564 -0.052313533 -0.009207672 0.07354301
0001b0 bd 47 50 3d 34 64 30 bd 53 41 bd 3c 7e 96 9d bd
       0.050849665 -0.04306431 0.023102438 -0.0769472
0001c0 0c 69 80 3d b7 07 03 bd 6f 34 b9 3c 96 1e 8d 3d
       0.06270036 -0.03198978 0.02260801 0.068905994
0001d0 aa 46 51 3e 2b 5b 46 3d 23 87 71 bd 30 89 10 bd
       0.20437112 0.04842679 -0.058966767 -0.035287082
0001e0 df eb d0 3c 17 1b 60 bd 4a eb 9e bd d2 82 0a 3e
       0.025503097 -0.054713335 -0.077597216 0.13526466
0001f0 46 3b d9 3d 31 80 bd 3d 46 6c 65 3d 85 04 bf bd
       0.10607009 0.09252966 0.05601146 -0.09327034
000200 6f d4 36 bd 87 a0 96 bd d1 71 92 bd ee 6d 8a 3d
       -0.044636186 -0.07354837 -0.07150615 0.06759249
000210 01 1b 20 bd da ef 94 bd e5 44 48 3e 09 63 b1 3c
       -0.039088253 -0.072723106 0.19557531 0.021653669
000220 40 7f 2e be 68 46 e1 3d ec e8 2c be e0 90 8a 3d
       -0.1704073 0.10999757 -0.16885728 0.06765914
000230 24 ae 22 bd 6e 12 6c bc 2d d1 02 3d 21 8b 33 be
       -0.039716855 -0.014408691 0.031937767 -0.17533542
000240 35 85 bd 3d 24 0a 05 be 5a f6 d9 bd 92 54 e4 3c
       0.09253923 -0.1299215 -0.10642691 0.027872358
000250 b9 7f 78 3d 40 22 aa 3d 9d f7 9e 3d d1 fd 63 3d
       0.06066868 0.08307314 0.07762072 0.05566198
000260 de bc 83 bd 35 14 70 bd d6 3f 8e 3c c5 53 76 bd
       -0.06432508 -0.05861302 0.017364424 -0.060138483
000270 66 c6 17 3e 53 31 dd bb 80 ff 26 3e f0 9d 93 3d
       0.14821777 -0.0067502647 0.16308403 0.072078586
000280 51 dd d4 bc 44 30 e3 bc d9 c8 bb 3c 9e a5 61 bd
       -0.025984438 -0.027732976 0.02292292 -0.055089585
000290 4d 30 69 bc 4c 07 9c bd c2 1a e7 bd 5b dc 5b bd
       -0.014232707 -0.07618579 -0.112844005 -0.053676944
0002a0 87 08 2e bd 6d 34 9f bd 1a 00 a6 3c 8f cc 00 bd
       -0.0424886 -0.07773671 0.02026372 -0.031445082
0002b0 bd 86 b3 bd 68 00 56 3d 67 36 b0 ba 19 28 90 bc
       -0.08765934 0.05224648 -0.0013443948 -0.017597245
0002c0 17 3c c5 bd 7d ee 2a 3d d8 74 3a 3b e2 22 a5 bd
       -0.09630602 0.041731346 0.0028450992 -0.08063294
0002d0 06 ec c4 3d 03 a6 e3 3c f7 b4 59 3c e6 4e 9b bc
       0.096153304 0.027789121 0.013287774 -0.01895852
0002e0 3c a2 d1 bd 71 4b 8f 3d fd c7 c8 3c bb 60 d6 bd
       -0.10236022 0.06996811 0.024509424 -0.104676686
0002f0 02 c2 cd 3d 2e c5 d3 bd 6b cf ac bd f8 ec 5f 3e
       0.1004677 -0.103403434 -0.08437999 0.2186774
000300 ed 22 38 bc a5 3a 1f 3d c1 42 26 3e 37 4e 3e 3d
       -0.011238796 0.038874287 0.16236402 0.04646131
000310 ed 59 5d 3d 55 6c c9 3d 0b be b5 3d 63 55 63 bd
       0.054040838 0.09835116 0.088741384 -0.055501353
000320 90 2a 99 3d e8 5a 4f bd f5 e1 ea bc 22 69 e9 3c
       0.07478821 -0.050623804 -0.028672198 0.028492514
000330 e2 ae ba bc 5f bc cc 3d 41 af 37 be 8e da 8f bb
       -0.022788469 0.099968664 -0.17937948 -0.0043900674
000340 64 bd cb bd bd 06 06 3e fc c4 08 be 43 7e e8 bd
       -0.09948233 0.13088508 -0.13356394 -0.113522075
000350 f0 1e 15 3e 7d 56 1c 3d d2 8d b7 3d 53 3f 07 3d
       0.14562583 0.03816842 0.08962597 0.033019375
000360 6e 78 a2 3b cb 2c b3 bd 66 cc 30 be 77 68 50 be
       0.004958204 -0.08748778 -0.17265472 -0.2035235
000370 19 36 1b 3e 6f 41 9e 3d e8 5d 9e 3d c3 cc 86 3d
       0.15157355 0.07727324 0.07732755 0.06582024
000380 7e c1 05 be fc de 7a bd 85 05 47 3e a3 34 2f bd
       -0.13062093 -0.06124781 0.194357 -0.042774808
000390 2d fe 43 3b 36 9b 0e 3d 3c c3 df bd 12 1c 46 3d
       0.002990614 0.03481599 -0.1092591 0.048366614
0003a0 bb a7 e4 3d 90 5b 67 3c e0 2d 8c bd d3 aa 43 be
       0.111648045 0.014120951 -0.068446875 -0.19108133
0003b0 53 6d 97 3d 6e 7f 10 bc 85 4d 8e bd 75 21 c9 3d
       0.07393899 -0.008819444 -0.069483794 0.098208345
0003c0 c7 2c 00 3d 6d 72 c0 3c 98 37 fb 3c 4e 58 f2 3c
       0.031292703 0.023492062 0.030666158 0.029583123
0003d0 ba b4 45 3d 69 35 13 bd 92 a8 d9 bb 61 be a6 3d
       0.048268057 -0.035939608 -0.0066424096 0.08141781
0003e0 61 49 a3 bc bb 79 73 3e 3e a3 e3 3c 27 75 82 3c
       -0.01993245 0.23776905 0.0277878 0.015925003
0003f0 83 7a 49 bd f8 8f 13 3d 55 8f 6d 3d 67 0c f2 bc
       -0.049189102 0.03602597 0.05799802 -0.02954693

transformer.layers.0.attention.wV.bias f4 [64]
000000 f6 c1 b6 bd 9f 62 26 bd 16 f2 22 bd 08 2b 22 3d
       -0.08923714 -0.040621396 -0.039781652 0.03959182
000010 01 40 42 3d 44 e2 e1 bd 0b 30 68 bb e2 16 86 bd
       0.04742432 -0.11029485 -0.0035429026 -0.06547333
000020 0c b0 83 3d 42 3c 9a 3d c7 40 dd 3d 6a 17 1f 3c
       0.06430063 0.075310245 0.10803371 0.009710172
000030 24 43 5a bd 07 3b f8 3c e0 41 13 3d 4e 58 97 bd
       -0.053286687 0.030301584 0.035951495 -0.0738989
000040 c6 03 10 3d 55 00 da 3d 93 48 98 bd 89 13 a4 bd
       0.03515985 0.106445946 -0.074357174 -0.080115385
000050 9b c0 82 3d 99 6b 72 bd 17 b7 02 3c 43 a6 2c bb
       0.06384393 -0.059184644 0.007978222 -0.0026344217
000060 1d 04 6a 3d d7 3c 82 bd 78 ca 50 3b ab 40 8b 3d
       0.05713283 -0.063592605 0.0031858962 0.06799444
000070 ec 88 b7 bd 22 58 8d 3d 91 45 3b 3d fe 18 ac bd
       -0.08961663 0.069015756 0.04572064 -0.084032044
000080 be c6 32 3c a1 0f c5 bd 28 85 1e bc af 8e 90 bc
       0.010911642 -0.096221216 -0.009675302 -0.017646162
000090 aa d8 e3 3d 71 4f c6 3b 2f 2f 94 bd 67 f5 8e bd
       0.1112531 0.0060519506 -0.07235562 -0.069804005
0000a0 23 a2 89 3d eb 81 a9 3d a6 f2 ec 3d b8 7e 3f bd
       0.06720378 0.08276733 0.11569719 -0.046751708
0000b0 ce 70 8b bd 2a 1d 6a 3b d4 55 52 39 ee d4 c8 3d
       -0.06808625 0.003572295 0.00020059134 0.09806238
0000c0 76 8e e7 3b e0 3f ba bd 11 8c e2 3c c0 5c 41 3d
       0.007066543 -0.090942144 0.02765468 0.047207594
0000d0 cd e5 9d bd 51 22 9a bd a5 eb 38 3d 75 f9 14 3d
       -0.07709847 -0.075260766 0.045146603 0.036370713
0000e0 46 10 f0 3b 76 28 23 bd b5 82 36 3c 88 f4 f3 3d
       0.0073261587 -0.03983351 0.011139561 0.11911875
0000f0 83 4b dc 3d 43 59 22 bd b6 d8 00 3d 38 27 8a 3d
       0.1075659 -0.039635908 0.03145667 0.06745762

transformer.layers.0.attention.wQ.weight f4 [64, 64]
000000 25 d9 ef 3b ce 0a 48 bc c9 48 58 bd 4c 7f 72 3d
       0.007319587 -0.012209607 -0.05280379 0.05920343
000010 41 ac ea 3d 0c 21 2e bc c7 ac 05 3d 0a 65 06 be
       0.11458636 -0.010627996 0.032635476 -0.13124481
000020 9d 22 e3 3d 4a f5 10 be 91 91 13 3e ab 9c e0 3d
       0.11090586 -0.1415607 0.14410998 0.10967382
000030 25 f1 d4 3d c6 26 3b 3d a4 c9 b7 3d 7a 91 b2 3d
       0.10397557 0.045691274 0.08974007 0.08719154
000040 f3 ad 0e 3d f0 3d 93 3c c2 42 b9 bd cc c2 bb 3d
       0.03483386 0.01797387 -0.09045936 0.09168014
000050 fa 0d 2b 3d 29 4e 62 be 7d 54 73 3d 60 e9 96 bd
       0.041761376 -0.22100128 0.059406746 -0.073687315
000060 ca 61 eb bd 1f a1 22 3e 99 c9 8c 3d ef dc d4 bd
       -0.11493261 0.15881775 0.06874389 -0.10393702
000070 ac 6c 46 bc fc 9c cc 3c 23 7b a1 3c 7a 2f a5 3b
       -0.01211087 0.0249772 0.019712036 0.00504106
000080 31 c5 13 3e 73 10 da 3d ab 98 05 3e 3b aa 0a be
       0.14430691 0.10647669 0.1304652 -0.135415
000090 d2 fa 9d bd 27 c8 05 bb 53 0a 16 3e 81 c4 0e be
       -0.07713856 -0.002041349 0.14652376 -0.13942148
0000a0 ad 2c 11 3d 9b b7 5e bd f7 50 62 3c 7b 80 94 bd
       0.035442997 -0.05437432 0.013813249 -0.07251068
0000b0 0e f7 8d bd 45 74 ca bd 3f a4 0e bc b8 7b 54 ba
       -0.069318876 -0.09885458 -0.0087061515 -0.0008105594
0000c0 f1 f5 86 3d 13 26 8a 3d 9e d8 e6 3d 38 1a da 3d
       0.06589878 0.06745543 0.11271785 0.10649532
0000d0 db 54 cd bd 6c 52 84 bc ce 5f 11 3c 17 a5 d7 3d
       -0.100259505 -0.016152583 0.008872939 0.10529535
0000e0 86 db 95 3d cc c7 19 3e a4 bb fc bd 52 7b a2 bd
       0.073172614 0.15017623 -0.12340477 -0.07933678
0000f0 b8 bf a6 3d b0 09 cc 3d c1 c6 e4 bd a9 0c 45 bb
       0.08142036 0.09962785 -0.11170722 -0.003006736
000100 77 4a 96 3d ac 2f 0f bd e1 00 9c ba 8e 5f 6f bd
       0.07338422 -0.034957573 -0.0011902117 -0.058440737
000110 85 02 69 3d b1 c2 98 3d bc e2 24 3e 46 f6 61 3d
       0.05688717 0.074590094 0.16102117 0.055166505
000120 d7 50 c6 3d cf b3 cc bd 2f 14 d9 3d 55 16 16 3d
       0.09683388 -0.09995233 0.10599553 0.03664239
000130 df c7 d1 3b 47 51 87 bd db 50 52 bd 57 77 a4 3c
       0.0064020003 -0.06607299 -0.05134664 0.020076437
000140 40 e5 c0 bd 73 56 2f 3c 46 6c 70 bd 11 bc 10 bd
       -0.09418726 0.010701763 -0.058697008 -0.035335604
000150 e4 0b 3a be 99 83 dd 3d a9 2b b0 3d 89 7a aa bd
       -0.18168598 0.10816116 0.086020775 -0.08324153
000160 2e 07 a8 bc c5 ed 44 be 72 39 dc 3c 5a b7 4e 3d
       -0.020511236 -0.19231327 0.02688286 0.050467826
000170 06 51 a1 3d ee 15 3a bd e0 0d e3 bb 2e 77 81 bd
       0.07876782 -0.04543107 -0.0069291443 -0.0632156
000180 c9 ea 63 3d 41 1c 85 bc 34 98 a1 bd 76 7a ee 3b
       0.05564383 -0.016248824 -0.078903586 0.007277782
000190 c9 6b 41 3e 6e f2 91 bc 3a b9 19 3e a0 c0 d5 bd
       0.18888773 -0.017815795 0.15012065 -0.10437131
0001a0 71 68 c3 bc 70 6f 29 3e 29 48 d5 bc 49 3c 40 3d
       -0.023853512 0.16546416 -0.026035385 0.046932492
0001b0 42 6f 27 be c1 90 c4 3d 42 0d 5b 3c af 36 dc bc
       -0.16351035 0.09597922 0.01336986 -0.026881544
0001c0 4a 91 3a 3d 28 1c aa bd 4e 4a 02 bd f3 ad 59 3d
       0.045548715 -0.08306152 -0.031809144 0.053144407
0001d0 3a 4d f8 bd 53 a5 46 3b 9d 56 1f 3c 78 95 90 bd
       -0.12124105 0.0030310943 0.00972524 -0.07059759
0001e0 5b 3d 1d 3d e8 29 f8 3d 29 de 2e bd 96 d1 04 3e
       0.03838859 0.12117368 -0.042692337 0.12970576
0001f0 b9 1e 31 3e 9f 93 1a bd a9 cb e3 bd db c9 d4 bc
       0.17296876 -0.03773844 -0.111228295 -0.025975158
000200 59 a1 87 bd 90 dc cc bd 4d 41 91 3d 0e 55 fa bd
       -0.066225715 -0.100030065 0.07092533 -0.12223254
000210 ad c6 68 3d d9 4c 1f 3d e8 e5 c8 3d f2 60 62 3d
       0.056830097 0.038891647 0.09809476 0.055268236
000220 1b d1 ee bc 8f c4 80 bd ed 40 ea 3c 78 bd b5 bd
       -0.029152444 -0.062874906 0.028595412 -0.08874029
000230 8b e0 22 bd 60 2b 95 bd 8f 9c 44 bd 6b fe c9 bb
       -0.039764922 -0.07283664 -0.04800087 -0.006164362
000240 d7 ac 7c bd 0e 2e 16 bd 38 2a 87 3d 79 56 ff bd
       -0.06168827 -0.036665015 0.065998495 -0.12467665
000250 c6 2f ef bc 3f e5 09 be 2c 87 29 bd fc 9d 03 bc
       -0.029197585 -0.13466357 -0.041388676 -0.008033272
000260 10 9e db 3b 6c 03 d8 3b 05 e0 c9 3d 69 27 5b bd
       0.006702192 0.006592205 0.098571815 -0.05350438
000270 6f 2e 92 bd 31 db 71 bc 26 6c a0 bd 35 e8 ec 3d
       -0.07137763 -0.014761732 -0.07833128 0.115677275
000280 11 dc 53 be 47 1e b9 3d 26 65 a1 bd 16 ae c2 3d
       -0.20689417 0.09038978 -0.07880621 0.095058605
000290 21 e5 fe 3b 90 04 02 bd 27 63 26 3e f1 f1 bb bc
       0.007778779 -0.031742632 0.16248761 -0.022942515
0002a0 61 d2 7f bd f8 52 1f 3e a2 6f 11 bd 67 88 2c 3d
       -0.062456492 0.15558994 -0.035506852 0.04212227
0002b0 4e b5 24 bd a3 dc 91 bd 8d 29 8d bd dd 44 26 be
       -0.040211968 -0.07122161 -0.06892691 -0.16237207
0002c0 13 0f b5 3d 40 e7 db bd d2 2e b2 3d 0c e6 30 3d
       0.08840766 -0.10737467 0.087003365 0.04318814
0002d0 b8 89 29 3d c6 9c c9 3d be 74 94 3d 59 e1 9d 3c
       0.041391104 0.09844355 0.07248829 0.019272493
0002e0 2a 3b a1 bc 95 d6 e6 3d 92 03 ff 3d c1 30 ac bd
       -0.019681532 0.11271397 0.12451853 -0.084077366
0002f0 a8 ca 8a bc 7d 35 35 bc 60 04 9d 3d df d9 27 be
       -0.016942337 -0.011060116 0.0766685 -0.16391705
000300 1f b3 88 3d b5 af eb bd 64 82 40 3e d5 83 6c 3d
       0.0667479 -0.11508123 0.1879974 0.057742912
000310 ca be 93 3d d8 2a 3f bd 2b 00 f1 bd 20 a7 6b 3d
       0.072141245 -0.04667172 -0.1176761 0.05753243
000320 9f 0a d9 3d 77 d0 cf bd da 0c 61 3b 2b 89 d0 3d
       0.10597729 -0.101471834 0.0034339936 0.10182413
000330 4d ad 12 be 39 49 ea bd e2 45 9e 3d 85 f5 62 bc
       -0.14323922 -0.11439747 0.07728173 -0.013852482
000340 0d 1a 8c 3d fe 24 85 bd 70 bf 32 bc 6a af c2 bc
       0.06840906 -0.06501196 -0.0109099 -0.023765285
000350 7e 48 25 3c 2a 5c ad bd 5a 24 00 bd 77 13 07 bd
       0.010088084 -0.084648445 -0.031284668 -0.032977547
000360 4f 90 81 bd 90 92 94 3d a7 92 b1 bd ff af d5 3c
       -0.06326353 0.07254517 -0.0867055 0.026084898
000370 c3 34 f0 3d c3 ba a8 3d bf 97 ec bc dc 0d f5 3b
       0.117288135 0.08238747 -0.028880952 0.007478459
000380 83 e2 6d 3d 91 39 f9 bd 42 7d 02 bd a3 5a 62 be
       0.058077347 -0.12169183 -0.031857736 -0.22104888
000390 58 11 a9 3d 19 ff 82 bb c0 45 7c bd 7d e4 57 be
       0.08255261 -0.003997695 -0.061589956 -0.21083255
0003a0 38 d7 92 bb a0 fc 89 bc aa fb 7b 3c b4 ff b3 ba
       -0.0044812225 -0.016844094 0.015379826 -0.0013732822
0003b0 f9 e8 ae 3d 27 c0 bb bd 01 89 db bd 21 d8 04 be
       0.0854053 -0.091675095 -0.10719491 -0.12973072
0003c0 9a 20 aa 3d 9a 89 16 3c 41 fe 24 3d 5d 32 1a 3e
       0.083069995 0.00918808 0.040281538 0.15058275
0003d0 41 1c 40 bd eb 0e 6d 3d 9f a0 b5 bc ff 1f da 3d
       -0.046901945 0.057875555 -0.022171317 0.10650634
0003e0 4e d2 11 bd f1 83 70 3d 6d 39 b8 bd 42 0a 7e bc
       -0.035600953 0.05871958 -0.08995328 -0.015505375
0003f0 3d ab c2 bd 6c 6f d6 3d 00 ba 56 bd 45 f3 da bc
       -0.09505317 0.10470471 -0.052423477 -0.026727328

transformer.layers.0.attention.wQ.bias f4 [64]
000000 3a 2d ae bd 84 49 08 be 7c 48 0f be 7f d8 35 bd
       -0.0850472 -0.13309294 -0.13992494 -0.04439592
000010 1f 51 17 3e b7 85 13 be 15 15 a8 3c df 8d 0c 3e
       0.14777039 -0.14406477 0.020517865 0.13725995
000020 8a 29 fa 3b 89 a6 4d 3d 31 12 fc bd 74 ce b4 3d
       0.0076343464 0.05020765 -0.12308157 0.0882844
000030 a7 79 b6 3a 66 9c ac 3d 39 b7 26 be b5 1d a1 3c
       0.0013921753 0.08428268 -0.16280831 0.019667486
000040 9b 03 a0 bd 40 c1 c1 3d e3 a1 04 bd 37 1c 04 3e
       -0.07813188 0.09460688 -0.03238095 0.12901388
000050 a5 c7 35 be 0f 2e 03 3d 0c 3d 63 bd 44 8c f2 3d
       -0.1775194 0.032026347 -0.05547814 0.1184316
000060 7a d7 88 3d fb 2c 2b be 11 13 9b bd 31 fa f1 bc
       0.06681724 -0.16716377 -0.07571996 -0.029538246
000070 32 b3 96 bc 45 20 96 bc 93 40 a2 3c 67 3a ce bc
       -0.018395994 -0.018325934 0.019806182 -0.025174333
000080 47 1b ca 3d 6a c6 8f 3a 24 e0 7d bd 7b f7 e4 3d
       0.09868484 0.0010969166 -0.061981335 0.11180016
000090 f3 37 e8 3b 32 fd b0 bd 1e d5 38 3d f4 01 d4 bd
       0.007086748 -0.08642043 0.04512512 -0.10351935
0000a0 0a 51 c5 bc 52 74 ff 3d d0 bc fd bc 65 85 0b be
       -0.024086494 0.12473358 -0.030973822 -0.13625105
0000b0 87 37 c0 bb f4 8e da 3d 99 7f 45 bd ee e8 a3 b9
       -0.0058659944 0.106717974 -0.04821739 -0.0003126333
0000c0 b0 c7 5a bd c8 c5 64 bd b2 b6 30 3e f1 aa e9 bc
       -0.053413093 -0.05585268 0.17257193 -0.028523894
0000d0 8c 72 05 3e d5 cc df 3d e0 d1 3a bd f2 04 9d 3d
       0.13031977 0.109277405 -0.04561031 0.07666959
0000e0 ac 4c ac bd e9 24 a6 bd e1 05 07 be d9 19 ba bd
       -0.084130615 -0.08112509 -0.13185836 -0.09086961
0000f0 4f e1 e8 3d f8 38 d5 3c d6 4b bb 3d 99 ba eb 3b
       0.11371099 0.026028141 0.09145324 0.007193875

transformer.layers.0.attention.wK.weight f4 [64, 64]
000000 85 c1 58 bd c0 41 16 be ae 38 bb 3d 2b ac 66 3d
       -0.05291893 -0.14673519 0.0914167 0.056316536
000010 31 9c 21 be c9 39 2b 3e 3f 5c b9 3d 71 60 d0 3d
       -0.15782239 0.16721262 0.09050798 0.10174645
000020 56 c2 48 39 db fc f6 bd 92 7b e9 3d f0 c1 f9 3b
       0.00019145882 -0.12059947 0.11400522 0.007621996
000030 3b 54 14 3e ec 2e be 3d ea 9a 9c 3a 8a 02 2a bd
       0.14485256 0.092862934 0.0011948023 -0.041506328
000040 0f 89 97 bc 2c 39 bf 3c c9 0a 85 bd 34 e7 af 3d
       -0.018497972 0.023342691 -0.06496198 0.0858902
000050 07 a6 02 3d 20 31 61 3e ad 35 9f bc 8c 80 d5 bb
       0.031896617 0.21991396 -0.019434774 -0.006515568
000060 79 65 e2 bd a1 53 df bd 79 4f 5a be db fd aa 3d
       -0.110545106 -0.10904623 -0.21319379 0.083492
000070 fe 6d ad 3d 04 d0 97 bd bb fc 1e 3e a0 19 95 3c
       0.08468245 -0.07412723 0.15526097 0.018200696
000080 35 d7 f6 3c 59 af be bd b9 5a eb 3d b9 79 bf 3d
       0.030131916 -0.09310789 0.11491913 0.09349389
000090 c5 89 c3 bd a0 b7 40 bd e5 89 06 be b0 5a 10 3e
       -0.09547762 -0.04705012 -0.1313854 0.14097095
0000a0 50 96 56 3b 82 cb 39 bd 65 c6 0a 3d fc 30 00 3d
       0.0032743402 -0.045360096 0.03388061 0.031296715
0000b0 87 ef 23 be 93 f5 dc bd de 3d 2d bd a5 ed c0 3b
       -0.16009341 -0.10789027 -0.04229533 0.0058877044
0000c0 a0 91 bd bd 4b 76 af 3d 21 5d fa bd 6f 72 83 3d
       -0.092562914 0.085674845 -0.12224794 0.06418311
0000d0 7d e1 cd 3d 14 0b 45 bd cc bd f2 3d 53 3c 5f 39
       0.10052774 -0.048106268 0.11852607 0.0002128941
0000e0 76 c9 fc bd f2 d4 7e bd 72 64 24 bd 7d 52 28 bd
       -0.12343113 -0.0622148 -0.040134855 -0.041094292
0000f0 27 d6 a3 3c 0c 58 a8 bd 0d 64 75 3c 7e f8 5d 3d
       0.019999577 -0.082199186 0.014977467 0.05419206
000100 0c e4 49 3c 33 13 9e 3d 01 71 e3 bd fa 14 64 3e
       0.012322437 0.07718506 -0.11105538 0.22273627
000110 c2 cc eb bd 45 63 43 3e df 10 9e bc 81 fb 88 bd
       -0.11513664 0.19080837 -0.019295154 -0.066885956
000120 f7 9c 0b be e1 e0 94 3c 49 f5 ca bd 58 9f cd 3d
       -0.13634096 0.018173637 -0.09910066 0.10040158
000130 a4 7c ee bd 36 49 d5 3c a4 07 d2 3b c3 64 07 3d
       -0.11644867 0.026035886 0.0064096022 0.03305508
000140 f8 1e 14 bd 34 de 84 bd f4 11 9a bd 20 2f 1e 3d
       -0.036162347 -0.064876944 -0.075229555 0.03861916
000150 53 c3 dd 3b b4 d3 d9 ba 67 78 3a 3d 71 a2 d8 bc
       0.006767669 -0.0016618879 0.04552498 -0.026444646
000160 50 7a f3 bd 3c ed 71 bd 1e b3 07 bd f8 cb 04 b9
       -0.11888564 -0.059064135 -0.033129804 -0.00012664485
000170 ff 98 15 3e cb 09 29 bd b8 9b a2 bd 3b ae 22 3e
       0.14609145 -0.041269105 -0.07939857 0.15886776
000180 ba 4f 35 3c ef c9 f7 bd ab dd 62 bd 60 13 54 3c
       0.011066372 -0.12099063 -0.05538718 0.0129440725
000190 45 7e 20 bc 30 58 96 bd 79 39 95 bd 10 96 3c 3e
       -0.00979573 -0.07341039 -0.07286353 0.1841662
0001a0 18 5e 5b 3d 53 e7 bb 3d da 30 5c 3d cd d8 44 bd
       0.05355653 0.09174981 0.053757526 -0.04805832
0001b0 6c 6e 11 3e 71 4c 2b 3d 19 45 9e bd b6 54 37 bd
       0.14202279 0.041820947 -0.07728023 -0.04475852
0001c0 15 f7 af 3c 2c d5 02 bc 8e 0d 3d 3e ad cb 56 be
       0.021480123 -0.007985394 0.18462202 -0.20976134
0001d0 6e 53 d7 39 b9 65 d6 bd a1 0f 94 3c fb db 56 3c
       0.00041070156 -0.10468621 0.018073859 0.013113971
0001e0 5d f2 cb bc da be ee 3c b4 4d 8f 3c c7 49 8a 3d
       -0.024895841 0.02914374 0.017493106 0.06752353
0001f0 6e 52 3f bd bd 31 35 bd b4 9b c7 bc db 99 93 3c
       -0.04670947 -0.044236887 -0.024366237 0.0180177
000200 10 da 2a bd 5f b1 b6 3d 64 88 04 bc 6c 25 90 3d
       -0.041711867 0.089205496 -0.008089159 0.07038388
000210 cf e8 8c 3d 0a 02 0f be f2 41 ae ba ca 4e a4 bd
       0.06880342 -0.13965622 -0.00132948 -0.0802284
000220 db 8f 6d 3c 9d 26 6f bc 0d 4f cb bc 24 a0 d9 bc
       0.01449963 -0.0145966085 -0.024817968 -0.026565619
000230 37 8b d4 3c 2f bf 74 3d ae 36 a8 3c bf 12 15 3c
       0.025945289 0.05975264 0.020533886 0.009098708
000240 bf 0a 1b 3c 7b 5a 25 bd a6 86 98 3d 30 6d 30 3d
       0.009463011 -0.040369492 0.07447557 0.04307288
000250 a2 cd 25 bb 44 c4 1a 3e c2 bf 1c be 94 92 08 be
       -0.0025299569 0.15113932 -0.15307525 -0.13337165
000260 6a d5 ae bd 3b 2c 93 3d dd dd 55 bd 75 58 29 3d
       -0.08536799 0.07186171 -0.05221354 0.041344125
000270 e2 af e9 3c 28 fc d5 3a 95 9a ff 3b 50 37 c2 3d
       0.02852625 0.0016325759 0.00780041 0.09483206
000280 af 66 02 3d 32 15 f6 bd 64 8c 22 3e ec 13 60 bc
       0.031836208 -0.120157614 0.15873867 -0.013676625
000290 8f 07 62 be ca 32 a7 bd c0 d3 89 3d 30 4b ab bd
       -0.22073196 -0.08163984 0.06729841 -0.0836395
0002a0 5d c8 11 bd 74 c4 f5 bd 26 3a 72 3d 75 db b0 bd
       -0.035591472 -0.12000361 0.059137486 -0.08635608
0002b0 05 32 62 3d 01 c7 6f 3d db a5 95 bd 0c 82 aa bc
       0.055223484 0.058539394 -0.07307025 -0.020813964
0002c0 a2 ec e6 3d 3c 80 d4 3d 7b 96 31 3e 99 73 90 bc
       0.11275603 0.10376021 0.1734256 -0.017633246
0002d0 76 8c a7 3d b6 05 f5 bb 49 d0 1a 3e 13 21 13 be
       0.08181088 -0.0074774874 0.15118517 -0.14368086
0002e0 2e e4 cc 3c 23 2d ec ba 67 f2 d1 bd 26 96 6e bd
       0.025011148 -0.0018018823 -0.10251313 -0.05824866
0002f0 1d 34 f0 3c af 42 68 bd 56 09 e1 3d 5f fb 4d 3b
       0.029321725 -0.05670422 0.10988109 0.0031430346
000300 3d f5 f8 bc 0e 6b 48 be ad 5d 2a bd 57 b0 f2 bd
       -0.030390376 -0.19572088 -0.041593242 -0.118500404
000310 1e cf f9 bd bd 06 0e 3e a7 52 67 bd 2b 78 05 bd
       -0.121977076 0.13869758 -0.056475308 -0.032585304
000320 82 3f 78 bd 1b 2c c0 bc 55 a8 bb bb 01 fe c6 3d
       -0.06060744 -0.023458531 -0.005726854 0.09716416
000330 9c d7 28 3c 4e 88 74 bc 18 ed 04 3e 02 12 da bc
       0.0103053115 -0.014925076 0.12981069 -0.026619915
000340 42 31 f5 3d 5f f7 93 bd a5 bf c4 bd 6d 27 24 be
       0.11972286 -0.07224917 -0.09606866 -0.16030665
000350 f6 89 eb 3d 9c f3 77 bc 71 a6 24 3e b8 be ad bd
       0.11500923 -0.015133765 0.16079117 -0.08483642
000360 3b ea 0b bd cb 23 8f 3d 69 57 4c bd 67 22 5e 3d
       -0.034158926 0.06989249 -0.04988805 0.054232027
000370 8b e6 2a bd 1d ea 38 3c 71 4d 49 3e 1c f8 a5 3d
       -0.04172377 0.011286286 0.19658448 0.08103964
000380 d0 71 20 3c c5 95 d7 3d a0 a8 76 3d 66 85 0c 3e
       0.00979276 0.10526613 0.060219407 0.13722762
000390 80 66 5f 3d e1 d1 e5 bb 7d 4b 61 3b 63 61 67 bc
       0.05454111 -0.007013545 0.003437727 -0.01412234
0003a0 ff d1 e9 bc ff 57 ed bc 65 61 01 3e 51 57 e8 bc
       -0.028542517 -0.028972624 0.1263481 -0.028361948
0003b0 21 12 9b 3b 5b a3 e1 3c 22 18 b3 3c 79 75 20 bd
       0.0047323857 0.027543714 0.021862093 -0.03917453
0003c0 e1 70 e4 bc 67 d2 fa 3d 02 d9 b7 3c 6a ce eb bd
       -0.027885856 0.12247162 0.022442345 -0.1151398
0003d0 6e 50 83 3d 1f 21 94 3d 6c 18 dd 3d 34 70 b5 bd
       0.06411825 0.0723288 0.10795674 -0.08859292
0003e0 57 2f c6 3c 5c 0f ff bd ce ee ac 3c 04 5d b7 3d
       0.024192495 -0.124541014 0.021109965 0.08953288
0003f0 f8 ac 7b bc 65 55 bf 3c 02 b6 a5 3d 50 4d 7d 3d
       -0.015361063 0.023356149 0.08091356 0.06184131

transformer.layers.0.attention.wK.bias f4 [64]
000000 63 d4 b4 bc 29 e6 16 bd 1e da 5b bd cc 9e 18 3d
       -0.02207393 -0.03684059 -0.05367481 0.037260816
000010 9f 80 45 3d 06 33 c1 bd 6b df f3 3d 3b 02 ae bd
       0.048218366 -0.0943356 0.11907848 -0.08496519
000020 bf 4a 6d 3b 03 05 4b bd df 08 ea bd 93 96 c8 3d
       0.0036207882 -0.049565326 -0.11427473 0.09794345
000030 c3 af a0 3d 8b 97 59 3d 23 b1 ea bd 3a 15 26 3d
       0.07846024 0.05312304 -0.114595674 0.040547587
000040 75 90 fd bd bc 8f a7 bd 53 84 ff bd d9 28 24 3d
       -0.123810686 -0.08181712 -0.12476411 0.040078018
000050 07 2c d4 bd da 6e b5 bc 1b e6 a3 bd a3 cf 50 bd
       -0.1035996 -0.022147585 -0.080028735 -0.050979268
000060 38 31 e8 3c 33 6b 61 3d b1 b9 fd 3c 03 c4 e3 3d
       0.028343782 0.055033874 0.030972334 0.11121371
000070 76 4e b9 3d 3d 32 6c 3d 29 a6 17 bc 00 4e f2 3d
       0.09048168 0.0576651 -0.009255924 0.118312836
000080 41 60 0a 3c be 69 85 3d 4c eb ef bd 55 9c b9 3d
       0.0084458 0.06514309 -0.11714801 0.09063021
000090 c3 7f b0 bd be 70 ae bc c7 c1 7f bd 5f 6c b8 3d
       -0.086181186 -0.021293994 -0.06244066 0.09005045
0000a0 4c 1d 1e bc 6c 09 6c 3d 96 87 10 3d b9 fd 4a 3d
       -0.00965054 0.057626173 0.035285555 0.049558375
0000b0 38 fd 7b bd be 5f c4 bc bf e8 e9 bc d8 7c a6 bd
       -0.061520785 -0.023971435 -0.028553365 -0.08129281
0000c0 a5 34 d5 bd 00 76 bc 3c 57 ce f1 bd fd 4d 19 bd
       -0.10410432 0.023005486 -0.11806934 -0.03742789
0000d0 bb 19 6d 3d db aa fc bd a0 64 a4 3d 57 7f 01 3d
       0.057885867 -0.123372756 0.08027005 0.03161558
0000e0 41 9b da 3d 70 18 04 3d ae 2f 1d bd 04 41 0a 3d
       0.106741436 0.032249868 -0.03837555 0.03375341
0000f0 89 3d 98 3d d2 d7 a3 3c b6 00 ad bd ce 1a 9f bd
       0.07433612 0.020000372 -0.08447401 -0.077687845

transformer.layers.0.attention.wO.weight f4 [64, 64]
000000 04 db 55 3d 64 67 07 bd 1b 1d a5 3d d6 7a f1 bc
       0.052210823 -0.033057585 0.08062192 -0.029477518
000010 40 7d a8 3b 40 12 85 bd 07 c7 41 3c 40 2c 06 3e
       0.005141884 -0.064976215 0.011827237 0.13102818
000020 7e c0 af 3d 26 2a b1 3c 0b e9 98 3b 8b 85 af bd
       0.08581637 0.021626543 0.0046664528 -0.08570393
000030 a9 fd 0f 3d 3f 36 52 3d 0c cf ba 3c 03 b3 94 3d
       0.03515402 0.051321264 0.022803806 0.07260706
000040 10 fd 37 3d 1b fa 89 bd e5 f4 87 3d 49 39 a1 3c
       0.044919074 -0.06737157 0.06638507 0.019680636
000050 fd 24 e2 3d f9 86 eb b9 7b bf 45 bd 8d e3 62 3d
       0.11042211 -0.00044923255 -0.048278313 0.05539279
000060 76 51 51 3e 53 89 9b 3d 21 5d 13 3d f9 e3 c4 bd
       0.20441231 0.07594552 0.035977487 -0.09613795
000070 91 a0 07 3e 9b 25 06 3d a3 b6 71 bd d7 03 33 3e
       0.13244845 0.032750707 -0.059012067 0.17481934
000080 0a 21 82 3d a3 d5 6b be aa ff d5 bc dd 6e 70 3d
       0.06353958 -0.23030715 -0.026122887 0.058699477
000090 d8 92 1f bd 4e 91 0a bd ed ce 29 3e e5 16 93 bd
       -0.0389584 -0.03382998 0.16582842 -0.07182101
0000a0 98 c4 8b bd 00 6e 82 3d 79 69 ac bd ad 08 ec 3d
       -0.06824607 0.06368637 -0.08418555 0.11525092
0000b0 48 80 08 be 42 fe f4 3d 16 23 56 bb c3 56 15 bd
       -0.13330185 0.11962558 -0.0032674721 -0.036459696
0000c0 f2 cd cc bd 8a d0 ac bd cb e8 30 bc a2 df d1 3d
       -0.100002185 -0.08438213 -0.01079769 0.10247733
0000d0 b3 56 3e bc ed 80 05 3d 74 c3 87 3d db 58 21 3e
       -0.01161735 0.032593656 0.066290766 0.15756552
0000e0 df 5a 3c 3d 33 1c 05 3e 73 ca 09 3e 1b c5 05 3e
       0.0459851 0.12999038 0.13456134 0.13063471
0000f0 90 9a 65 bd b1 4d 0b be a1 26 f3 3c 59 b3 0c be
       -0.056055605 -0.13603856 0.029681506 -0.1374029
000100 17 d6 ab bd 46 c5 6e 3e 2c 84 47 bd 7a cb d2 3d
       -0.08390444 0.23317441 -0.048710033 0.10292716
000110 45 3b c0 bd d8 08 10 bd ad d2 fe bd 0c a5 55 be
       -0.09386305 -0.035164684 -0.12442527 -0.20863742
000120 2b 23 07 be 0b c4 3c 3e 32 51 25 3d 88 07 9a 3d
       -0.1319701 0.1843416 0.040360637 0.07520968
000130 1d 21 22 3d 95 58 fa bd 44 5e fc bc 71 01 01 bd
       0.03958236 -0.12223927 -0.030806668 -0.031495515
000140 6f 63 89 3d 0b ad 65 3d 27 aa bb 3b 22 74 2a be
       0.067084186 0.05607323 0.005727071 -0.16645864
000150 4f 2d 14 3d e7 34 d7 3d 26 ca 9a bc 4e d0 1b bd
       0.036176022 0.10508137 -0.01889522 -0.03804045
000160 82 0b 49 be f1 f7 c8 bc be 97 dc 3d 73 2c e4 3d
       -0.19633296 -0.02453229 0.1077113 0.111412905
000170 ce 70 7c bb b5 bc 1a bd d0 3f fd 3d 9c 80 c7 bd
       -0.0038519385 -0.03777762 0.12365687 -0.09741327
000180 b0 81 e7 3d 55 dc c1 3d 36 bd 00 be 14 40 25 3e
       0.11304033 0.09465853 -0.12572178 0.16137725
000190 c3 97 e6 3c ce 32 81 bb 51 08 c3 bd 59 e3 08 be
       0.028148538 -0.003942824 -0.095230706 -0.13367976
0001a0 4f 0e 57 3d 28 ef 1a be b9 83 e3 3c ac f1 30 3e
       0.05250388 -0.15130293 0.027772771 0.1727969
0001b0 99 23 b1 bd ca 93 15 be c6 f5 b0 3d e0 71 3a bd
       -0.08649368 -0.14607158 0.086406276 -0.045518756
0001c0 20 75 74 bd b0 14 08 bc b0 e5 fd 3d 14 e5 bb bc
       -0.05968201 -0.008305714 0.12397325 -0.022936381
0001d0 cf 46 d9 bc 53 66 ed 3c 20 73 bc 3c 98 02 90 3d
       -0.026523022 0.028979456 0.023004115 0.07031745
0001e0 93 e6 ca bc 1b fe 77 bd 78 37 b7 bd cf 85 14 3e
       -0.02476815 -0.06054507 -0.08946127 0.14504169
0001f0 25 fe 35 3e 60 73 5d bd 59 12 10 be 1e 53 9b bd
       0.1777273 -0.05406511 -0.14069499 -0.07584213
000200 f9 82 5b 3d d9 66 05 be 27 b2 ce 3d 55 aa 19 3e
       0.053591702 -0.13027515 0.100925736 0.15006383
000210 6f d3 79 3c a9 4d 82 3d 62 14 a9 bb 4c f9 2e 3d
       0.015248164 0.06362469 -0.0051599005 0.042718217
000220 09 45 95 3c df aa a8 bc 88 e6 28 3b 46 a4 ad 3c
       0.018221395 -0.02058929 0.0025772173 0.021196496
000230 46 99 12 bd 65 89 86 3d cd c6 79 bd 6a fd 12 3e
       -0.035790704 0.06569175 -0.060980607 0.14354482
000240 0b dc 4b bd 7d 89 c6 bd bf 5f 70 bc 2c 0c 01 bd
       -0.049770396 -0.096941926 -0.014671265 -0.03150575
000250 72 cd f1 bd ba 15 6d 3c 4e ca ce bc 1a 15 e7 bc
       -0.11806764 0.014470512 -0.02524295 -0.028208304
000260 8c a8 62 be 7a 7c 1b be 0f a4 6f 3d db 2f 94 bd
       -0.22134608 -0.15184203 0.058506068 -0.0723569
000270 d4 96 05 3e d5 30 19 be bc e8 2e be 9c 53 a0 bc
       0.13045818 -0.14960034 -0.17080969 -0.019571118
000280 bd 0d 89 3d a3 39 bf bc db 6f 0f 3c a7 43 f0 3d
       0.066920735 -0.023342913 0.008754696 0.11731654
000290 22 b5 cc bd 06 15 1a be 41 30 60 bc d4 33 db 3c
       -0.09995486 -0.15047082 -0.01368338 0.026758112
0002a0 30 5e c7 bd 79 31 30 3e 77 8d ca bd 2d 73 49 3e
       -0.09734762 0.17206372 -0.098902635 0.19672842
0002b0 0f 96 11 be e8 8f 27 bc 1b 99 8f 3d 88 9f 06 3e
       -0.14217399 -0.010227181 0.070116244 0.13146794
0002c0 44 2b 6a 3d d2 17 2c 3d c1 79 20 be 41 99 da 3c
       0.057170168 0.042014904 -0.15671445 0.026684405
0002d0 07 5d 93 bd 29 bc bf bd 50 a1 84 3d d2 03 c3 3d
       -0.07195478 -0.093620606 0.064760804 0.09522213
0002e0 8c ba cb bd a7 86 b5 bc 5c cf 37 3d 8d cd 25 bd
       -0.0994769 -0.022158934 0.044875488 -0.04047923
0002f0 d8 1e c6 3c 95 b2 8e bd 99 d2 e0 bd 10 25 dc 3c
       0.02418463 -0.069676556 -0.10977668 0.026873142
000300 9f c5 d0 3d c4 55 0f 3e 48 e3 4c bc 1f 5a db bd
       0.10193943 0.1399756 -0.01250536 -0.107105486
000310 05 01 04 3d af 55 0b 3e 91 59 10 3d a2 d0 71 3d
       0.032227535 0.13606904 0.035241667 0.05903686
000320 0e 13 45 bd d8 e4 5d bd 2d 96 1e 3e 07 31 99 bd
       -0.048113875 -0.05417332 0.15486975 -0.07480054
000330 55 5e 44 3d 68 ae 8d bc 5b 34 f1 bc ba 16 31 bc
       0.047941525 -0.017295077 -0.02944391 -0.010808641
000340 d3 af 2f 3d 06 7b b0 bc d9 82 0c 3e ee 47 4a bd
       0.04289229 -0.021543037 0.1372179 -0.049385004
000350 c6 cc da bc 7e 9b b4 3c ee b9 e7 bd 91 59 e1 3d
       -0.026708972 0.0220468 -0.1131476 0.110034116
000360 13 92 de 3c 82 95 e0 3d 3b 37 3e bd 79 41 6b 3d
       0.027169263 0.10966016 -0.04643939 0.057435486
000370 fd fe be 3d 71 ac bd bc 44 ba 9e 3d ba fa f2 bd
       0.09325979 -0.023153516 0.07750371 -0.118642285
000380 cf 3f fb 3a 1f c9 cb bd 5a 7e 22 3e 03 2f 0e 3d
       0.0019168797 -0.0995047 0.15868512 0.034712803
000390 d0 6b 55 bd 88 6c e3 bd 8f 44 55 bc 80 3c b7 3c
       -0.05210477 -0.11104685 -0.013016834 0.022367716
0003a0 bf a3 72 3d 32 21 61 3e 75 a7 51 3d e2 71 54 3d
       0.05923819 0.2198532 0.05118509 0.05186642
0003b0 5e 1c ec 3c 10 ea 15 bd af 73 e4 bd 15 47 f4 bd
       0.02882212 -0.036600173 -0.111548774 -0.1192762
0003c0 72 4f f8 bd b9 a1 a9 bc 38 40 28 bd 2d 10 8b 3d
       -0.12124528 -0.020706998 -0.04107687 0.06790195
0003d0 6a c3 62 bb 7b 79 a9 3d 4b 1f 29 be 90 fa 28 3c
       -0.003460134 0.08275124 -0.16515844 0.010313645
0003e0 ca e3 20 3d 29 79 ae bd e8 4d 98 3d a6 ce 0e 3e
       0.039279737 -0.08519203 0.074367344 0.13946018
0003f0 d6 2d 5b 3d 23 56 98 3d cd ee 68 bd 5e 6a 0e 3e
       0.05351051 0.07438304 -0.056868363 0.13907763
