multi_digit_transformer.pth (torch, 100479 bytes, 77 tensors)

pos_embed f4 [1, 64, 16]
-0.63180447 1.6348639 -0.24808528 -0.075943865 1.5727911 -1.9812306 0.80560327 0.7847366
0.51254034 -1.3157191 -0.81299245 -0.0328205 0.52655756 0.022687593 0.66190153 0.55067766
1.5577163 -1.3117375 1.1882933 0.43480664 0.6299288 -1.2658107 0.49637696 0.0060299314
1.5881827 1.2346529 -0.18855678 -1.2003438e-05 0.9253463 1.2806634 -0.008920753 1.143008
1.1304169 -1.896399 -1.5633311 0.81994694 0.37867013 0.7747008 -0.19016148 0.737516
0.62754536 -0.12710716 -0.10793574 0.25245255 -0.5154445 0.53996575 -0.37751114 1.1758847
0.2169257 0.8625394 0.7569061 1.3368737 0.063656375 -1.1167463 1.1840886 1.3747989
-1.2463785 0.23915203 0.34744158 -0.72425026 1.1651888 -0.087251484 1.1400367 0.8392618
-0.8046521 -1.0621293 1.1664996 0.852765 -0.06980315 -0.28647342 2.4561586 -1.1680804
-1.7265582 1.140373 0.25995702 0.51919013 -1.7663753 0.22277223 0.044249218 0.7794409
-0.63874686 -1.2489895 -0.004830543 1.1022638 -0.4879221 0.13887529 1.2860717 -0.26834708
0.80946565 0.61001617 0.046050403 -0.71199083 -1.8028076 -0.26757497 0.09650116 -0.4717125
0.15343402 -1.7393906 0.5187665 0.89298165 0.43040863 -0.65945166 0.010546189 0.27622038
-0.9524451 -0.6149913 -1.0885255 0.21227156 2.0610113 0.28161597 -1.2500663 -0.2813924
-1.7641876 -0.08306035 -1.1817126 0.33428985 -0.034592763 0.52105266 1.3863615 1.0260313
0.6532053 1.3037292 0.042165205 0.15172908 0.38720036 0.1618875 -0.99824905 0.13472454
-1.0227398 -0.40089145 0.64424634 -0.33589962 0.60918576 0.19443178 -1.496371 -0.064605355
0.5876334 -2.8054197 0.17761101 -0.16028008 -0.26662272 0.67598456 -0.43865156 0.050207183
0.3285269 0.62877417 0.9561489 -0.9422734 1.2950318 0.56317586 -0.5243295 0.41443825
1.2534966 0.09846826 -1.0162886 -0.80845976 -1.625108 -0.23819207 1.16011 1.7985802
-1.3351817 0.61666393 -1.3738488 -1.3219006 0.76176864 1.6743612 0.6285798 -0.2114906
0.22554027 -0.71946055 2.7316375 -0.44708663 1.1785948 1.6403635 0.39242873 1.7025826
0.20135993 0.15969056 0.10860274 0.031743467 -0.910455 -0.68192697 1.3431624 0.14913529
-1.2920341 -2.1558492 -0.69541866 1.264995 0.7929317 0.14521027 -0.53254896 0.9944686
0.31641266 0.8384321 0.45556137 -0.47785795 -0.8126426 -1.8155559 0.21886086 0.09572011
0.67983073 1.5703444 1.1511356 -0.28905132 0.57101005 0.55885124 -1.3125638 0.2666025
-1.9224868 1.3739341 0.101470396 -0.7460605 -0.9836845 -0.06522457 0.9542894 -0.7233312
0.07841613 1.2976534 -1.622294 -1.2486871 -0.7740344 -1.6369675 0.9314306 0.5681551
-0.90885407 -0.8305192 -2.1703084 -1.3904455 -0.85983676 0.720062 -3.238312 0.18616903
-0.6020753 1.0221239 0.6335998 1.7321831 -0.39693645 0.6266647 0.75682884 -1.2380259
0.08525729 0.14954259 0.6110716 -0.6538911 -0.07735836 1.4320332 0.19007471 0.12594292
-0.5566429 -1.3248436 0.00535925 1.713983 -1.4063891 -0.86395925 -0.38245803 0.14359367
00000000: f0bd 21bf 3843 d13f 110a 7ebe 7588 9bbd
00000010: 3851 c93f f798 fdbf 043c 4e3f 7fe4 483f
00000020: d835 033f 7c69 a8bf 4620 50bf ca6e 06bd
00000030: 7acc 063f 55db b93c 6172 293f 36f9 0c3f
00000040: 3f63 c73f 04e7 a7bf ff19 983f fa9e de3e
00000050: 0443 213f 1606 a2bf 1f25 fe3e bb96 c53b
00000060: 9249 cb3f 1b09 9e3f 0715 41be 6062 49b7
00000070: 7fe3 6c3f c7ec a33f 5a28 12bc 164e 923f
00000080: 80b1 903f 34bd f2bf 3c1b c8bf 0be8 513f
00000090: 0de1 c13e cb52 463f b1b9 42be d9cd 3c3f
000000a0: d0a6 203f 6128 02be 6a0d ddbd 7641 813e
000000b0: 2cf4 03bf 323b 0a3f 2449 c1be 6483 963f
000000c0: c521 5e3e 62cf 5c3f 99c4 413f ad1e ab3f
000000d0: 465e 823d 8bf1 8ebf 3790 973f 69f9 af3f
000000e0: 5589 9fbf 45e4 743e dde3 b13e 7768 39bf
000000f0: e824 953f e8b0 b2bd b9ec 913f dcd9 563f
00000100: aefd 4dbf daf3 87bf dc4f 953f cf4e 5a3f
00000110: f4f4 8ebd a5ac 92be b431 1d40 a983 95bf
00000120: dcff dcbf bef7 913f 1619 853e a5e9 043f
00000130: 9618 e2bf 671e 643e ab3e 353d 7089 473f
00000140: ea84 23bf e3de 9fbf 8849 9ebb fb16 8d3f
00000150: edd0 f9be 5335 0e3e ff9d a43f ca64 89be
00000160: 2439 4f3f 052a 1c3f 599f 3c3d 0845 36bf
00000170: 66c2 e6bf 96ff 88be 66a2 c53d 4d84 f1be
00000180: cf1d 1d3e 5aa4 debf e2cd 043f 729a 643f
00000190: 855e dc3e d3d1 28bf ecc9 2c3c c26c 8d3e
000001a0: 71d3 73bf 1270 1dbf ce54 8bbf b75d 593e
000001b0: 9ce7 0340 f82f 903e 2c02 a0bf aa12 90be
000001c0: e6d0 e1bf 8b1b aabd 5c42 97bf 0a28 ab3e
000001d0: 24b1 0dbd b563 053f 4b74 b13f fe54 833f
000001e0: 7638 273f 99e0 a63f 6cb5 2c3d de5e 1b3e
000001f0: 203f c63e d6c5 253e 408d 7fbf 3bf5 093e
00000200: 23e9 82bf a541 cdbe 54ed 243f 09fb abbe
00000210: 99f3 1b3f 2019 473e 1689 bfbf d04f 84bd
00000220: 246f 163f ff8b 33c0 a9df 353e 7620 24be
00000230: c682 88be 530d 2d3f f096 e0be 0ca6 4d3d
00000240: ae34 a83e 58f7 203f 2dc6 743f d438 71bf
00000250: 9ac3 a53f 4b2c 103f 753a 06bf 4031 d43e
00000260: 9472 a03f baa9 c93d bf15 82bf 38f7 4ebf
00000270: 8a03 d0bf 9fe8 73be 7c7e 943f e037 e63f
00000280: 3ce7 aabf b0dd 1d3f 47da afbf 0a34 a9bf
00000290: 4503 433f 7851 d63f 9bea 203f fe90 58be
000002a0: 07f4 663e 912e 38bf 26d3 2e40 8ae8 e4be
000002b0: 32dc 963f 6ef7 d13f 6bec c83e 3aee d93f
000002c0: 4c31 4e3e ec85 233e 1d6b de3d 7005 023d
000002d0: 9413 69bf c492 2ebf bfec ab3f ecb6 183e
000002e0: 6061 a5bf 6ff9 09c0 f506 32bf 5beb a13f
000002f0: 92fd 4a3f 00b2 143e 2155 08bf 7f95 7e3f
00000300: d700 a23e 7ca3 563f 573f e93e cca9 f4be
00000310: 5809 50bf 2364 e8bf 101d 603e e808 c43d
00000320: 6309 2e3f 0c01 c93f 6958 933f 89fe 93be
00000330: b72d 123f e010 0f3f 1702 a8bf 1f80 883e
00000340: 0c14 f6bf 13dd af3f b6cf cf3d d2fd 3ebf
00000350: bfd2 7bbf 7694 85bd 4f4c 743f 3c2c 39bf
00000360: a398 a03d 8219 a63f 54a7 cfbf fbd4 9fbf
00000370: 1e27 46bf 2788 d1bf 3c72 6e3f 9d72 113f
00000380: a9aa 68bf e89c 54bf 55e6 0ac0 1efa b1bf
00000390: 431e 5cbf fc55 383f 8140 4fc0 18a3 3e3e
000003a0: 9b21 1abf f5d4 823f 9933 223f 2db8 dd3f
000003b0: 413b cbbe 196d 203f 89bf 413f a277 9ebf
000003c0: 609b ae3d b121 193e 306f 1c3f 6865 27bf
000003d0: 0f6e 9ebd dd4c b73f f2a2 423e 2ef7 003e
000003e0: 2680 0ebf 7a94 a9bf a69c af3b cc63 db3f
000003f0: 8f04 b4bf 6f2c 5dbf 8ad1 c3be 380a 133e

patch_compression.0.weight f4 [32, 49]
0.13747458 0.026197456 -0.17903174 -0.0411692 0.064125925 -0.018497657 -0.016232507 0.23563284
0.043428615 0.05689736 -0.053344164 -0.07074951 -0.082016274 -0.071727216 0.056513507 0.15945496
-0.106763765 0.13721241 -0.09755899 -0.25805792 -0.3178476 0.0731245 -0.14396502 -0.17207198
-0.1803714 -0.26413405 -0.18817402 -0.3837777 -0.13107257 -0.16376553 -0.15142782 0.012338658
0.053844243 0.0015429053 -0.25537825 0.18663469 0.04994885 0.047658905 -0.05547839 0.15604615
0.042528365 0.069631375 0.13649836 -0.042575076 0.05189742 0.19236572 0.102564596 0.06800529
-0.06007419 0.21922691 0.13734834 0.2023307 0.030378455 0.014522183 0.06636807 -0.34728232
-0.22582896 -0.13384005 -0.17362787 -0.22101967 -0.09899646 -0.15803364 -0.34929228 -0.31486616
-0.09877074 -0.26942074 0.06935188 -0.00054708956 0.18448313 0.16247325 0.017068725 -0.046066746
0.14657289 0.007815984 0.11141898 0.047895584 0.24579549 0.02728105 0.19645756 0.038385715
0.023417462 -0.053279344 -0.03990259 -0.022537172 0.15780686 0.050099943 -0.10859438 -0.07841637
-0.029155247 -0.10691209 -0.04097471 -0.11620181 0.006255856 0.058623414 -0.027952043 0.045167264
-0.030834712 0.036989983 -0.18653545 -0.017560147 0.06751682 0.035056517 0.12878036 0.20938247
-0.06445941 -0.1634121 -0.025093408 0.055382892 0.07362931 0.16004877 0.07966528 -0.06687333
0.1336588 -0.020264333 0.01131865 0.083858415 -0.09534254 0.07827921 -0.13024767 0.20019703
0.06619422 -0.020107565 -0.029521637 -0.13182674 -0.05341265 -0.2169295 0.26686025 0.21920262
0.08525349 -0.07072201 0.074463196 -0.039863955 -0.08789702 0.047925975 0.08328331 -0.058992647
0.041028045 0.01402816 -0.21207151 -0.13607591 0.0743128 -0.11737292 -0.1153404 -0.3151367
-0.044568386 -0.28854662 -0.18348102 0.1920455 0.14145644 0.12765126 0.06363812 0.033616118
0.06372995 -0.20233439 0.031552132 -0.11646681 0.11775247 -0.060067616 0.055266347 0.02238482
-0.07479499 0.10457997 -0.030193022 0.1515094 0.17505312 0.063153535 0.09985324 -0.14726098
-0.06447752 -0.10100265 0.00089213706 -0.07115323 0.005069382 0.11379819 0.00015861896 -0.1074754
-0.08515421 -0.15120694 -0.100571476 -0.09840029 0.08454499 -0.077495195 -0.03160294 -0.09432971
-0.0807457 0.11253342 -0.08868499 0.045076594 0.12570369 -0.039160214 -0.033366136 -0.2603615
-0.14865586 0.0024289442 0.09772556 0.2876223 0.046813723 -0.029752545 -0.0507825 -0.11163373
-0.015048175 -0.05250724 -0.107575014 0.13640414 0.09907064 0.16026771 0.12535772 0.15779628
0.14825673 0.12587869 0.20972803 0.038601667 0.041479006 0.06646485 0.16712466 -0.035676945
0.16227512 0.19210884 0.046683162 0.14243974 0.03594021 0.06837362 0.04731142 0.26602343
0.11059598 0.0025449598 0.09494019 0.09592205 0.20999518 -0.045510795 0.13550411 -0.21670128
-0.10255723 -0.043898515 -0.031670906 -0.12494837 -0.0825133 -0.09540488 -0.24672943 -0.20502059
-0.30051377 -0.22947145 -0.20507163 -0.12112911 -0.25249305 -0.29601684 -0.015011149 0.010565917
0.113002166 0.21290207 0.20383182 0.047093242 -0.1838205 -0.017955387 0.07984816 0.061455794
00000000: 23c6 0c3e 0c9c d63c 1954 37be 09a1 28bd
00000010: 7454 833d 6688 97bc 09fa 84bc bc49 713e
00000020: 34e2 313d 350d 693d 697f 5abd 1ee5 90bd
00000030: 26f8 a7bd b8e5 92bd b57a 673d 2948 233e
00000040: f6a6 dabd 6981 0c3e 02cd c7bd 2b20 84be
00000050: ecbc a2be 4cc2 953d 916b 13be a333 30be
00000060: 48b3 38be 943c 87be b1b0 40be 837e c4be
00000070: e337 06be 27b2 27be e50f 1bbe 1528 4a3c
00000080: c88b 5c3d 503b ca3a f0c0 82be 2a1d 3f3e
00000090: 2a97 4c3d fc35 433d 4f3d 63bd 90ca 1f3e
000000a0: 3932 2e3d e59a 8e3d 3ac6 0b3e 3463 2ebd
000000b0: 6492 543d 85fb 443e 630d d23d 5c46 8b3d
000000c0: 5b10 76bd 057d 603e 0ba5 0c3e c72f 4f3e
000000d0: 3ddc f83c 73ee 6d3c fceb 873d fdce b1be
000000e0: b53f 67be 5e0d 09be 81cb 31be fb52 62be
000000f0: a8be cabd 92d3 21be 70d6 b2be 2336 a1be
00000100: 5048 cabd 84f1 89be 5c08 8e3d 8f6a 0fba
00000110: 25e9 3c3e 635f 263e b6d3 8b3c 7cb0 3cbd
00000120: 3417 163e 9d0e 003c a22f e43d 292e 443d
00000130: d0b1 7b3e 827c df3c 2c2c 493e 573a 1d3d
00000140: fad5 bf3c 713b 5abd e670 23bd e09f b8bc
00000150: 1f98 213e 9935 4d3d bb66 debd c398 a0bd
00000160: fcd6 eebc baf4 dabd 19d5 27bd 37fb edbd
00000170: ecfd cc3b 1b1f 703d affb e4bc 4f01 393d
00000180: 1499 fcbc cf82 173d 2603 3fbe 4cda 8fbc
00000190: 4246 8a3d 6c97 0f3d 00df 033e 5c68 563e
000001a0: 4c03 84bd 8055 27be b190 cdbc 2cd9 623d
000001b0: f7ca 963d d3e3 233e 8d27 a33d e2f4 88bd
000001c0: dadd 083e 6301 a6bc dc71 393c f6bd ab3d
000001d0: f342 c3bd da50 a03d a55f 05be 7300 4d3e
000001e0: d690 873d 9fb8 a4bc 5cd7 f1bc 97fd 06be
000001f0: 39c7 5abd c422 5ebe e8a1 883e a776 603e
00000200: 6299 ae3d b4d6 90bd 2980 983d 6348 23bd
00000210: 5a03 b4bd 074e 443d 7190 aa3d 46a2 71bd
00000220: 060d 283d 5ed6 653c 4629 59be 7c57 0bbe
00000230: 4f31 983d 3761 f0bd 9637 ecbd 9959 a1be
00000240: 578d 36bd 62bc 93be 73e2 3bbe 93a7 443e
00000250: f5d9 103e 03b7 023e b454 823d 0eb1 093d
00000260: d984 823d bf30 4fbe cf3c 013d 2786 eebd
00000270: 3528 f13d 7609 76bd f75e 623d 5f60 b73c
00000280: 1e2e 99bd 062e d63d 5b57 f7bc 4825 1b3e
00000290: 2041 333e a456 813d db7f cc3d 95cb 16be
000002a0: ca0c 84bd 7ada cebd 4ede 693a c9b8 91bd
000002b0: 0f1d a63b 070f e93d f452 2639 101c dcbd
000002c0: 5565 aebd fed5 1abe 6bf8 cdbd 1786 c9bd
000002d0: ec25 ad3d cdb5 9ebd 1672 01bd ef2f c1bd
000002e0: 005e a5bd ec77 e63d 7aa0 b5bd 3ca2 383d
000002f0: 78b8 003e 7666 20bd eeaa 08bd 1a4e 85be
00000300: 3e39 18be ec2e 1f3b 5724 c83d 3b43 933e
00000310: bfbf 3f3d 9cbb f3bc 5001 50bd 3aa0 e4bd
00000320: 9f8c 76bc d511 57bd 4a50 dcbd 87ad 0b3e
00000330: 8ce5 ca3d 381d 243e c65d 003e 5995 213e
00000340: 9dd0 173e 58e6 003e f2c2 563e c81c 1e3d
00000350: e4e5 293d b91e 883d ba22 2b3e fd21 12bd
00000360: 732b 263e 2eb8 443e d836 3f3d b9db 113e
00000370: 0b36 133d 7807 8c3d 9fc9 413d 3934 883e
00000380: 2580 e23d 57c9 263b 0170 c23d c872 c43d
00000390: fa08 573e 8769 3abd 97c1 0a3e f1e6 5dbe
000003a0: 8609 d2bd eece 33bd 5ab9 01bd eee4 ffbd
000003b0: bcfc a8bd a263 c3bd a4a6 7cbe ebf0 51be
000003c0: f1dc 99be 90fa 6abe 4cfe 51be 8a12 f8bd
000003d0: c546 81be 858f 97be 53f1 75bc ab1c 2d3c
000003e0: ae6d e73d 0003 5a3e 4ab9 503e d8e4 403d
000003f0: 713b 3cbe 2d17 93bc 6f87 a33d 12b9 7b3d

patch_compression.0.bias f4 [32]
-0.057144098 0.12775351 0.009377017 0.09327171 0.02734025 -0.06328772 -0.035751503 -0.016919883
0.030617705 -0.13948782 0.052436218 0.004466038 -0.12992135 0.15873444 -0.025921304 0.12688643
-0.048505094 -0.10019461 -0.060880713 0.042764183 -0.005756233 0.03059166 -0.063911155 0.097020164
0.0067676483 0.01225922 0.041340012 0.0065149465 -0.06689018 0.10833138 -0.09940217 -0.017369075
00000000: ee0f 6abd d1d1 023e 0fa2 193c 3d05 bf3d
00000010: a9f8 df3c fe9c 81bd 2b70 12bd 919b 8abc
00000020: fbd1 fa3c e5d5 0ebe 5cc7 563d d857 923b
00000030: 1a0a 05be 488b 223e ea58 d4bc 84ee 013e
00000040: 47ad 46bd d532 cdbd 0e5e 79bd 7f29 2f3d
00000050: c89e bcbb 5c9b fa3c dae3 82bd 82b2 c63d
00000060: 26c3 dd3b e5da 483c 2554 293d 557b d53b
00000070: b8fd 88bd d8dc dd3d 5d93 cbbd 9749 8ebc

patch_compression.2.weight f4 [16, 32]
0.047321804 -0.06060013 0.1233959 -0.2836875 -0.12853332 0.26722702 0.031203214 -0.03462093
0.07038785 -0.1969952 0.28133222 -0.14405987 0.10015014 -0.055942923 -0.08771024 0.088719584
0.2132927 0.004943707 0.04161266 0.10756285 -0.087928474 -0.2249579 0.06899178 0.0010169507
0.16856737 0.023674352 0.070869945 0.13458197 -0.0025654463 0.1225169 0.23307964 0.07229154
-0.18557069 -0.004206222 -0.07939174 -0.02995181 0.28271818 -0.15216994 0.050510842 0.0443087
0.0022354743 -0.2616718 -0.12642892 0.14199965 0.01136712 -0.14546636 0.12638432 -0.11641191
-0.13158928 0.13647163 -0.08395135 -0.054396342 0.1671427 -0.08028956 0.094810255 0.02034261
-0.22224258 0.13871214 0.26310134 -0.10516186 0.10631685 0.21679446 -0.1721513 -0.09803134
0.10556437 -0.20299718 0.13193369 0.14306796 -0.2127899 0.16342069 -0.020398542 -0.2739059
0.2217163 0.27281418 0.049036063 -0.01225544 -0.10389366 0.0620725 -0.13395116 0.09342678
-0.10264997 0.016893096 -0.18977173 -0.05650623 0.17756294 0.17453793 -0.13923271 0.11403435
-0.1093959 -0.13780324 0.13054942 0.00207221 -0.17712003 -0.15797232 0.058049902 0.17646079
-0.26122904 0.08094232 0.19000255 -0.23164456 -0.054772325 -0.05534285 -0.16286811 0.17334008
0.14747271 0.003478624 0.033041477 0.058868185 0.07472489 0.13019644 0.17659028 -0.07474197
-0.12748489 -0.24683906 -0.06183734 0.27480853 -0.10736802 0.1370233 -0.16992962 -0.12321596
-0.16387385 -0.002840661 -0.07760896 -0.20670293 0.15049627 -0.16000071 0.13162926 -0.03395949
0.07636215 0.3227606 -0.1063694 -0.1771587 0.104921624 -0.18601978 0.27129462 0.16227156
-0.14441735 -0.21244131 -0.12383744 -0.022797685 0.29385516 -0.04568405 0.049466286 0.06402941
-0.027491784 0.02005229 0.25572774 0.22279926 -0.2809584 -0.00026723515 0.17000529 0.18448132
0.076325156 0.2373997 0.11563869 -0.07618288 0.08872731 0.059489172 0.000325365 -0.17308608
0.06565697 0.031150352 0.09996304 0.23083243 0.07715743 0.046807967 0.01860421 -0.122770704
0.17434004 -0.02050979 -0.026180467 -0.013788347 -0.14636636 -0.17117102 -0.16020441 -0.021944683
0.008758419 0.17928946 0.08992349 -0.104352266 -0.06692831 0.066887416 -0.26972628 -0.12429854
-0.04635643 -0.14737862 0.099638626 -0.09699835 -0.1810098 -0.122869045 0.10734831 0.08209571
0.07150612 0.095907286 -0.17009401 0.025445556 -0.15768151 -0.13794212 0.2753268 -0.01574903
0.09021198 0.022329468 0.120350294 0.18831535 0.2579057 0.08105194 0.2606788 -0.12166303
0.053311903 -0.026679102 0.15924229 -0.035080645 -0.09264285 0.13517787 -0.1731414 -0.16692162
-0.012125486 0.023392789 -0.104976065 0.029242154 0.09011199 -0.12907441 -0.098451324 -0.025297012
0.0788212 -0.092826635 0.15224443 -0.0020757897 -0.20896938 0.21341687 -0.039831355 -0.14143524
0.10229331 -0.058333248 0.18700925 -0.15522988 -0.14580613 0.06469491 -0.19090807 0.04739907
0.061061304 0.25363636 -0.15283246 0.10849229 0.08398251 -0.13266766 -0.046088595 0.10442872
-0.10949853 -0.006236489 -0.07564673 0.20941855 -0.12503967 -0.17402248 0.32393992 0.09705404
00000000: 82d4 413d d837 78bd fdb6 fc3d 7d3f 91be
00000010: 3d9e 03be fbd1 883e e29d ff3c adce 0dbd
00000020: 8127 903d 1cb9 49be c70a 903e 6e84 13be
00000030: 841b cd3d 6824 65bd 6da1 b3bd 9db2 b53d
00000040: 6769 5a3e d2fe a13b 0972 2a3d e949 dc3d
00000050: d813 b4bd 5d5b 66be 904b 8d3d 344b 853a
00000060: ed9c 2c3e b7f0 c13c 4324 913d dbcf 093e
00000070: 0c21 28bb 24ea fa3d 6eac 6e3e 960d 943d
00000080: 3e06 3ebe 59d4 89bb 2398 a2bd 805d f5bc
00000090: 70c0 903e 70d2 1bbe 75e4 4e3d 0a7d 353d
000000a0: 0981 123b d9f9 85be 9576 01be 5b68 113e
000000b0: 283d 3a3c 22f5 14be e46a 013e 5e69 eebd
000000c0: 57bf 06be 38bf 0b3e afee abbd b3ce 5ebd
000000d0: 7527 2b3e da6e a4bd e12b c23d 8ca5 a63c
000000e0: 8f93 63be 8e0a 0e3e 38b5 863e 1a5f d7bd
000000f0: a6bc d93d 5eff 5d3e 6e48 30be a8c4 c8bd
00000100: 2232 d83d 7ede 4fbe a019 073e 6880 123e
00000110: 98e5 59be c157 273e d81a a7bc 653d 8cbe
00000120: 9909 633e 4dae 8b3e 0ada 483d 0acb 48bc
00000130: 33c6 d4bd bc3f 7e3d 7e2a 09be 8a56 bf3d
00000140: 263a d2bd 6463 8a3c 8553 42be 1473 67bd
00000150: 0fd3 353e 12ba 323e 0593 0ebe d78a e93d
00000160: f50a e0bd 4b1c 0dbe bfae 053e eacd 073b
00000170: f45e 35be 7fc3 21be bcc5 6d3d 23b2 343e
00000180: d0bf 85be 16c5 a53d 0790 423e 3b34 6dbe
00000190: f258 60bd 2faf 62bd e6c6 26be 1080 313e
000001a0: 1603 173e a0f9 633b 8056 073d c41f 713d
000001b0: 5d09 993d 3752 053e 15d4 343e 5112 99bd
000001c0: 668b 02be 61c3 7cbe 2749 7dbd b4b3 8c3e
000001d0: c4e3 dbbd d64f 0c3e 0802 2ebe a658 fcbd
000001e0: 8cce 27be 622a 3abb 72f1 9ebd efa9 53be
000001f0: b21b 1a3e 3ad7 23be d2c9 063e 1b19 0bbd
00000200: c263 9c3d e140 a53e 33d8 d9bd 1769 35be
00000210: 26e1 d63d f87b 3ebe 21e7 8a3e 842a 263e
00000220: 24e2 13be 378a 59be 7c9e fdbd 36c2 babc
00000230: 2f74 963e 331f 3bbd 299d 4a3d da21 833d
00000240: 7336 e1bc b344 a43c bfee 823e 7d25 643e
00000250: c8d9 8fbe b21b 8cb9 de15 2e3e ace8 3c3e
00000260: 5d50 9c3d e818 733e fad3 ec3d c505 9cbd
00000270: aab6 b53d ebaa 733d c095 aa39 7a3d 31be
00000280: 2977 863d 062f ff3c 6cb9 cc3d 565f 6c3e
00000290: b704 9e3d b6b9 3f3d db67 983c 356f fbbd
000002a0: 3286 323e 2604 a8bc 6b78 d6bc 85e8 61bc
000002b0: 10e1 15be 7547 2fbe a00c 24be 56c5 b3bc
000002c0: 797f 0f3c a897 373e cf29 b83d a4b6 d5bd
000002d0: b611 89bd 45fc 883d 9019 8abe 3c90 febd
000002e0: 3de0 3dbd 6cea 16be 560f cc3d 12a7 c6bd
000002f0: a25a 39be c4a2 fbbd 6ed9 db3d cc21 a83d
00000300: cd71 923d 0a6b c43d 202d 2ebe 3373 d03c
00000310: 4377 21be b340 0dbe a2f7 8c3e 1c04 81bc
00000320: 0fc1 b83d 4aec b63c 377a f63d bdd5 403e
00000330: 370c 843e 8ffe a53d b177 853e 772a f9bd
00000340: 955d 5a3d 228e dabc 6910 233e b9b0 0fbd
00000350: 89bb bdbd 116c 0a3e fb4b 31be 80ed 2abe
00000360: f9a9 46bc 3ca2 bf3c b1fd d6bd 3e8d ef3c
00000370: a38c b83d 152c 04be d9a0 c9bd ae3b cfbc
00000380: 026d a13d e41b bebd f7e5 1b3e f909 08bb
00000390: 12fc 55be f489 5a3e 3426 23bd 66d4 10be
000003a0: 287f d13d d8ee 6ebd 5a7f 3f3e 95f4 1ebe
000003b0: 344e 15be c47e 843d 687d 43be 8725 423d
000003c0: 6b1b 7a3d a0dc 813e 1d80 1cbe 3531 de3d
000003d0: 06ff ab3d 08da 07be 65c7 3cbd bade d53d
000003e0: c440 e0bd 765b ccbb acec 9abd d171 563e
000003f0: 660a 00be f332 32be 74db a53e 45c4 c63d

patch_compression.2.bias f4 [16]
0.06458681 -0.15025175 -0.13042621 0.23235002 -0.15282594 -0.023298053 0.09623873 0.07032444
-0.0066444105 -0.16636327 0.11746394 0.1455419 0.032161813 -0.023254294 0.20113304 -0.08853862
00000000: 1746 843d 98db 19be 738e 05be 2aed 6d3e
00000010: 677e 1cbe 8fdb bebc d018 c53d 4306 903d
00000020: 5bb9 d9bb 225b 2abe ef90 f03d f008 153e
00000030: 1bbc 033d ca7f bebc d2f5 4d3e bc53 b5bd

transformer.layers.0.self_attn.in_proj_weight f4 [48, 16]
0.26550165 -0.19652696 0.29467198 -0.42464152 0.1964136 0.07286527 0.31666872 0.011376575
0.09374785 -0.2131355 0.22163361 -0.15935233 0.33828112 0.11120425 0.3773246 0.6226283
-0.3389824 -0.09334722 -0.22264014 -0.21252847 0.057598453 -0.2653537 -0.15154983 0.22331797
-0.08216629 0.0035693357 -0.12223582 0.06744621 0.118803695 0.17142968 0.2097225 0.18552308
0.018742943 -0.11805499 -0.12201878 0.10137325 0.30902702 -0.14088152 -0.10408045 -0.115378626
-0.2812931 -0.11068439 -0.23971954 0.12954545 -0.065694295 0.29820645 0.088558935 -0.14209376
0.0068383324 -0.009602537 -0.07220194 0.32474017 -0.37763792 0.45732015 -0.20571408 -0.3279871
-0.036114417 0.68814623 0.24393524 -0.14173056 -0.08236354 -0.1985361 -0.19434802 -0.07987492
-0.035576023 -0.31727332 0.2420097 0.10961268 0.27083766 0.07277893 0.04038225 0.26974782
0.002934751 0.44805133 -0.192952 -0.33236444 -0.0065505765 0.40545884 -0.13197534 -0.33055276
-0.27476916 0.16734001 -0.17133866 -0.78861606 0.2668394 0.25710055 -0.15609741 -0.19928586
-0.20958136 -0.25453994 0.44657233 0.23600215 0.37649643 -0.13473804 0.038282983 -0.09466712
0.3561135 0.042651173 -0.12807181 -0.04669152 -0.03733927 -0.23187438 0.034024242 0.1592353
0.32206747 -0.3833343 0.009526711 0.4112031 0.07435312 0.11169338 -0.3068639 0.18832175
-0.087098934 0.033318 0.20429085 -0.025384879 0.15857282 -0.18673562 0.15096751 0.18556552
0.26266125 -0.11628982 -0.0114628095 -0.1479644 -0.076676704 -0.14816852 0.3078543 0.071036644
0.10569094 0.077978365 0.091094345 0.036634173 -0.096476085 0.0030490775 0.2635786 0.20586264
0.07127645 -0.10459918 -0.013236976 0.17567801 -0.13691969 0.17369093 0.108286746 0.016932042
-0.29254043 -0.13148402 -0.22343381 0.17034967 -0.2601197 0.041663915 -0.30901548 -0.28316802
-0.21605618 -0.026243098 -0.4241611 -0.24199641 0.047580745 -0.01869064 0.31811526 0.085576296
-0.47044176 0.5166155 -0.35239986 -0.12347892 0.16702868 -0.009551979 0.19566782 -0.083868794
-0.31284514 -0.20724331 -0.2509986 -0.26895824 0.3168214 0.08083164 0.044395782 0.16532652
0.26882774 -0.17866576 -0.0023954995 -0.33567074 0.20780346 0.031055523 0.09824479 0.19971807
0.20693813 -0.33864465 0.29595998 -0.038444813 -0.05674624 -0.03891026 0.068168856 -0.0062190495
-0.36351776 -0.13173093 -0.052302476 0.24796197 -0.13017704 0.14195445 0.02315487 -0.15056953
-0.29574808 0.5150899 0.2989855 -0.043260198 -0.1059704 0.21987149 0.21284845 -0.13040823
-0.49231428 0.19492753 -0.24926606 -0.31638807 0.1691141 -0.2493999 0.28316647 -0.05074625
-0.1639675 0.11979349 -0.2326431 0.05688422 -0.48053768 -0.028834347 0.4176014 -0.23815762
0.042609286 0.2619112 0.11114057 -0.22594608 0.15887374 0.17244898 0.07738085 -0.21021564
0.079520576 -0.0915634 -0.26455247 -0.12758915 -0.17985168 -0.29619247 -0.029797845 -0.49734285
0.19314785 0.38626745 0.18595259 -0.41521558 -0.10260928 -0.39194024 0.30805463 -0.20570624
-0.0751577 0.034330357 0.23459667 0.36904857 0.32171997 -0.18240063 -0.19933188 0.09300456
00000000: d5ef 873e 5d3e 49be 3fdf 963e 9d6a d9be
00000010: a620 493e 633a 953d 6722 a23e d064 3a3c
00000020: dffe bf3d 3140 5abe ecf3 623e 422d 23be
00000030: 2f33 ad3e 0ebf e33d b130 c13e 9164 1f3f
00000040: 1a8f adbe d42c bfbd c7fb 63be 10a1 59be
00000050: 5bec 6b3d 71dc 87be e12f 1bbe 77ad 643e
00000060: cd46 a8bd 84eb 693b c656 fabd 3d21 8a3d
00000070: 5a4f f33d 438b 2f3e 7fc1 563e c3f9 3d3e
00000080: cd8a 993c d1c6 f1bd fbe4 f9bd c79c cf3d
00000090: ca38 9e3e 3f43 10be 2228 d5bd a14b ecbd
000000a0: a605 90be 7fae e2bd 0a79 75be 90a7 043e
000000b0: bb8a 86bd 84ae 983e 635e b53d 0781 11be
000000c0: 1714 e03b f653 1dbc 9cde 93bd 5844 a63e
000000d0: c259 c1be de25 ea3e b6a6 52be eded a7be
000000e0: b6ec 13bd 5a2a 303f 29ca 793e d121 11be
000000f0: 37ae a8bd 0c4d 4bbe 2b03 47be 7695 a3bd
00000100: 2ab8 11bd a671 a2be 64d1 773e 9d7c e03d
00000110: 3cab 8a3e 1f0d 953d dc67 253d 631c 8a3e
00000120: f454 403b fc66 e53e 3695 45be ac2b aabe
00000130: 38a6 d6bb 4d98 cf3e 8b24 07be 363e a9be
00000140: 8bae 8cbe 2e5b 2b3e 6773 2fbe bee2 49bf
00000150: 2d9f 883e afa2 833e 00d8 1fbe 9811 4cbe
00000160: 7f9c 56be 0f53 82be 21a5 e43e 8caa 713e
00000170: 24c4 c03e c5f8 09be 9ece 1c3d d6e0 c1bd
00000180: 8254 b63e ffb2 2e3d 4225 03be 9b3f 3fbd
00000190: 10f1 18bd 7a70 6dbe 015d 0b3d 940e 233e
000001a0: 07e6 a43e 6544 c4be ec15 1c3c 3689 d23e
000001b0: 7346 983d 80bf e43d 441d 9dbe 6bd7 403e
000001c0: ed60 b2bd 7578 083d 9f31 513e f3f3 cfbc
000001d0: ea60 223e 9f37 3fbe 3a97 1a3e e304 3e3e
000001e0: 897b 863e 5b29 eebd 82ce 3bbc fb83 17be
000001f0: ad08 9dbd 7db9 17be 149f 9d3e a97b 913d
00000200: 7e74 d83d 1fb3 9f3d ac8f ba3d b70d 163d
00000210: 4195 c5bd 08d3 473b c6f3 863e a8cd 523e
00000220: 63f9 913d 1838 d6bd e7df 58bc f0e4 333e
00000230: ad34 0cbe 09dc 313e 71c5 dd3d 11b5 8a3c
00000240: dcc7 95be bfa3 06be d5cb 64be 2570 2e3e
00000250: 692e 85be c8a7 2a3d 4737 9ebe 66fb 90be
00000260: d53d 5dbe c4fb d6bc a52b d9be e8cd 77be
00000270: 07e4 423d 1d1d 99bc 01e0 a23e a042 af3d
00000280: bedd f0be ea40 043f c16d b4be 84e2 fcbd
00000290: 9109 2b3e e77f 1cbc 255d 483e 67c3 abbd
000002a0: 3d2d a0be 9737 54be e382 80be e5b4 89be
000002b0: 6a36 a23e 0f8b a53d 5ad8 353d 5b4b 293e
000002c0: caa3 893e 28f4 36be d0fd 1cbb 09dd abbe
000002d0: 6eca 543e 2768 fe3c 9134 c93d e582 4c3e
000002e0: 97e7 533e d562 adbe 1188 973e 4f78 1dbd
000002f0: bf6e 68bd 5d60 1fbd 1d9c 8b3d 2bc9 cbbb
00000300: 001f babe 79e4 06be 1f3b 56bd bee9 7d3e
00000310: 214d 05be 825c 113e 48af bd3c e62e 1abe
00000320: 4b6c 97be efdc 033f a114 993e 9b31 31bd
00000330: 0207 d9bd fe25 613e f2f4 593e bc89 05be
00000340: 9e10 fcbe 159b 473e 9a3f 7fbe 9efd a1be
00000350: 3f2c 2d3e b062 7fbe 32fb 903e 4ddb 4fbd
00000360: 19e7 27be 4a56 f53d fe39 6ebe 6eff 683d
00000370: 0909 f6be 0236 ecbc dacf d53e 97df 73be
00000380: 1387 2e3d 3a19 863e ab9d e33d 695e 67be
00000390: ccaf 223e 7796 303e da79 9e3d c542 57be
000003a0: afdb a23d 9885 bbbd 6c73 87be bba6 02be
000003b0: 0a2b 38be 8aa6 97be 9c1a f4bc b9a3 febe
000003c0: 8dc8 453e d9c4 c53e 5b6a 3e3e 2397 d4be
000003d0: d024 d2bd 64ac c8be 56b9 9d3e a8a4 52be
000003e0: 48ec 99bd fd9d 0c3d 1c3a 703e eff3 bc3e
000003f0: 7bb8 a43e 3bc7 3abe a81d 4cbe 2d79 be3d

transformer.layers.0.self_attn.in_proj_bias f4 [48]
0.25427738 -0.066532545 0.023446579 -0.22016452 0.033229038 -0.110181965 0.048051484 0.22489196
0.050212644 -0.08362305 -0.2233942 0.081833005 0.06972253 0.19984132 -0.15146255 0.124836706
0.00032849493 0.002350913 0.00690853 0.00998321 -0.0020939424 0.0017237702 0.0019014488 0.008257417
-0.009046013 -0.0060172314 0.006995677 0.0052529015 0.009208661 0.005753369 -0.006192747 -0.007823781
0.05067349 0.019459521 -0.03277003 -0.037286885 0.014519624 -0.032941308 -0.013844963 -0.026527245
-0.0023143357 0.023838712 -0.0345853 -0.018845437 0.028141001 -0.040716775 -0.0030035619 0.00871717
00000000: a530 823e 3742 88bd 0a13 c03c cf72 61be
00000010: 2c1b 083d 15a7 e1bd a2d1 443d 144a 663e
00000020: c6ab 4d3d 9042 abbd 73c1 64be 1098 a73d
00000030: b0ca 8e3d 34a3 4c3e 0019 1bbe 63aa ff3d
00000040: d839 ac39 c611 1a3b f360 e23b 9e90 233c
00000050: 863a 09bb 21f0 e13a 093a f93a 1e4a 073c
00000060: ba35 14bc 322c c5bb fe3b e53b 8820 ac3b
00000070: ecdf 163c c286 bc3b 87ec cabb 512f 00bc
00000080: 018f 4f3d 9369 9f3c de39 06bd 22ba 18bd
00000090: b8e3 6d3c 77ed 06bd fcd5 62bc aa4f d9bc
000000a0: 1cac 17bb 6749 c33c 51a9 0dbd bf61 9abc
000000b0: f587 e63c a2c6 26bd 68d7 44bb 76d2 0e3c

transformer.layers.0.self_attn.out_proj.weight f4 [16, 16]
-0.007913636 0.021280209 -0.057025414 -0.19256768 -0.09953945 0.13533656 -0.009717984 -0.07680067
0.15755959 -0.12641291 -0.09235694 0.008845978 -0.06153908 0.24401972 -0.163692 0.038135797
-0.086458944 -0.12188666 -0.030582324 -0.14230824 -0.52436155 -0.03677155 -0.04938723 0.0034598585
0.23688939 -0.298564 -0.06340182 -0.18279867 -0.021068973 0.070411086 -0.06656208 0.2658019
-0.12946115 -0.03771798 -0.19058432 -0.08228856 0.144448 -0.039755113 -0.060291525 0.06871494
-0.021598238 -0.166459 -0.105511844 0.22553 0.05620619 -0.14406098 0.02394536 -0.12406207
0.20203073 0.17297879 0.07284196 0.3963687 0.24827544 0.28385237 -0.15456851 0.2009333
0.17975642 -0.012313348 -0.11359678 -0.034593392 0.046069123 0.0049002003 0.023364658 -0.16793269
-0.15947324 0.18535712 -0.088925205 0.17650236 0.095677234 -0.019485347 0.06226701 0.0795275
-0.24293798 -0.14296594 -0.11671883 0.023938788 0.23733269 -0.15076643 -0.25494653 0.12298922
-0.082880296 0.25440276 0.16160242 0.37145793 0.1059875 0.06832808 -0.2823836 -0.13127416
0.06737202 0.17135254 0.18107541 0.036834233 -0.2591971 0.2275247 -0.09650984 -0.3055868
-0.13994335 0.1540786 -0.16911118 -0.3723204 0.19399254 0.11759047 0.050257932 -0.46814838
0.013738983 -0.00037178522 -0.10027337 0.23752642 0.23354012 0.19114189 0.19914524 -0.06875136
0.29222703 -0.03920606 -0.36258933 -0.1535024 0.025471747 -0.051221967 -0.008060219 0.31011584
-0.014723159 -0.015367395 -0.026666004 -0.21872658 -0.050141443 -0.048783828 -0.3351812 0.27189177
0.33350617 0.3841778 -0.3013582 -0.1420028 -0.17994796 -0.20640959 -0.12649879 -0.0888158
0.038055692 0.33678594 0.06446754 -0.13763155 -0.024629118 0.094736904 0.12477746 -0.0947795
-0.16530813 -0.087927915 0.04222489 -0.19550774 0.12037358 0.080408454 0.048472818 0.09546056
0.25848797 0.18672475 -0.04873904 -0.009647303 0.040632956 -0.1721565 0.12190142 -0.11441634
-0.0013812118 -0.2606088 -0.29352796 -0.20109926 0.060630582 -0.11137389 0.019883681 0.29442778
-0.07344628 -0.32352212 -0.11790498 -0.25906017 0.02220595 0.12164871 -0.15429504 -0.21821316
-0.30869055 -0.22466114 -0.014795837 0.12442281 0.16371532 -0.25676286 0.22624496 -0.006724626
-0.08100861 0.19836205 -0.06025282 0.11942041 -0.04206786 0.1634883 -0.006765495 0.06436289
-0.12900841 0.0694752 -0.102919795 -0.1363316 0.022730108 -0.014346065 0.2448837 -0.23411125
0.046691246 -0.28462687 0.3706667 0.3175418 0.13267645 0.06642514 0.28325158 0.15110971
-0.046187416 0.22108589 0.07592891 0.037945323 -0.3991943 -0.023396248 -0.17799838 0.06369653
-0.20416062 -0.11121125 0.17288473 -0.16303565 0.048007976 0.118619435 0.18755358 0.36684954
-0.036522694 -0.20851672 -0.0018334788 -0.10176853 -0.0209837 0.011638931 -0.08769949 -0.17117009
0.20601998 0.2944928 -0.124164745 -0.062237274 0.09801649 -0.23038028 0.26218653 0.07803592
-0.10696149 -0.10136966 0.23778005 0.34620562 -0.046056252 -0.18551625 -0.04340504 0.18505125
0.13427578 0.083496705 0.2481603 -0.23373073 -0.28205195 0.21283601 0.021189187 -0.07471057
00000000: 32a8 01bc d553 ae3c 7b93 69bd 7630 45be
00000010: 57db cbbd ab95 0a3e 2e38 1fbc ab49 9dbd
00000020: 4d57 213e 6372 01be a325 bdbd b9ee 103c
00000030: 6710 7cbd 4ee0 793e e09e 27be 4834 1c3d
00000040: 6311 b1bd b79f f9bd c887 fabc 40b9 11be
00000050: 8f3c 06bf c49d 16bd 444a 4abd cbbe 623b
00000060: 2293 723e 61dd 98be d0d8 81bd 932f 3bbe
00000070: d798 acbc b033 903d b351 88bd 3017 883e
00000080: 7791 04be 2b7e 1abd 8928 43be e886 a8bd
00000090: 2dea 133e 42d6 22bd 3ff4 76bd 6bba 8c3d
000000a0: caee b0bc 3a74 2abe 9816 d8bd 56f1 663e
000000b0: 7638 663d b984 13be 0f29 c43c 4114 febd
000000c0: 25e1 4e3e 5a21 313e 2a2e 953d d7f0 ca3e
000000d0: eb3b 7e3e 1955 913e 3547 1ebe 76c1 4d3e
000000e0: 1112 383e edbd 49bc 6ea5 e8bd cdb1 0dbd
000000f0: fab2 3c3d dc91 a03b 3d67 bf3c 8cf6 2bbe
00000100: f44c 23be 42ce 3d3e 6b1e b6bd 09bd 343e
00000110: 6df2 c33d bc9f 9fbc b10b 7f3d 50df a23d
00000120: bcc4 78be aa65 12be 480a efbd 471b c43c
00000130: 5707 733e 8462 1abe 5a88 82be c6e1 fb3d
00000140: 25bd a9bd 1441 823e 1b7b 253e bc2f be3e
00000150: f90f d93d 98ef 8b3d 9594 90be bc6c 06be
00000160: 57fa 893d 0a77 2f3e d56b 393e 7edf 163d
00000170: 7bb5 84be 3cfc 683e f3a6 c5bd e075 9cbe
00000180: 4f4d 0fbe c8c6 1d3e 7b2b 2dbe c8a0 bebe
00000190: fba5 463e 46d3 f03d 43db 4d3d 25b1 efbe
000001a0: 7919 613c 2bec c2b9 205c cdbd 203a 733e
000001b0: 2425 6f3e b3ba 433e bbec 4b3e 83cd 8cbd
000001c0: c89e 953e 8996 20bd 4fa5 b9be bc2f 1dbe
000001d0: 20aa d03c 20ce 51bd 020f 04bc 81c7 9e3e
000001e0: 6839 71bc 87c7 7bbc aa72 dabc dcf9 5fbe
000001f0: 1d61 4dbd 8dd1 47bd df9c abbe 6635 8b3e
00000200: 52c1 aa3e f4b2 c43e 9f4b 9abe 2f69 11be
00000210: 4744 38be 095d 53be e688 01be 0fe5 b5bd
00000220: 49e0 1b3d 356f ac3e 8f07 843d 49ef 0cbe
00000230: 01c3 c9bc 6c05 c23d 538b ff3d c11b c2bd
00000240: 8946 29be 8d13 b4bd 02f4 2c3d 2e33 48be
00000250: 6c86 f63d 30ad a43d 6f8b 463d d380 c33d
00000260: 8958 843e c634 3f3e 96a2 47bd b90f 1ebc
00000270: be6e 263d cb49 30be 74a7 f93d 1d53 eabd
00000280: c709 b5ba 846e 85be 4c49 96be f7ec 4dbe
00000290: c657 783d fe17 e4bd 1ae3 a23c 3dbf 963e
000002a0: 016b 96bd b1a4 a5be 2b78 f1bd 89a3 84be
000002b0: 41e9 b53c f522 f93d 85ff 1dbe 4573 5fbe
000002c0: b00c 9ebe 920d 66be 3d6a 72bc 63d1 fe3d
000002d0: fda4 273e 6c76 83be c2ac 673e 405a dcbb
000002e0: d8e7 a5bd 6c1f 4b3e a9cb 76bd b092 f43d
000002f0: 594f 2cbd 7a69 273e 16b1 ddbb b1d0 833d
00000300: c81a 04be 0349 8e3d 9dc7 d2bd 839a 0bbe
00000310: 7e34 ba3c c20b 6bbc cbc2 7a3e dcba 6fbe
00000320: 523f 3f3d 9dba 91be 07c8 bd3e d794 a23e
00000330: 56dc 073e e709 883d 5a06 913e 81bc 1a3e
00000340: 042f 3dbd 5764 623e 9e80 9b3d 8e6c 1b3d
00000350: 3263 ccbe 7da9 bfbc 3545 36be 5473 823d
00000360: 7b0f 51be b9c2 e3bd b208 313e d1f2 26be
00000370: 03a4 443d bfee f23d 0c0e 403e b4d3 bb3e
00000380: d298 15bd 6885 55be 5751 f0ba 056c d0bd
00000390: 02e6 abbc 37b1 3e3c ca9b b3bd 3647 2fbe
000003a0: e7f6 523e c3c7 963e 164a febd 83ec 7ebd
000003b0: dfbc c83d cfe8 6bbe 503d 863e 4cd1 9f3d
000003c0: a00e dbbd e59a cfbd 9d7c 733e dd41 b13e
000003d0: 7ba5 3cbd f9f7 3dbe 7cc9 31bd 137e 3d3e
000003e0: 977f 093e 5200 ab3d bc1d 7e3e 1c57 6fbe
000003f0: 1d69 90be aff1 593e f294 ad3c db01 99bd

transformer.layers.0.self_attn.out_proj.bias f4 [16]
-0.055100106 -0.0066173878 0.009955216 0.019546948 0.01489211 -0.022164652 0.031191302 0.04549277
0.0016586819 -0.017494656 0.019848585 0.015778901 0.006605503 -0.039335366 0.046825435 -0.013195741
00000000: a6b0 61bd acd6 d8bb 341b 233c ec20 a03c
00000010: 09fe 733c a592 b5bc e784 ff3c a056 3a3d
00000020: 2168 d93a f450 8fbc 8099 a23c c142 813c
00000030: fa72 d83b 1f1e 21bd 07cc 3f3d f332 58bc

transformer.layers.0.linear1.weight f4 [64, 16]
-0.12638374 -0.110168725 0.22614297 0.39046675 -0.25846007 0.041183826 -0.032282602 0.12039131
0.24636337 -0.060096145 -0.066706635 -0.12080116 0.036494326 -0.13881598 0.11826976 0.0046146587
-0.07370242 0.07324017 0.017059963 0.10949583 0.0034269115 0.083286524 -0.14791554 -0.18509054
0.07816338 -0.19177477 0.09361945 0.025669767 0.07496619 0.1050543 -0.2234122 -0.025974294
0.18267523 0.1982998 0.21646555 -0.2019777 0.17966554 -0.14263293 0.25524876 -0.07617725
-0.086366616 0.22160564 -0.099352375 0.2037773 -0.1927584 0.36905476 -0.13141266 -0.016733417
-0.21011762 -0.0145098595 -0.16997875 0.0011983057 0.23989606 -0.15181054 -0.23414522 -0.3739856
-0.055697165 0.09776022 -0.19354829 0.37142783 -0.07700123 -0.03780362 -0.030829914 0.012204891
-0.4109225 0.09331951 -0.13906471 0.3665063 -0.06800879 0.16502824 -0.073057115 -0.038803156
0.21074103 0.23641264 -0.09912506 -0.0709193 -0.13218592 0.08419984 -0.38112655 -0.05580913
-0.09455447 -0.06602939 -0.049366243 -0.04382819 -0.21491498 -0.055201173 0.30100736 0.021662349
-0.12800664 0.17058384 -0.10983484 -0.22286251 0.17295232 -0.1581491 -0.054664884 0.056816224
0.106005736 0.12370203 0.09123644 0.13163023 0.12631886 0.12878957 -0.009687105 -0.010143829
0.25168958 0.2671697 0.016938701 0.14350569 -0.32081994 0.2748643 -0.026451485 0.18264881
0.16546787 0.14789686 0.20390047 0.25806433 -0.22233681 -0.11241861 0.14594133 0.047008894
0.17076561 0.057576228 -0.112966985 0.16342998 0.17000256 -0.046954244 -0.067031235 -0.106135815
-0.055264823 -0.31783348 -0.23572317 0.120949015 0.15631598 0.19726266 0.1401821 -0.014891404
-0.08355832 -0.17622489 -0.1124114 0.25392923 0.08850315 0.29653907 -0.21015836 -0.04542878
0.04325692 -0.14801826 -0.0629577 0.20396951 -0.22502078 -0.11896816 -0.17464335 0.12330962
-0.026878906 -0.073337756 -0.1658705 -0.051778905 0.04040709 0.028801164 -0.31669742 -0.076980695
0.05875935 0.10522265 0.010814594 -0.2884447 -0.048368633 -0.009115864 -0.185679 -0.11956249
0.11705921 0.009966171 0.068444975 -0.021849984 -0.24360868 -0.039699804 -0.025106583 -0.11297735
-0.07979296 0.13628946 0.13539483 0.07146578 -0.036546376 0.083020866 0.03294905 -0.15429258
0.26573616 0.17430623 0.02341523 -0.04853884 0.0070461505 -0.38239303 -0.24344566 0.20839475
0.044294883 0.00047611637 -0.09021012 -0.073399216 -0.0028558536 0.22361337 -0.2815893 -0.18493573
0.08818493 -0.20741451 -0.10585335 0.068633504 -0.2017918 -0.2335621 0.11872938 -0.17526801
-0.06483323 -0.05087009 -0.16912118 -0.11136535 0.03284059 0.02736897 0.1686814 -0.13945255
-0.041187882 -0.05812433 0.048595943 -0.03859147 -0.4269714 0.11806458 -0.14301428 -0.06830248
-0.07401492 -0.12536426 -0.10970126 0.11427301 0.05298494 0.051929478 -0.0018560584 0.033726685
0.16352333 -0.2060304 0.4272741 0.0019702767 -0.06199655 -0.263315 0.0013449999 -0.2617962
0.043951184 0.09137759 -0.32382795 0.09921023 -0.05562487 0.14505763 0.2445182 0.16162921
-0.098722205 0.019774456 0.26259887 0.009310046 -0.11893114 0.22637527 0.03856254 -0.14239886
00000000: bd6a 01be 24a0 e1bd 0692 673e 42eb c73e
00000010: e154 84be 5fb0 283d c33a 04bd b88f f63d
00000020: ae46 7c3e 6027 76bd 7d9d 88bd 9966 f7bd
00000030: 137b 153d c725 0ebe 6a37 f23d 9036 973b
00000040: 4bf1 96bd f1fe 953d 56c1 8b3c 5a3f e03d
00000050: 0996 603b 2092 aa3d 2c77 17be 6088 3dbe
00000060: 1f14 a03d 9b60 44be 8ebb bf3d 6749 d23c
00000070: e087 993d b526 d73d 2bc6 64be 0bc8 d4bc
00000080: 370f 3b3e 1a0f 4b3e 25a9 5d3e 3ed3 4ebe
00000090: 3efa 373e 5e0e 12be f7af 823e d102 9cbd
000000a0: fbe0 b0bd 97ec 623e 4279 cbbd ffaa 503e
000000b0: 7562 45be bff4 bc3e 0a91 06be 8514 89bc
000000c0: 1329 57be c3ba 6dbc e90e 2ebe 7810 9d3a
000000d0: 50a7 753e 3974 1bbe c4c3 6fbe 0a7b bfbe
000000e0: b622 64bd 8336 c83d 8631 46be ca2b be3e
000000f0: d2b2 9dbd f8d7 1abd 048f fcbc 06f7 473c
00000100: 6f64 d2be 4d1e bf3d fb66 0ebe b7a6 bb3e
00000110: 3148 8bbd 2afd 283e f89e 95bd 0ff0 1ebd
00000120: 7fcc 573e 2816 723e 1402 cbbd 233e 91bd
00000130: bf5b 07be f770 ac3d 0523 c3be 1d98 64bd
00000140: c6a5 c1bd 6b3a 87bd 4234 4abd 3085 33bd
00000150: ac12 5cbe a01a 62bd a31d 9a3e 3d75 b13c
00000160: 2c14 03be 88ad 2e3e 17f1 e0bd 1236 64be
00000170: 6a1a 313e d6f1 21be 49e8 5fbd 21b8 683d
00000180: 8919 d93d 7d57 fd3d 2cda ba3d 13ca 063e
00000190: bb59 013e 6ae1 033e aab6 1ebc 4d32 26bc
000001a0: 75dd 803e 78ca 883e 08c3 8a3c 28f3 123e
000001b0: 8342 a4be 03bb 8c3e c9b0 d8bc 4a08 3b3e
000001c0: 6970 293e 4672 173e 49cb 503e 0221 843e
000001d0: 43ac 63be ba3b e6bd a571 153e 668c 403d
000001e0: 2edd 2e3e 0dd5 6b3d 3c5b e7bd 305a 273e
000001f0: 2715 2e3e 1853 40bd ac47 89bd bc5d d9bd
00000200: 5e5d 62bd 12bb a2be 6a61 71be 1eb4 f73d
00000210: 4c11 203e 39ff 493e e58b 0f3e 13fb 73bc
00000220: a020 abbd 4c74 34be f337 e6bd 0303 823e
00000230: 2441 b53d f8d3 973e c133 57be 8713 3abd
00000240: 2b2e 313d 1992 17be f7ef 80bd 62dd 503e
00000250: d96b 66be 94a5 f3bd b5d5 32be c189 fc3d
00000260: 2731 dcbc 1b32 96bd f5d9 29be 1e16 54bd
00000270: e881 253d 6bf0 eb3c 2a26 a2be 0ea8 9dbd
00000280: a5ad 703d f97e d73d b22f 313c 06af 93be
00000290: 301e 46bd b45a 15bc a322 3ebe 2edd f4bd
000002a0: bdbc ef3d 2749 233c e12c 8c3d bdfe b2bc
000002b0: 8e74 79be 439c 22bd 52ac cdbc ab60 e7bd
000002c0: 7e6a a3bd 778f 0b3e f1a4 0a3e a75c 923d
000002d0: a7b1 15bd d806 aa3d 95f5 063d e0fe 1dbe
000002e0: 920e 883e 557d 323e 4cd1 bf3c aad0 46bd
000002f0: 65e3 e63b 05c9 c3be d249 79be 6f65 553e
00000300: 8d6e 353d 429f f939 15c0 b8bd 5452 96bd
00000310: 4629 3bbb e7fa 643e 792c 90be cb5f 3dbe
00000320: 4d9a b43d 7864 54be a4c9 d8bd b98f 8c3d
00000330: 82a2 4ebe e72a 6fbe 6428 f33d 7579 33be
00000340: 49c7 84bd 285d 50bd 1a2e 2dbe 8413 e4bd
00000350: db83 063d e434 e03c d1ba 2c3e a6cc 0ebe
00000360: a0b4 28bd c713 6ebd 8a0c 473d 1712 1ebd
00000370: ff9b dabe d8cb f13d 5672 12be 2ce2 8bbd
00000380: 2295 97bd 7d5f 00be 0eab e0bd f807 ea3d
00000390: bd06 593d 01b4 543d fc46 f3ba fe24 0a3d
000003a0: a972 273e a2f9 52be acc3 da3e c21f 013b
000003b0: 18f0 7dbd 39d1 86be b54a b03a 270a 86be
000003c0: 2806 343d 2d24 bb3d c7cc a5be bc2e cb3d
000003d0: e7d6 63bd fd89 143e fb62 7a3e 2182 253e
000003e0: de2e cabd 0afe a13c 5c73 863e 2a89 183c
000003f0: 2b92 f3bd ebce 673e c1f3 1d3d 02d1 11be

transformer.layers.0.linear1.bias f4 [64]
-0.14703384 -0.1727483 -0.2860084 -0.07001348 -0.24582207 -0.12829895 0.062021226 -0.16829601
-0.101070374 -0.053770926 -0.16213067 -0.17675914 -0.15957302 0.07368215 -0.25691697 -0.0540169
-0.2335471 -0.18458788 -0.038564403 -0.19411851 -0.33482635 0.021682939 -0.08136964 -0.15545753
0.006503956 -0.23985551 -0.29049614 -0.007006242 -0.15360303 -0.1461357 -0.010063953 -0.0037007078
-0.085051574 -0.05902108 -0.28868634 0.10995083 0.12418216 0.10952608 -0.3720339 -0.11485992
0.07074296 -0.23595351 -0.1514544 -0.02804068 -0.13847104 -0.07144342 -0.24352804 -0.28497076
-0.22463794 0.05175655 -0.2565128 0.0820944 -0.08591561 -0.044920996 0.047138464 -0.24568306
-0.1247955 0.10242272 0.020549828 -0.009821558 -0.18423584 -0.17276861 -0.2737996 -0.07479552
00000000: 0a90 16be eee4 30be b16f 92be 3a63 8fbd
00000010: c8b8 7bbe cd60 03be f809 7e3d ca55 2cbe
00000020: fcfd cebd e73e 5cbd 9505 26be 5900 35be
00000030: 1c67 23be abe6 963d 9f8a 83be d340 5dbd
00000040: f926 6fbe 9b04 3dbe b5f5 1dbd 01c7 46be
00000050: 5c6e abbe 6ba0 b13c 20a5 a6bd 4230 1fbe
00000060: 231f d53b af9c 75be e9bb 94be 9e94 e5bb
00000070: 1d4a 1dbe 99a4 15be 47e3 24bc 9387 72bb
00000080: 852f aebd 17c0 71bd b2ce 93be e72d e13d
00000090: 3753 fe3d 364f e03d 3a7b bebe ae3b ebbd
000000a0: afe1 903d cc9d 71be dd16 1bbe 91b5 e5bc
000000b0: 5acb 0dbe ee50 92bd 6a5f 79be b0e7 91be
000000c0: 7d07 66be adfe 533d a555 83be 1c21 a83d
000000d0: 86f4 afbd 14ff 37bd 4314 413d 5794 7bbe
000000e0: c894 ffbd 01c3 d13d 1d58 a83c 9aea 20bc
000000f0: 52a8 3cbe 41ea 30be 762f 8cbe 652e 99bd

transformer.layers.0.linear2.weight f4 [16, 64]
-0.045745973 0.05214039 -0.046551026 -0.24287353 -0.15586822 0.0012741942 -0.19961354 0.057454024
0.052733447 0.1493353 0.10418955 -0.07762322 -0.114239946 -0.19297536 -0.16361491 -0.2416323
-0.0049381433 0.041431826 -0.03291425 -0.002479512 0.04067823 -0.0617188 0.0044619055 0.043384783
-0.06969068 -0.00631476 -0.09146096 -0.09273338 -0.066358104 -0.016987577 0.1410795 -0.2380269
-0.1549433 -0.18352635 -0.08431736 -0.051383246 0.05897472 -0.0970542 0.034873083 -0.032098632
0.056007978 -0.21326375 0.11138797 0.004815638 0.15536682 0.24096543 -0.15007687 0.07252151
-0.01642194 0.0954003 -0.14011939 -0.15182583 0.023313286 -0.112577416 0.06626791 0.05581493
0.058311578 -0.112522684 -0.08818611 -0.07971468 -0.053578876 0.09171471 0.10762577 -0.06294936
-0.14024988 -0.1153396 0.06429132 -0.009311367 -0.06017168 -0.018258702 0.06387233 -0.1852524
-0.010467267 -0.120261155 -0.029643636 -0.012413826 0.09577751 0.092593506 0.18953472 0.056567516
0.15492181 0.024443733 0.07896818 0.06542059 0.022748116 0.027002051 0.028965631 -0.13069914
-0.041239325 0.09697218 0.035261348 0.074794315 -0.079161055 -0.10185979 0.035245743 -0.00026517772
0.11488749 -0.07783706 0.091090165 0.007513816 -0.030908858 -0.089789405 0.084050655 -0.012480804
0.020676354 0.061899055 -0.06932352 0.053056415 0.007782994 -0.01750976 -0.1416658 0.0075118756
0.12481504 -0.01335249 -0.01971492 -0.03044761 0.00033994 0.035464823 0.031604167 0.015407457
0.022644367 0.10903747 0.11401661 0.1165129 -0.05412117 -0.0067058504 0.047880553 0.10614855
0.15234813 -0.07173472 -0.028677512 0.07355559 -0.06694898 0.10821773 0.06647034 0.029896988
0.035624873 0.07567074 -0.12412349 -0.061799575 -0.085503295 -0.043273218 0.09080748 0.06338438
0.10261501 -0.12914586 -0.010019072 0.01596537 0.09567832 0.00035763317 -0.07748443 -0.13810976
-0.064643264 0.023931071 -0.12977958 0.03553398 -0.029589407 0.020398006 0.031648576 -0.13074133
0.0038373903 0.093504645 0.0956732 0.10015782 -0.07740932 0.046100315 0.17810272 0.002565879
0.10609154 0.045776155 -0.006976377 -0.019547526 0.05736451 0.14940882 -0.11689885 -0.103618726
-0.09069868 -0.050189424 -0.077781014 -0.0143849645 -0.02929299 -0.13191843 -0.026308548 -0.077478
-0.14212178 0.0380586 -0.044816464 0.07706129 -0.011824462 0.015932012 0.025039803 0.00885097
0.11402978 -0.009952634 -0.027043479 -0.061986208 0.056561355 0.010071495 0.043573152 -0.017625866
-0.05875462 -0.05918833 -0.017194353 0.017740592 -0.04255677 0.033705477 -0.21254948 -0.0256835
-0.029341986 -0.016381716 0.13850151 -0.05612072 -0.04957507 0.15071969 0.02396547 0.12512659
0.060858075 0.029585918 0.07795076 0.041600086 -0.24089332 0.06243117 0.043474596 0.090706415
0.092293814 -0.085071556 -0.082006335 0.10895587 0.008509898 0.091511376 -0.24510935 0.05859539
-0.07152719 -0.06264427 -0.05393292 -0.020558376 -0.0024513789 0.11861819 -0.100062236 -0.15127516
-0.015427935 -0.011127072 0.120002694 0.09712478 0.041360494 0.014253157 0.040279713 -0.12835053
-0.047234613 0.052927073 0.043897137 0.11640889 0.057490226 0.0857735 0.024913935 0.040876098
00000000: 2160 3bbd 2991 553d 4aac 3ebd d7b3 78be
00000010: eb9b 1fbe dd02 a73a 7e67 4cbe e954 6b3d
00000020: 07ff 573d 5aeb 183e 5561 d53d ecf8 9ebd
00000030: a2f6 e9bd 559b 45be ab8a 27be 756e 77be
00000040: 26d0 a1bb 6bb4 293d 18d1 06bd 4f7f 22bb
00000050: 379e 263d dacc 7cbd 2d35 923b 3eb4 313d
00000060: fdb9 8ebd 0cec cebb e24f bbbd 00eb bdbd
00000070: c2e6 87bd 8829 8bbc 2577 103e 53bd 73be
00000080: 75a9 1ebe 55ee 3bbe 94ae acbd 3d77 52bd
00000090: 7a8f 713d 5ac4 c6bd 14d7 0e3d db79 03bd
000000a0: 9f68 653d d061 5abe 601f e43d 80cc 9d3b
000000b0: 7b18 1f3e a4bf 763e c0ad 19be 2886 943d
000000c0: 4e87 86bc 3c61 c33d 757b 0fbe 3b78 1bbe
000000d0: 81fb be3c fd8e e6bd 78b7 873d 329e 643d
000000e0: 1fd8 6e3d 4b72 e6bd eb9a b4bd 7341 a3bd
000000f0: 8675 5bbd ecd4 bb3d e66a dc3d 98eb 80bd
00000100: aa9d 0fbe 2b37 ecbd 2bab 833d b48e 18bc
00000110: 9476 76bd 4693 95bc 7fcf 823d ceb2 3dbe
00000120: e67e 2bbc 7b4b f6bd 36d7 f2bc 5c63 4bbc
00000130: 0027 c43d aaa1 bd3d 6415 423e 57b3 673d
00000140: d3a3 1e3e 393e c83c 12ba a13d 3bfb 853d
00000150: 425a ba3c 6833 dd3c 5549 ed3c ffd5 05be
00000160: 91ea 28bd 5a99 c63d 346e 103d c32d 993d
00000170: 311f a2bd de9b d0bd d75d 103d 8d07 8bb9
00000180: 224a eb3d 0969 9fbd 7b8d ba3d 7536 f63b
00000190: 9334 fdbc 82e3 b7bd c022 ac3d 497c 4cbc
000001a0: 7561 a93c dd89 7d3d 7df9 8dbd af51 593d
000001b0: 7c08 ff3b a170 8fbc d710 11be 2e26 f63b
000001c0: 079f ff3d 67c4 5abc 2f81 a1bc 446d f9bc
000001d0: f939 b239 9043 113d 5f73 013d 8f6f 7c3c
000001e0: ae80 b93c 094f df3d 8a81 e93d 519e ee3d
000001f0: 29ae 5dbd c0bc dbbb 661e 443d 6964 d93d
00000200: 2601 1c3e a7e9 92bd 1aed eabc 50a4 963d
00000210: 8c1c 89bd 42a1 dd3d 9a21 883d 87ea f43c
00000220: 63eb 113d 43f9 9a3d 7534 febd 8d21 7dbd
00000230: 5a1c afbd 423f 31bd 46f9 b93d abcf 813d
00000240: d227 d23d d03e 04be 0927 24bc cfc9 823c
00000250: fff2 c33d b680 bb39 28b0 9ebd a56c 0dbe
00000260: b063 84bd 180b c43c f0e4 04be 148c 113d
00000270: 7c65 f2bc b819 a73c f0a1 013d 0ee1 05be
00000280: ba7c 7b3b 5d7f bf3d 50f0 c33d 8b1f cd3d
00000290: c788 9ebd afd3 3c3d 8f60 363e 4e28 283b
000002a0: 8546 d93d c77f 3b3d 189a e4bb 2222 a0bc
000002b0: 0cf7 6a3d a0fe 183e aa68 efbd 0e36 d4bd
000002c0: 3bc0 b9bd 6d93 4dbd a74b 9fbd eaae 6bbc
000002d0: daf7 efbc a015 07be 0685 d7bc c9ac 9ebd
000002e0: 5f88 11be 56e3 1b3d 7891 37bd 4fd2 9d3d
000002f0: 63bb 41bc da83 823c 4620 cd3c a903 113c
00000300: 7288 e93d 5f10 23bc 498a ddbc 40e5 7dbd
00000310: e1ac 673d e902 253c c379 323d 1f64 90bc
00000320: afa8 70bd 766f 72bd 2cdb 8cbc b854 913c
00000330: 0250 2ebd c10e 0a3d 92a6 59be 3466 d2bc
00000340: 9b5e f0bc f332 86bc 57d3 0d3e d7de 65bd
00000350: 3b0f 4bbd 4356 1a3e 3c53 c43c 2f21 003e
00000360: 5146 793d 2b5e f23c a6a4 9f3d da64 2a3d
00000370: bdac 76be d4b7 7f3d 6b12 323d 49c4 b93d
00000380: 8a04 bd3d ff39 aebd f0f2 a7bd 4124 df3d
00000390: 196d 0b3c 516a bb3d f2fd 7abe b801 703d
000003a0: d97c 92bd a44b 80bd c4e8 5cbd 0a6a a8bc
000003b0: 50a7 20bb 18ee f23d 6eed ccbd e0e7 1abe
000003c0: 73c5 7cbc 534e 36bc f9c3 f53d 5be9 c63d
000003d0: 9f69 293d 1386 693c 57fc 243d 526e 03be
000003e0: 1579 41bd 0fca 583d 7ccd 333d c967 ee3d
000003f0: df7a 6b3d 04aa af3d 4f18 cc3c b26d 273d

transformer.layers.0.linear2.bias f4 [16]
-0.06555357 0.0038088905 -0.016008724 -0.07243162 0.08175145 -0.072979346 0.047123067 0.042634707
-0.0041865753 0.048598386 -0.0975145 -0.041233007 -0.054948073 0.06316676 0.060701866 -0.028605606
00000000: f340 86bd 949e 793b ba24 83bc 0757 94bd
00000010: 4e6d a73d 3276 95bd 1e04 413d bba1 2e3d
00000020: 8a2f 89bb 1a0f 473d afb5 c7bd f1e3 28bd
00000030: 3b11 61bd 935d 813d 85a2 783d 4e56 eabc

transformer.layers.0.norm1.weight f4 [16]
0.97515446 0.8778549 0.8942499 1.1018491 1.0354702 0.99764144 1.0323625 1.0650666
1.0070597 1.1960816 1.0483868 1.0276167 0.9537119 1.059338 1.0457962 1.0515476
00000000: b9a3 793f 19bb 603f 90ed 643f 6409 8d3f
00000010: 4a8a 843f 6e65 7f3f 7424 843f 1a54 883f
00000020: 55e7 803f 3419 993f 8a31 863f f288 833f
00000030: 7726 743f 6398 873f a6dc 853f 1d99 863f

transformer.layers.0.norm1.bias f4 [16]
-0.04982834 0.0016257021 -0.047899194 -0.011478844 -0.004948936 -0.035020024 0.038061332 0.056815144
-0.011525352 -0.039427735 0.014248701 0.0045956434 -0.007260152 -0.049284574 0.020414896 -0.000831574
00000000: cd18 4cbd 8315 d53a f231 44bd c311 3cbc
00000010: af2a a2bb 2871 0fbd 33e6 1b3d ffb6 683d
00000020: d4d4 3cbc fa7e 21bd 6273 693c 0d97 963b
00000030: 92e6 edbb 9fde 49bd 243d a73c fdfd 59ba

transformer.layers.0.norm2.weight f4 [16]
1.0031002 0.9218984 0.960495 1.0642995 1.0290437 0.97353 1.1293304 1.0649307
1.0373204 1.055044 1.036638 1.020734 0.925048 1.0599365 1.0929823 1.1528337
00000000: 9665 803f 8901 6c3f 00e3 753f f73a 883f
00000010: b4b7 833f 4339 793f e68d 903f a64f 883f
00000020: eac6 843f af0b 873f 8eb0 843f 69a7 823f
00000030: f2cf 6c3f 00ac 873f d8e6 8b3f 0e90 933f

transformer.layers.0.norm2.bias f4 [16]
-0.0053423955 0.0060261176 0.00039750143 0.029719094 0.013185625 0.021570617 0.022372678 -0.0023614618
0.012358983 0.019965589 0.01339463 -0.024014493 0.026501128 -0.0393518 0.033313565 -0.00097129436
00000000: 430f afbb bd76 c53b bd67 d039 7575 f33c
00000010: 8508 583c ddb4 b03c e846 b73c c1c2 1abb
00000020: 557d 4a3c e08e a33c 2675 5b3c 0bba c4bc
00000030: e518 d93c 5a2f 21bd ce73 083d 769e 7eba
