multi_digit_transformer.pth (torch, 937855 bytes, 77 tensors)

pos_embed f4 [1, 64, 64]
000000 a4 7f 7d 3f 26 c4 0e bf 7f fb 0b 3f 65 04 cf 3e
       0.9902289 -0.5576805 0.5468063 0.4043304
000010 f1 02 90 bf 3d 82 31 bf 6d 3e dc be be 7b 10 3e
       -1.1250898 -0.6933935 -0.43016377 0.14109704
000020 c0 b5 52 bf 9f 59 bd bd 93 8a bc 3f 16 8f 2a bf
       -0.8230858 -0.092456095 1.472979 -0.6662458
000030 f9 8b f3 3f d2 bc 8f bf 9a 7a 9c 3f 9b 48 82 bd
       1.9027091 -1.1229498 1.2224915 -0.06361505
000040 6d 0e d3 bf d3 9f 6d bf 14 88 ea be dd d2 4d bf
       -1.6488777 -0.92822 -0.45806944 -0.80399877
000050 ce 6b 27 3f 5b 34 63 bd d6 dc 11 40 3f d1 b5 3e
       0.6539887 -0.055469852 2.2791038 0.35511205
000060 4f c0 4e 3f 18 ae aa 3e ff 9b a2 bf f6 d2 70 bf
       0.8076219 0.33335948 -1.2703856 -0.940719
000070 50 e0 03 bf f0 2c 8d bf a1 84 15 bf a1 79 df 3f
       -0.5151415 -1.1029339 -0.584055 1.7458993
000080 56 af 52 bd 00 27 85 3f b9 f7 67 be 02 95 5f bf
       -0.051436745 1.0402527 -0.22653092 -0.8733674
000090 77 a7 ff bf 17 97 e5 be 9b 23 dc 3f 1d b3 81 3d
       -1.9972981 -0.44841835 1.7198366 0.06332991
0000a0 d4 33 ea 3c f4 58 80 3f fa 94 ba 3e 04 4a 9c be
       0.028589167 1.0027146 0.36441785 -0.3052522
0000b0 53 3a a9 3e 54 54 c5 bf 21 a2 b9 bf 19 e0 9f 3f
       0.3305231 -1.541636 -1.4502603 1.2490264
0000c0 db 83 2c 3f f9 8a 1c 3f bd f3 8e bf 7d 0f dd be
       0.67388695 0.61149555 -1.1168133 -0.4317588
0000d0 46 71 a0 3f b1 2e 73 3f c5 cb 2c 3e f7 5a 98 be
       1.2534568 0.9499312 0.16874607 -0.297569
0000e0 cc b3 ad 3f ef 68 91 3d 8d c7 2c bf 86 9f 68 bf
       1.3570495 0.071000926 -0.6749199 -0.90868413
0000f0 14 20 b3 be 36 6e ec 3f 4f 54 8c 3f 7b fc b8 bf
       -0.3498541 1.8471134 1.0963229 -1.4452051
000100 e6 b7 bb 3f 59 a9 87 3e a3 2d 9a 3f 3c 64 c6 be
       1.4665496 0.2649639 1.2045177 -0.38748348
000110 cc 1e 2b bd d3 15 19 be 30 8a 4f 3e 79 17 32 bf
       -0.041777417 -0.14949732 0.20267558 -0.69567066
000120 f1 d9 ed bf 70 6e 37 bd 18 a6 1c 3f 36 d7 16 bf
       -1.8582135 -0.044783056 0.6119094 -0.58922136
000130 b3 29 13 3f 9c a2 90 be 15 b0 1a 3e bb 3d a7 3f
       0.574855 -0.2824906 0.15106232 1.3065714
000140 29 66 f5 bf 00 ae db 3f 24 aa a3 3e df ce 88 bf
       -1.9171802 1.7162476 0.31965744 -1.0688132
000150 23 18 34 bf 78 41 6e 3f ea c0 91 bf 60 7d 59 be
       -0.7034933 0.9306865 -1.1386998 -0.21239233
000160 61 c4 64 be 46 58 8d bc a6 21 a1 bd 2a 27 ed 3e
       -0.22340538 -0.017254006 -0.07867746 0.46318942
000170 29 75 0c bf b0 97 01 bc 16 5d b9 bf 3d ca 07 3f
       -0.5486627 -0.0079097 -1.4481533 0.53042966
000180 3b 8c bd bf e5 96 b1 3f ad c0 06 3f b0 7e 25 3f
       -1.480842 1.3874174 0.5263775 0.64646435
000190 90 9b 2d 3f a0 54 83 3f 25 d7 e5 3e 4f db 2f 3e
       0.67815495 1.02602 0.44890705 0.17173503
0001a0 cd 4d af bf 1f b5 ce 3f 3c 5a 49 3f b2 da 7e 3f
       -1.3695618 1.6149024 0.7865331 0.9955245
0001b0 22 98 bc 3e 23 e4 61 3d 3b 21 8c 3f da e2 59 be
       0.36834818 0.05514921 1.0947641 -0.21277943
0001c0 9f d9 3f 3f 0a 1d 61 bf 79 fa 42 be ba 3e 88 bf
       0.7494144 -0.87934935 -0.1904086 -1.0644143
0001d0 96 27 05 3f 48 e4 f5 be e3 86 fb 3e 85 c6 90 be
       0.5201353 -0.48025727 0.49126348 -0.28276458
0001e0 f2 c1 02 c0 da 98 eb be fe cb d3 3e 45 af 00 3f
       -2.0430875 -0.46015054 0.4136657 0.5026744
0001f0 83 21 d1 3e c0 3c 17 3f ef 17 14 bf ea 0a 66 bf
       0.4084588 0.5907707 -0.5784902 -0.89860404
000200 e8 76 53 bf 7a be a2 3f 46 dc 0f bf af 92 76 bf
       -0.8260331 1.2714379 -0.56195486 -0.9631757
000210 c0 b9 fb be 4a 84 f2 3e 69 b9 a7 bf 41 0c 27 3f
       -0.49165154 0.47366554 -1.3103458 0.6525307
000220 f0 2c 4b bf bb b9 f6 be 3f 8d f4 3e 43 ff 53 be
       -0.79365444 -0.48188576 0.47764012 -0.20702843
000230 2b 91 04 40 23 35 b3 bf c8 a8 9e 3e f8 cf 20 3f
       2.0713603 -1.4000591 0.30988145 0.62817335
000240 fc 62 cf 3f b0 59 11 3f 7e 92 89 be 36 af 8d bf
       1.6202083 0.5677748 -0.26869577 -1.1069095
000250 cf 17 ca 3f 18 b2 3e 3f 61 1e 4a bf 42 b0 e6 bf
       1.5788516 0.744905 -0.78952605 -1.802254
000260 8a b0 f2 3c 3d cf bd 3f f1 9a c4 bf 5f 88 00 c0
       0.029625196 1.4828869 -1.5359784 -2.0083234
000270 01 3d 36 bf fd 68 3a bd 42 ee 2c 3f dc 58 1f 3e
       -0.71186835 -0.04551028 0.6755105 0.15561241
000280 c6 0b 40 be e0 1c 5f be 0e a4 8d bf 7e da a0 3e
       -0.18754491 -0.21788359 -1.106569 0.31416696
000290 8f a1 86 3f a4 cd 98 3d 06 8d 0e bf e2 f4 7c 3c
       1.0518054 0.07461098 -0.55683935 0.015439244
0002a0 6c ce 15 be e2 fe d4 be 37 8b 49 3f 9d 1f a3 be
       -0.14629525 -0.4160071 0.7872805 -0.31860057
0002b0 4d a3 cb 3d 9b 91 e6 3f 45 2e 8f be 2a f9 a0 bf
       0.099432565 1.8013185 -0.27964988 -1.2576039
0002c0 91 76 eb 3f 37 47 05 3d 11 59 93 3f 5e a8 6e 3f
       1.8395559 0.03253862 1.1511556 0.9322566
0002d0 6f 35 09 3f 16 ae a8 3f e2 58 a8 bf da 10 88 3f
       0.5359716 1.3178127 -1.3152125 1.0630143
0002e0 04 d1 16 c0 26 c7 4f bf d7 75 7a be af 0a b6 bf
       -2.3565073 -0.8116325 -0.24459015 -1.422201
0002f0 55 6f 74 bd 1b af ce bd 3b 5e 27 bf 2c 91 fc bf
       -0.059676487 -0.100919925 -0.6537816 -1.9731803
000300 de b2 97 3f 2e d1 fc bf 43 6f d7 3f 50 8b c1 3e
       1.1851461 -1.9751337 1.6830829 0.378016
000310 8d dc a2 be eb 6d 85 3e 48 12 5c bf cd 6a 5b 3f
       -0.31808892 0.26060423 -0.85965395 0.8570984
000320 3b 01 8c 3f 7f 41 ea bf 34 4f 91 3f 94 d7 32 bd
       1.0937876 -1.8301238 1.1352296 -0.043662623
000330 6c dc 5c 3d e9 05 ed 3e c2 b4 45 be 39 46 85 bf
       0.05392115 0.46293572 -0.19307235 -1.0412055
000340 57 d2 e7 be 59 a2 91 be cb 58 62 bc 9c 4f bf be
       -0.45277664 -0.28444174 -0.013815115 -0.37365425
000350 b5 4a 01 bf ba 18 57 3f ab 2d 30 bf 26 ed a4 bf
       -0.5050462 0.84022105 -0.68819684 -1.2884872
000360 d5 16 90 bf 48 fe 70 3e 56 d5 22 be b1 35 b7 3e
       -1.1256968 0.235345 -0.15901694 0.3578315
000370 89 20 65 3f 9f 3f cc 3f 63 a2 0a bd 5b e8 99 bf
       0.8950277 1.5956916 -0.03384627 -1.2024034
000380 4d f6 4b bf 4f 46 8f bf 8c 25 81 bf da d2 1d be
       -0.796727 -1.1193331 -1.0089583 -0.15412465
000390 40 5e 39 bf 64 d1 4e bf 9e a4 70 be 6c e4 10 bf
       -0.7240944 -0.80788255 -0.23500296 -0.56598544
0003a0 dd 98 5b bf 94 8e 92 3f 25 c8 68 bf 50 4e 1a c0
       -0.85780126 1.1449761 -0.90930396 -2.4110298
0003b0 f8 e6 0a bf 19 05 58 bf d8 9b b3 3d e8 b1 16 bf
       -0.5425868 -0.8438278 0.08769959 -0.58865213
0003c0 24 ad 87 3e 06 8b 2e bf d6 3d 3d 40 14 9a da 3e
       0.26499283 -0.6818088 2.9568992 0.42695677
0003d0 53 57 52 3f dc 03 7c 3f 2f 71 59 bc 91 33 12 bf
       0.82164496 0.9844339 -0.013271614 -0.57109934
0003e0 c3 93 0e 3f 37 87 0d 3f ed f8 d9 3f 72 53 71 be
       0.55694216 0.55284446 1.7029091 -0.23566988
0003f0 ee e2 a4 3e 74 68 ec bf 0f 08 92 3f 2d 73 06 40
       0.32204384 -1.8469377 1.1408709 2.1007798

patch_compression.0.weight f4 [32, 49]
000000 6d 3b 3e be fa 33 06 bd 3f ed 5d 3e 07 e8 07 3c
       -0.18577357 -0.032764412 0.21672533 0.008295066
000010 85 e0 23 3e 28 68 4b 3d e5 cc 1f 3d 61 1c 85 bd
       0.16003616 0.049659878 0.039013762 -0.064995535
000020 1b 6f 51 3d b0 eb e3 bc a9 b6 2c 3e 87 1f 8f bc
       0.05113135 -0.027822345 0.16866554 -0.017471088
000030 8d 23 f0 3c 0e 37 db bd d4 19 0d be 0b da 0d be
       0.029313827 -0.1070386 -0.13779384 -0.13852708
000040 db 5a 01 3c 39 ef 57 3e 61 40 01 3e bc 38 01 3e
       0.007895197 0.2108735 0.12622215 0.12619299
000050 4d 94 53 be 46 52 21 be fa a8 7e bd a9 0d fc 3d
       -0.20662041 -0.15754041 -0.062172867 0.12307293
000060 55 e0 81 3e 75 4c f8 3d 9e ed 5a bb 7d 54 36 be
       0.25366464 0.12123958 -0.003340579 -0.17805667
000070 d8 2e 83 be 4f a0 25 be 29 e7 3b bc 53 6d 63 3e
       -0.25621676 -0.16174434 -0.011468687 0.22209673
000080 bc e6 57 3e ac e0 15 bd 28 d2 af be 25 a6 84 be
       0.21084112 -0.036591217 -0.34340024 -0.25908008
000090 5b 9e 8a bd e7 c5 10 3e b1 2d 53 3d 56 87 c2 3d
       -0.06768485 0.14137994 0.051557247 0.094984695
0000a0 fa ad 71 3d 8f 45 4c be a0 37 0a be c1 d9 06 be
       0.059003808 -0.1994841 -0.13497782 -0.13169004
0000b0 b6 7b 23 3e 2e 85 a0 3d a1 08 b0 bb 55 23 aa bd
       0.1596516 0.07837902 -0.0053721224 -0.0830752
0000c0 70 d7 56 bd b6 25 43 be 53 e4 81 be 87 a7 b6 bd
       -0.05245155 -0.19057354 -0.2536951 -0.08918672
0000d0 d2 63 93 be d9 8d 7d be ed 5f 80 be b7 cf 74 be
       -0.28787094 -0.24761142 -0.25073186 -0.23907362
0000e0 9e f7 9d bd 75 2b e2 bd e8 05 0b 3b f7 03 f2 3d
       -0.07713245 -0.11043445 0.0021213237 0.118171625
0000f0 b6 b6 2e bd 8c 6f 9f 3d f3 df 03 3d 2a a4 0d 3e
       -0.042654715 0.07784948 0.032195996 0.13832155
000100 a1 54 3d 3d 3a 68 8c 3d 78 91 4c 3e bd 71 7f 3e
       0.046223287 0.06855817 0.19977367 0.24945731
000110 4a 1d ee 3d 94 c7 50 3e 0b f8 40 3e dd 03 eb 3d
       0.1162668 0.20388633 0.18844621 0.11475346
000120 ab 44 44 3e 09 32 b3 bb 34 5c 59 3d 32 df c8 bd
       0.1916682 -0.005468611 0.053066447 -0.09808196
000130 c4 93 18 3e 4e 39 0e 3e c4 b2 4a bc 56 aa f4 3b
       0.14900118 0.13889048 -0.012371723 0.0074665947
000140 e6 72 95 bc 92 c8 63 3d 39 9e d7 3c 1d 8b 8b 3d
       -0.018243264 0.0556112 0.026320564 0.06813643
000150 e0 40 a5 3b 46 03 6b 3d 50 f0 ff bd d8 00 96 bc
       0.005043134 0.05737617 -0.12497008 -0.01831095
000160 fb ca 22 bd 18 00 14 be 97 49 3b bd 10 9e d7 bc
       -0.03974436 -0.14453161 -0.045724478 -0.026320487
000170 6e 3c 4c bd c9 2e 03 bd de 74 61 bb b5 f0 e1 bd
       -0.049862318 -0.03202704 -0.0034401934 -0.11032239
000180 33 3b 08 be 03 58 a2 be 3c 39 6e bb 36 9f 92 bd
       -0.13303833 -0.31707773 -0.0036350032 -0.07159273
000190 83 57 28 be 5d 4b dd bd 80 0b 6f be c2 a2 34 be
       -0.16439633 -0.1080539 -0.2334423 -0.17640212
0001a0 b7 73 07 be 9b 55 70 3d dc 60 71 bd 00 ca cd 3d
       -0.13227735 0.05867539 -0.058930263 0.10048294
0001b0 30 e2 21 bd 30 cf 20 3d 2f c5 00 be f3 bb 83 bd
       -0.03952235 0.03926009 -0.1257522 -0.06432333
0001c0 d8 2d 07 3e c5 c4 9a bd ad 0a e1 3d 2e a7 a9 3d
       0.13201082 -0.07557062 0.10988364 0.0828384
0001d0 43 99 68 bd c2 a8 e1 3c 29 69 84 bd eb 79 ae 3d
       -0.056786787 0.02754629 -0.0646537 0.08519348
0001e0 bd 5f fb 3d 5d 1b 9b bd 0e b2 d3 bc 86 7e 71 bd
       0.1227412 -0.075735785 -0.025841739 -0.058958553
0001f0 05 c1 08 be 17 77 9d be 4c 56 42 3e 29 be 69 bb
       -0.13354881 -0.3075492 0.18978232 -0.0035666323
000200 29 a6 0b 3e 1d bb 62 3d e0 49 3f 3d ea 58 d2 3d
       0.13637604 0.055354226 0.046701312 0.10270865
000210 34 56 2f 3d cf 0d 3d 3d 30 e4 98 3d 23 8e 7b 3d
       0.04280682 0.046155747 0.07465398 0.06141485
000220 c3 30 c8 bc a5 0c b7 3d b5 77 d8 3d 08 50 3d 3d
       -0.024437314 0.08937959 0.10569707 0.046218902
000230 ff 1d c4 3d 62 e2 e8 3d 36 e5 54 3d f5 47 83 3e
       0.09576034 0.11371304 0.051976405 0.25640836
000240 24 90 2f 3e 43 5d a6 3c fd 9a 56 3e 7b bd f5 bc
       0.17144829 0.020308143 0.20957561 -0.029997578
000250 30 5e a9 3d ba 35 79 b8 5b 3e d7 bd 28 df 21 be
       0.08269918 -5.9416263e-05 -0.1050994 -0.15807784
000260 4a a4 00 be 31 47 5d bd a2 d8 66 be 5c fd 16 be
       -0.12562671 -0.05402297 -0.22543576 -0.14745086
000270 51 8c cf bd 01 f0 ab bd 6d 46 9b bd 3e c0 28 3e
       -0.10134185 -0.083953865 -0.07581792 0.16479585
000280 3d b4 a1 3d 49 0f 8b be a8 74 91 3b 6b 61 bb 3d
       0.07895706 -0.271601 0.0044389553 0.091494404
000290 7f 71 8a bd e9 61 88 3d 0e b9 0b bd 36 72 83 3d
       -0.06759929 0.066593 -0.03411203 0.064182684
0002a0 7c 3e ef bd 9f ac ea bc 87 93 f8 3d 24 3b 18 3e
       -0.1168184 -0.028646765 0.121375136 0.1486631
0002b0 2b 95 ab 3c c7 e7 31 3e 34 24 32 3e a9 1f 6d be
       0.020945152 0.17373572 0.17396623 -0.23156609
0002c0 38 dc 0a 3d d8 53 24 3e 82 10 fc 3d 20 48 c3 3d
       0.033901423 0.16047609 0.12307836 0.09535241
0002d0 f7 35 a1 3c f9 3f 1d 3e e9 52 a0 be fe f3 9e bd
       0.019679053 0.15356435 -0.31313255 -0.077613816
0002e0 ed b0 cd bc 4c 11 e1 bd 56 c0 a6 3c f7 3c 20 be
       -0.025108779 -0.10989627 0.020355385 -0.15648256
0002f0 86 c0 65 be c7 6a 0a bd 4a f5 80 be 1d c3 af be
       -0.22436723 -0.033793237 -0.2518714 -0.34328547
000300 fe 6a 80 be 8c 0f a7 be 9f 41 3a be 6b b7 4b be
       -0.2508163 -0.3262905 -0.18189095 -0.19894187
000310 d5 14 9d be 9f fe b5 bd a4 f6 18 3c a5 1d 09 bc
       -0.30679956 -0.08886456 0.009336147 -0.008368884
000320 ce 27 c7 bc 7a 72 07 bd 5b 56 e3 bd 19 f9 6e bd
       -0.024310973 -0.033068158 -0.111004554 -0.058343027
000330 7b a6 30 be 00 13 7b be ba 08 34 bd 73 f5 4e be
       -0.17251007 -0.24518967 -0.043953635 -0.20210819
000340 d2 41 05 be cc c4 5f be 03 a2 8d 3e a5 7c fc 3c
       -0.1301339 -0.21852416 0.27662668 0.030821154
000350 80 2f e8 bd 93 d8 d6 bd ea 1a 16 3d b4 7c 68 bc
       -0.11337185 -0.10490527 0.03664676 -0.014189888
000360 94 ca 47 bd 37 43 86 3e 0a a4 1d 3e fc 6f 1a 3e
       -0.048777178 0.26223156 0.15394607 0.15081781
000370 0a 3e 36 3e fc 36 28 3e 94 ef f1 3d 3d b7 56 3e
       0.17797104 0.16427225 0.11813274 0.20968337
000380 e3 46 c3 bc 05 f7 09 3e 50 e9 65 3e 0d 79 0e 3e
       -0.023837512 0.13473137 0.22452283 0.13913365
000390 13 ec cc 3d e9 ad ce 3d 10 96 ae 3d 5e 1f 48 be
       0.10005965 0.100917645 0.08524716 -0.19543216
0003a0 1b e8 c3 bb 35 9a 0d 3e 86 62 51 bc ab 16 8a bd
       -0.005978597 0.13828357 -0.0127798375 -0.06742605
0003b0 2a 7c 14 be 25 8d 2c be 18 89 f0 bc 62 11 45 be
       -0.1450049 -0.16850717 -0.029362246 -0.19244912
0003c0 f8 1d 5d be 8a 8c 33 be c6 de 9b bc d3 ca 65 bd
       -0.21593463 -0.1753408 -0.019027125 -0.05610163
0003d0 72 89 0b 3d ae d6 3c bd 65 cd 4c be dc c4 ff bd
       0.034066625 -0.046103172 -0.20000227 -0.1248872
0003e0 98 66 9f bd 8c 8a 13 be 9b b3 b8 3c 58 d4 4a 3c
       -0.0778324 -0.1440832 0.02254658 0.012379728
0003f0 1e ce 15 be 49 bf 1a be 64 2c 9d 3d d6 7b a9 3d
       -0.14629409 -0.15112032 0.076744825 0.08275573

patch_compression.0.bias f4 [32]
000000 e5 28 12 be 8f 7a ab bd c3 c5 09 bd a3 1f 98 bd
       -0.14273413 -0.083729856 -0.033635866 -0.07427909
000010 b8 62 69 ba a4 c6 c5 bd eb eb fb 3b cc 78 37 3d
       -0.0008902955 -0.09657028 0.0076880357 0.044792935
000020 19 9a 1d bd 27 3e ae 3d 3f 4d 00 3c 16 2a d2 3d
       -0.038477037 0.08507948 0.007830917 0.102619335
000030 ca f0 1f bd 6a ac f2 bd 8a ba 0c 3e 4c 55 d9 bb
       -0.039047994 -0.118492916 0.13743034 -0.0066324826
000040 10 d4 f8 3d 14 d7 3d be f6 a4 76 3d d0 6a 0a be
       0.12149823 -0.18539077 0.060215913 -0.13517308
000050 f1 ef 07 be 6b 52 dc bd d3 16 09 be 72 a1 f2 bd
       -0.13275124 -0.107579075 -0.13387613 -0.118471995
000060 a4 35 06 be d1 24 48 bc 98 ba 2f ba 65 c0 3f bd
       -0.131064 -0.012215809 -0.0006703525 -0.04681434
000070 48 ce 6c bd af 6f ce bb 19 87 96 3d 13 a5 d4 3c
       -0.057813913 -0.006299935 0.073499866 0.02595762

patch_compression.2.weight f4 [64, 32]
000000 20 b2 8a 3d 47 0c d6 bd bd c5 d3 3c 5a 4e 33 bd
       0.06772256 -0.104515605 0.025851125 -0.043775894
000010 0a 82 13 be a4 f9 e4 3c 26 b4 a9 3d 69 36 de bb
       -0.14405075 0.02795107 0.08286314 -0.0067813885
000020 64 a4 b3 3d d6 fb ea bd 61 54 b3 bb f6 bf 05 bd
       0.087715894 -0.11473815 -0.0054727052 -0.03265377
000030 29 32 85 3c e3 b7 c3 3c 22 31 e5 3d d1 ad 5f be
       0.01625927 0.023891395 0.11191012 -0.2184365
000040 64 3b 31 3c b1 bd 17 be 1e f9 d7 3d db 11 16 3e
       0.0108173825 -0.14818455 0.10545562 0.14655249
000050 05 17 21 be 9a b9 1a be b8 e1 fc bd db 4a 55 bd
       -0.15731438 -0.15109864 -0.1234774 -0.05207334
000060 1b d4 14 bd 10 f8 e5 3d ac 9d 1f bd f0 31 29 bd
       -0.036335092 0.11228955 -0.038968727 -0.04130739
000070 03 7d f2 bd d1 ce b1 bd 8b 07 a9 be d2 97 e2 bc
       -0.1184025 -0.08682025 -0.33013567 -0.027660284
000080 fe 3f 77 3e 87 30 34 3e 4b 6f 3c be 12 22 25 3e
       0.24145505 0.17596637 -0.1840183 0.16126278
000090 38 e9 01 3d 66 71 1f 3e 58 e1 68 bc 1c e2 66 be
       0.031716555 0.15570602 -0.014213882 -0.22547191
0000a0 cc a5 44 3d e2 a3 9b bd 10 d3 0e bd b8 db b0 bc
       0.04800968 -0.075996175 -0.034869254 -0.021589145
0000b0 3e a3 a5 bd 03 28 8a 3d d0 34 df 3d 98 bb 31 be
       -0.080877766 0.06745913 0.10898745 -0.17356718
0000c0 c7 aa f0 bd 9c d8 f3 bc 58 15 78 3e 20 5e c0 bc
       -0.11751323 -0.029766373 0.24226892 -0.023482382
0000d0 33 18 1c 3e 51 bc 37 3e 28 65 61 3e a0 ac b4 3d
       0.15243606 0.17942931 0.22011244 0.08821988
0000e0 4e 53 89 bb a0 51 e2 3c 80 2b 81 be ba 73 a0 3c
       -0.004190839 0.027626812 -0.252285 0.019586433
0000f0 92 7e 9c 3d 94 fd e9 3d a5 74 e2 3d 4f c2 fc bd
       0.07641329 0.11425319 0.110574044 -0.12341749
000100 27 09 fe bc ec 94 36 3d d8 1e 90 3d f1 80 a6 bd
       -0.031010224 0.044575617 0.07037133 -0.08130062
000110 2e 29 23 be ec ce a1 be bd f7 06 bd 33 11 90 3c
       -0.15933678 -0.3160318 -0.032951105 0.017586326
000120 07 a2 3f 3d ba e3 04 3e b6 61 ed 3d cb 54 97 3e
       0.04678538 0.12977496 0.115909025 0.2955688
000130 a0 11 49 3e 82 f9 7a be fa 4b 06 3e 64 37 1a 3c
       0.1963563 -0.24509242 0.1311492 0.00941262
000140 fb 8c 6b bd 53 2d 1e be 2a e0 f6 bd d2 5d 82 3d
       -0.057507496 -0.15446977 -0.12054475 0.06365551
000150 13 f9 49 3e 9e 22 12 3e be fb 93 3c b2 36 1e 3d
       0.1972392 0.14271018 0.018064376 0.03862638
000160 f2 f0 b7 bd e8 29 62 3d 03 07 64 be 0b 1d 93 3d
       -0.089815035 0.055215746 -0.222683 0.07183274
000170 76 82 14 3e b7 0d a6 3d 12 aa c5 bd c1 9b 5c be
       0.14502892 0.08108085 -0.09651579 -0.2154379
000180 23 b0 c9 bd 2a 4b 6d bd 2c 77 4d be 81 6f 91 3d
       -0.098480485 -0.05793301 -0.20064992 0.07101346
000190 5b 71 85 3e a1 de 28 3d 90 73 47 be bd 33 7e bd
       0.26063046 0.04122794 -0.19477677 -0.06206106
0001a0 1d fc 73 be 2e 87 96 be af 58 40 3d 29 14 e2 3d
       -0.23826642 -0.2940001 0.046959575 0.110390015
0001b0 ac 0a 2e bd 2c a6 32 3e a8 25 04 3d 21 ec 46 3e
       -0.042490646 0.17446202 0.032262474 0.19426014
0001c0 68 e0 08 be 64 3f 66 be 3c 02 7a 3e 79 b4 88 bd
       -0.13366854 -0.22485119 0.24414915 -0.066750474
0001d0 75 40 7f 3c 56 ac 0b be 3f 76 17 bd 5c 65 2d 3c
       0.015579333 -0.1363996 -0.036978003 0.010583248
0001e0 9f 78 cf 3d 0d 7b c2 bd f2 da 71 3e 72 12 e9 bc
       0.101304285 -0.09496126 0.23618677 -0.028451178
0001f0 c6 2f ea bd 45 10 79 be 1b fd 95 3e 84 ec 96 3d
       -0.11434893 -0.24322613 0.29294667 0.073693305
000200 99 cc 57 be c2 34 23 bd b6 c2 b0 3d 3e a2 97 be
       -0.21074142 -0.039845236 0.08630888 -0.29615968
000210 8d d6 aa 3d 97 6b b3 be cd 13 0d 3e 69 06 39 bd
       0.083417036 -0.35043022 0.13777085 -0.04517213
000220 ad f4 ca 3d 59 f7 c6 bd fb e2 1b 3e 04 f3 2a be
       0.099099495 -0.097151466 0.15223305 -0.16694266
000230 7c 65 ce bd 10 42 67 be 98 94 07 3e 73 0c 84 3e
       -0.1007795 -0.22583795 0.13240278 0.25790748
000240 e5 a0 fa 3c 63 b5 06 3d 01 6c 03 bd a1 5e 55 be
       0.030594299 0.032887828 -0.032085422 -0.2083688
000250 79 6e 71 3c d0 bd b4 bd d4 ad 6c 3d b5 c4 18 be
       0.014735811 -0.08825266 0.057782963 -0.14918788
000260 e1 71 6c 3d 5a d9 aa 3d d5 54 98 3d 2f f0 2c be
       0.05772579 0.08342238 0.074380554 -0.16888498
000270 97 ca 7c 3e 29 5c c5 bd 68 e9 15 be ff ce 94 bc
       0.24686657 -0.09636719 -0.14639819 -0.01816511
000280 8d 20 11 3e fb 61 3f be 5e 64 7f 3d 56 ee b8 bd
       0.14172573 -0.1868972 0.062351577 -0.09029834
000290 21 98 68 be b2 26 d5 3c b3 ed 4a be d4 ed 04 3e
       -0.22714283 0.026019428 -0.19817238 0.12981349
0002a0 27 f7 9f 3d 5b b7 b4 3d e0 fb 28 be bf 43 c8 3d
       0.078108124 0.08824035 -0.16502333 0.097785465
0002b0 3a 07 ad 3d f5 4b e9 bd 83 38 2f be 8f d6 1b be
       0.08448644 -0.11391441 -0.17111401 -0.15218566
0002c0 5d 75 47 3d 96 fe 6c be 7d 4f b6 bd ac 36 07 3e
       0.04869591 -0.23143992 -0.0890188 0.1320445
0002d0 d4 8b 26 ba f2 8d f3 bd 3e ec 48 3c d8 dc 3d 3e
       -0.00063532335 -0.11892308 0.012263356 0.18541276
0002e0 65 0d 26 be 4b 89 fb 3d f0 bd d9 3d 2f 48 a7 3c
       -0.16216047 0.12282046 0.10631931 0.020420162
0002f0 2f 9d 90 be e9 14 f8 bd 5a 6d 5c bc a4 35 9f 3e
       -0.28244922 -0.12113363 -0.013453806 0.31095612
000300 52 bd b6 bd 6b a4 da 3d 1e 64 91 be 2b 3f 44 be
       -0.08922829 0.106758915 -0.28396696 -0.19164722
000310 f6 85 20 bc 01 42 6c bd e8 5f 7a 3e 7a 83 29 bd
       -0.009797564 -0.057680134 0.24450648 -0.04138515
000320 2a 69 d0 bd a7 1b 43 3e 26 0b 65 3d a6 57 57 bc
       -0.101763085 0.19053517 0.055918835 -0.013143456
000330 f8 4c 68 3c 7a ce d2 3d 98 cf 69 3d 9e 78 85 3d
       0.014178507 0.102932885 0.057082742 0.065171465
000340 f1 c4 50 3e 32 bd 4d 3d b7 45 10 be c2 42 4d 3e
       0.20387627 0.05022926 -0.14089094 0.20044997
000350 ba 79 e6 3d 50 cb ef 3d 03 85 6e bd b4 8c ce 3b
       0.11253686 0.11708701 -0.05823232 0.006303394
000360 cc a9 89 bc 63 ec 79 3e 1d fa 53 be a7 a7 dd bd
       -0.016804598 0.2440658 -0.2070088 -0.10822993
000370 74 db 50 3c bf 02 71 3e e3 16 78 3e 08 78 0e be
       0.012747634 0.23536204 0.2422748 -0.13912976
000380 f0 23 90 3e bb ea 96 bd 71 f2 f5 3d bd d0 3f 3d
       0.28152418 -0.0736899 0.12009133 0.046829928
000390 59 70 e4 3c ff 50 03 bd 1a 63 0a be 71 a0 44 be
       0.027885603 -0.032059666 -0.13514367 -0.19201829
0003a0 94 1e 4a 3e 88 43 03 bd 59 d9 c9 bd 8e e2 d6 3c
       0.19738227 -0.032046825 -0.09855909 0.026231077
0003b0 c4 e0 26 3e 2e 5a 8f 3d 9e 98 9d be 96 99 99 bc
       0.16296679 0.06999622 -0.307805 -0.018749993
0003c0 ce 43 bf bc c6 33 72 be d4 1b dc bb 65 94 c1 3d
       -0.023347761 -0.23652562 -0.0067171846 0.09452132
0003d0 81 28 1c 3e ae 9a 87 bd 5b d8 7e be dd c2 13 3d
       0.15249826 -0.066213 -0.2488722 0.036074508
0003e0 2a ce 59 be 28 f8 0e be f5 19 c9 bd 45 55 fe 3d
       -0.21270052 -0.13961852 -0.09819404 0.124186076
0003f0 73 7b 3c bd 8a 4f 70 be 7d 17 b0 bd 84 0b a0 3e
       -0.046016168 -0.23467842 -0.0859823 0.31258786

patch_compression.2.bias f4 [64]
000000 b0 d1 73 3c 8e 2e d8 bd 6e 78 45 3e e9 00 b8 bd
       0.014881536 -0.105557546 0.19284222 -0.089845486
000010 e7 b1 ea 3b d8 4a 08 bd df 5d 35 be b7 21 f6 bd
       0.007162321 -0.0332745 -0.1771159 -0.12018149
000020 d4 03 02 3e fb 38 99 bd 08 51 0c 3e 27 88 e8 bd
       0.12696773 -0.07481571 0.13702786 -0.11354094
000030 28 12 e1 bd ec f9 04 be f9 dd e1 bd 5b c9 61 bd
       -0.10989791 -0.12985963 -0.11028666 -0.05512367
000040 ed 29 2b 3e 67 f7 d1 bd 1d 8c 38 bd ed 01 d8 3d
       0.16715212 -0.102522664 -0.045055497 0.10547242
000050 27 e2 d6 3d c5 75 20 3e ea 4b ba 3d 5f 85 06 3e
       0.10492354 0.15669926 0.09096511 0.13136815
000060 62 59 7d 3d ca 53 91 3c 42 76 4a be 54 73 85 3d
       0.06185282 0.017740149 -0.19771674 0.06516138
000070 08 64 98 3c 99 60 a7 3d 02 83 95 3c 1b f8 05 be
       0.018602386 0.081727214 0.018250946 -0.13082926
000080 1b ed 2a be 27 d4 e9 3c b4 9e 27 3d 70 df 1b 3e
       -0.16692011 0.028543545 0.040922835 0.15221953
000090 5d 63 78 bd 5e 93 ba 3d aa 5f 51 be a2 bc 94 3b
       -0.060641635 0.09110139 -0.20446649 0.0045390883
0000a0 53 a1 a3 be c0 ba 8f 3e e7 dd 63 3e 08 5f e9 3d
       -0.31959018 0.28072166 0.22252618 0.11395079
0000b0 3d f4 d7 3b 91 9b 46 be ba 21 fe 3d a1 df 89 3e
       0.006590395 -0.19395281 0.124087766 0.26928428
0000c0 c9 0d 89 bd e7 11 0a 3e c2 dd 05 3e d5 8d 0a 3e
       -0.066920824 0.13483392 0.13072875 0.13530667
0000d0 76 68 c5 3c 80 77 d7 bd e0 75 e4 3d da 47 a2 be
       0.024097662 -0.1052084 0.11155295 -0.31695443
0000e0 c3 fe 6a bd 36 d7 4f bd eb 77 25 3d a7 73 4c 3d
       -0.057371866 -0.05074235 0.040397566 0.049914982
0000f0 94 7b c6 3d 1e 87 58 bd 7d 0c 50 3e 6c 2c 34 3d
       0.096915394 -0.052863233 0.20317264 0.043987677

transformer.layers.0.self_attn.in_proj_weight f4 [192, 64]
000000 d6 85 85 3e 62 3b 8d 3e 5a 7b 15 3e 13 fa de 3c
       0.2607867 0.27584368 0.14597836 0.027218854
000010 6f ed 8a 3d 6f aa 37 bd b8 2b 08 3e 36 48 29 3a
       0.06783568 -0.044840273 0.13297927 0.00064575986
000020 a7 fe bc 3c dd 0d 2f 3e e7 87 af 3d e5 ed 2d 3e
       0.023070646 0.17095132 0.08570843 0.16985281
000030 1f f9 76 3d bf b5 8b 3e ad 8f 5c 3e fb f4 8a 3e
       0.060296174 0.272871 0.21539183 0.2714003
000040 9b fc 8b bc 65 8c df bc 77 45 83 3e e3 a7 28 bd
       -0.017088225 -0.027288625 0.25638935 -0.041175734
000050 f2 60 ee bd ff 25 c2 3d 38 37 bb 3d 02 03 21 bd
       -0.116395846 0.094799034 0.091413915 -0.03930951
000060 45 6a 44 3e 04 7b c2 bc 53 c1 ed 3d 0f 2a d1 bc
       0.19181164 -0.023740299 0.11609139 -0.02553275
000070 e0 92 15 be f2 1b d3 bc b9 4e 95 3d 1c 07 79 3d
       -0.1460681 -0.025770161 0.07290406 0.060797796
000080 30 52 e2 bc d2 78 62 bd ab 3c fc 3d 89 99 87 be
       -0.02762708 -0.055291004 0.12316259 -0.26484326
000090 7c c2 f8 bd 64 03 be 3d 28 53 71 be 4b 53 fc 3c
       -0.1214647 0.092779905 -0.23566878 0.030801436
0000a0 a5 da e4 3d 37 95 67 3e d2 d5 94 bc 3f f7 42 3e
       0.11174516 0.22615515 -0.018168364 0.1903963
0000b0 f7 d1 e6 bd 18 cc 43 bd 28 d6 82 3d 2e 12 e5 3d
       -0.11270516 -0.04780206 0.06388503 0.11185108
0000c0 da f8 c4 3c 99 92 60 3d 91 b4 e9 3c ff 47 b0 bd
       0.024044443 0.054827306 0.028528484 -0.08607482
0000d0 d0 06 f2 bd a0 47 56 bd 61 49 ab bc c4 09 b9 3c
       -0.11817706 -0.0523144 -0.020909013 0.022587664
0000e0 96 56 ac be 61 2c 29 3e 19 3e 83 bc f4 99 8b 3e
       -0.3365981 0.16520835 -0.016020821 0.27265894
0000f0 7a 5f b0 bb d4 f7 e1 3d 99 1f 70 bd d5 80 f7 3d
       -0.0053824754 0.110335976 -0.058623884 0.1208512
000100 7a 20 9a 3d e2 cf 08 bb fb 3e 44 bd 54 33 0a 3c
       0.07525726 -0.002087586 -0.047911625 0.008435089
000110 80 b7 a1 3c cb 78 46 bd 5e c2 aa 3c f5 cf 79 bd
       0.01974082 -0.04845504 0.020844635 -0.06098934
000120 fc 44 d1 bd 7e 60 f1 3d 07 16 0e 3d c5 43 1e 3e
       -0.10218236 0.117859825 0.034688976 0.1545554
000130 2b 09 26 3e 2d 1e 8f 3d 81 1a 75 3c f4 a4 77 3d
       0.16214435 0.069881774 0.014959932 0.060460046
000140 3e d2 12 3e 2a 2a 36 be 94 a5 a9 bd 10 78 0c 3e
       0.14338014 -0.17789522 -0.08283535 0.13717675
000150 24 0f ad bd 40 b1 43 3d c8 87 c1 3c 5e fc 51 bd
       -0.084501535 0.04777646 0.023624316 -0.051266067
000160 44 cb 4b be dc 05 02 be 16 25 8c bc 85 d0 f3 3c
       -0.19901758 -0.12697548 -0.017107528 0.029762516
000170 46 38 80 3d e6 b8 3d be 89 b8 1c bc 1e d0 6d 3d
       0.06260733 -0.18527564 -0.009565481 0.058059804
000180 c3 50 3c be 58 cb 9b 3c 21 e8 46 3e cb ae 0a be
       -0.18390183 0.01901786 0.19424488 -0.1354324
000190 6f 1b 34 bb 48 87 da bd 08 53 32 bd 62 3d 84 b9
       -0.0027482172 -0.10670334 -0.043536216 -0.00025222736
0001a0 ed 19 c4 3d 7f 9c 3a bd 7e 82 a1 3d c2 2c 12 3e
       0.095752575 -0.045559403 0.078862175 0.14274886
0001b0 9f de 1c bd 6a 1b ad 3c a0 be 8e bd 18 af e9 bd
       -0.038298246 0.021131236 -0.069699526 -0.114103496
0001c0 12 59 4d be 8b 2c 2a 3e 57 4d b2 bd 0a a5 34 3d
       -0.20053509 0.16618554 -0.08706158 0.044102706
0001d0 91 a4 18 3d a9 e3 82 3d 0e ab 8f bd c6 0f 90 bc
       0.037266318 0.06391079 -0.07015048 -0.017585646
0001e0 72 90 49 bb af 51 2c bd 15 c1 78 bc aa 64 d1 bd
       -0.0030756262 -0.042070087 -0.015182753 -0.10224278
0001f0 1e 94 ad bb 3f 26 c3 3d d7 3d 47 3e 10 e0 80 3e
       -0.005297198 0.09528779 0.19457184 0.25170946
000200 fd 7d 7a be 7e 90 44 bd 40 61 be 3d 3b f3 95 3d
       -0.24462123 -0.04798936 0.09295893 0.07321783
000210 c0 02 18 3d a7 0b 4f bd 52 dc 1d 3e cc c5 00 be
       0.037111998 -0.050548222 0.15416077 -0.12575454
000220 a4 80 0a 3e 80 af b1 be 75 0c 99 3c 5f 03 25 be
       0.13525635 -0.34704208 0.018682698 -0.16114567
000230 7c f8 8b 3e 83 23 db 3d dd b4 8e be cc 0e f0 bd
       0.27338016 0.10700133 -0.27872363 -0.11721572
000240 6e ac 07 3e b7 ea ff bd 35 0e 6d bd d9 8e 91 3d
       0.1324937 -0.1249594 -0.057874877 0.07107324
000250 23 77 07 be bc f1 45 3d 8d 6d 14 3e 64 50 5e 3d
       -0.13229041 0.04832624 0.14494915 0.054275885
000260 31 da 97 3b cf 57 ae bd f7 8e 02 3d 91 9a bb 3e
       0.0046341647 -0.08512842 0.031874623 0.36641362
000270 29 e3 41 be 86 bf 9c bc a1 7b 0b 3e 25 3f ff 3d
       -0.18934311 -0.019134294 0.1362138 0.12463216
000280 93 4e 2d bc 56 1c 79 3d 2e 08 95 bd a3 c4 fb bd
       -0.010577816 0.06081804 -0.07276951 -0.12293365
000290 bb 02 ff bd 17 9c 87 3c 6a 9e d0 3b 94 65 b4 bd
       -0.12451693 0.016553922 0.0063665407 -0.08808437
0002a0 86 a5 b5 be ae dd 65 3e 9f 78 1f 3e f5 59 4c bd
       -0.35477847 0.22447845 0.15573357 -0.049890477
0002b0 e6 2d bc bd 48 e6 98 3d de 9f 68 3e f6 02 84 3d
       -0.09188442 0.07465798 0.22717234 0.06445877
0002c0 8f 5b 1c 3d b1 56 00 bd 49 d4 0a 3c 6a c2 37 be
       0.038173255 -0.031332675 0.008473464 -0.17945257
0002d0 dd e4 cb bd 5c 54 6b 3d 3a 1c c8 3d b9 1e 87 bd
       -0.099557616 0.0574535 0.09771009 -0.06597657
0002e0 4a 63 5d bd 84 4f 42 be 2d 9e d0 bd 48 6d 78 be
       -0.054049768 -0.18975645 -0.1018642 -0.24260437
0002f0 38 cd 2f 3e ed fc 0d 3d a6 90 d1 3c 03 fd 5b bc
       0.17168128 0.034665037 0.025581669 -0.013427022
000300 8a 10 42 bd 9a 6d 3b 3b 57 af 28 be 26 60 77 bd
       -0.047379054 0.0028599263 -0.16473137 -0.06039443
000310 98 36 38 3d ce ca 87 3b 16 4b 49 bd d3 b6 e1 bd
       0.04497394 0.0041440492 -0.049143873 -0.11021199
000320 aa a2 69 bd 3d 18 d6 3d 43 8c 02 be b8 07 fa bd
       -0.057039894 0.10453842 -0.12748818 -0.122085035
000330 fe f9 13 3d a1 a0 d8 3d f3 e5 07 be c5 db f9 3d
       0.036127083 0.105775125 -0.13271312 0.12200121
000340 6f 8e 85 bd 66 21 b9 bc 91 f4 7b bd 69 ac 3c bd
       -0.06521308 -0.022598933 -0.061512534 -0.04606286
000350 c7 26 ed 3d a2 8d 3c 3e 25 ad f8 bc cc ae c2 bd
       0.11579662 0.18413404 -0.030356 -0.09505996
000360 e9 2b f4 3c 04 fc 04 be 22 c9 63 be aa a4 13 be
       0.029806094 -0.12986761 -0.22244695 -0.14418283
000370 c3 f3 d8 bd 57 a7 06 3e be 57 cb 3d e6 af 35 3d
       -0.10593369 0.13149773 0.09928845 0.044357203
000380 18 af a9 3d ec 00 1d bd b1 0f 72 bd 6e d6 16 3d
       0.082853496 -0.038330957 -0.059096996 0.03682559
000390 21 e8 b9 3d 11 e5 40 3d 03 c3 12 3e 22 a7 ef bc
       0.09077478 0.047093455 0.14332204 -0.0292545
0003a0 99 5a 3e 3d 11 84 59 bd 11 6f 5a 3d 93 74 55 3d
       0.04647312 -0.053104464 0.053328577 0.052113127
0003b0 45 31 00 3d ad 1d e1 bd ef 18 ea bc a9 c5 36 be
       0.031296987 -0.10991988 -0.028576342 -0.17848839
0003c0 02 84 03 bd 95 d9 5e 3d 4e e5 18 bc 67 d9 15 3e
       -0.032108314 0.05440672 -0.009332014 0.14633714
0003d0 59 1c dd bd f6 58 3b 3e ed 91 80 bc 9a 44 83 bd
       -0.107964225 0.18295655 -0.015694583 -0.06409569
0003e0 7d 54 a9 bd 50 7a 17 bd 82 9f 4c bd c6 9e 2d 3d
       -0.08268068 -0.03698188 -0.049956806 0.042387746
0003f0 10 9a 47 3c 72 8f 73 be 50 2d 6c 3d 10 9b 35 3d
       0.012182727 -0.23785189 0.0576604 0.044337332

transformer.layers.0.self_attn.in_proj_bias f4 [192]
000000 8d b1 9d bb 45 41 08 3d 41 1b 0c 3e 62 da 6a bb
       -0.0048124255 0.03326537 0.13682272 -0.0035835733
000010 de 29 a4 3b d7 79 94 bd 04 c0 33 3d 35 05 19 3d
       0.005009874 -0.072498016 0.043884292 0.03735848
000020 28 29 22 bc ce e2 47 3b 6c 2f a3 3c 69 d0 da 3c
       -0.009897508 0.0030500176 0.019920073 0.026710706
000030 99 cf e2 bd 08 b9 7e 3c cc da 16 be b2 d1 95 bd
       -0.11074752 0.015547045 -0.14731902 -0.07315387
000040 73 2d 1b bd 61 b6 e8 3d a7 44 50 bc 97 93 47 3d
       -0.03788514 0.11362911 -0.0127116805 0.048724737
000050 53 ef 95 3d ac 2a 8a 3d 2d ca 36 3c 98 b6 0a 3d
       0.07321038 0.0674642 0.011156601 0.03386554
000060 51 36 95 3d 36 c0 c5 bc e2 d5 3f 3c 97 fa 57 bd
       0.07285751 -0.024139505 0.0117087085 -0.052729215
000070 ee 11 99 bc 37 6d 08 bd 31 b5 ca 3d 2d 18 2f 3d
       -0.018685307 -0.03330728 0.09897841 0.042747665
000080 4f f6 b8 3d c3 e4 d4 bd be 7e 8f bd 5e 19 54 3d
       0.09031355 -0.10395195 -0.07006596 0.051782005
000090 f2 14 96 bd 10 cf 21 be fe 6c 70 3d 68 fc 13 bd
       -0.07328214 -0.15801644 0.058697693 -0.036129385
0000a0 1a 67 44 bd fe ff 41 bd 00 74 91 3c 41 9e 67 bd
       -0.047949888 -0.047363274 0.017755508 -0.056547407
0000b0 b3 4c 02 bc 75 b8 5e 3d 46 fc b2 3c 68 f1 35 3c
       -0.007952857 0.05437513 0.021848809 0.011104919
0000c0 bd 2b 35 bd 8a 87 8c bd 36 96 90 3a 49 8e a2 3d
       -0.044231165 -0.068617895 0.0011031094 0.07937295
0000d0 2e 48 6d bd c9 ec 2c 3d b3 b5 5e bd dd f1 61 bb
       -0.057930164 0.042218003 -0.0543725 -0.0034476437
0000e0 e6 4a ee 3c 32 6c 35 bd ae 4f 76 bd c8 c1 41 3d
       0.029088449 -0.044292636 -0.060134582 0.047303945
0000f0 31 2d d7 3c cc 38 7f bd 14 8d 8d bc 9f 5b 07 3d
       0.026266666 -0.062310025 -0.017279185 0.03304636
000100 b9 9f 62 bb cb 87 e9 39 12 7d 10 3c 65 c7 46 bb
       -0.0034580065 0.00044542397 0.008818882 -0.003033125
000110 f6 9c f6 3a 66 60 b6 ba 60 a1 47 3a 06 50 6b bb
       0.0018815089 -0.0013914227 0.00076152943 -0.0035905852
000120 f0 35 74 3c 81 80 27 3b f1 a7 40 bc ff 1f 90 bb
       0.014905438 0.0025558772 -0.01175879 -0.0043983455
000130 af d9 b6 3b c6 bc a7 bc 3d 7d 2e 3c 1c 83 4b b8
       0.005580149 -0.020475756 0.010649976 -4.8521077e-05
000140 b2 e1 8b 3b 68 ca da 3b 0d 09 f7 3a f3 77 4a 3b
       0.0042688483 0.0066769607 0.0018847302 0.003089425
000150 98 2b 55 bb 26 b4 bf ba df 63 22 bc 6b 7d 0d 3b
       -0.0032527205 -0.0014625832 -0.009911506 0.0021589648
000160 e3 d5 91 3b b3 08 30 ba f6 ca 28 3b 36 76 80 3b
       0.004450546 -0.00067151635 0.002575574 0.003920342
000170 32 1e a4 bb 80 f9 ff 3b 89 eb 8e bc 7a ef 43 bb
       -0.0050084824 0.007811725 -0.017446296 -0.0029897378
000180 84 5d 3d 3b 76 f7 91 bb f3 79 27 bb 96 9f 20 bc
       0.002889485 -0.0044545485 -0.0025554865 -0.009803673
000190 d6 ea f2 3b 1a 40 e4 39 ac 0f 27 3c 60 47 05 3c
       0.0074132485 0.00043535308 0.010196608 0.008134693
0001a0 18 dd c7 bb 7f 1b a2 3b dc 32 39 3c 76 0d c5 bb
       -0.0060993545 0.0049471254 0.01130363 -0.0060135676
0001b0 cf 31 3c bb 83 a6 58 3c 92 d8 91 ba 2a 0d be 3a
       -0.0028716212 0.013223293 -0.0011127165 0.0014499773
0001c0 47 aa c1 bc cb 3a 36 3c 07 21 1e bb 66 59 a1 3c
       -0.023640765 0.011122416 -0.0024128573 0.019695949
0001d0 90 2b 19 3c 17 1d 0d bc bd 47 74 3c 7a 8e 49 3c
       0.009348765 -0.008612893 0.014909682 0.0123020355
0001e0 7f eb 04 3b fd e1 dc bb 8a 6e 06 bc 17 7f e6 3b
       0.0020281968 -0.006740807 -0.0082050655 0.0070341933
0001f0 c6 93 34 3c 45 2f 96 b6 a1 a3 50 3a 89 65 4c bc
       0.01102156 -4.4758513e-06 0.0007958953 -0.01247538
000200 84 59 ba 3c 17 b8 bb 3c 90 9b ab bd e0 fc 8e bc
       0.022747763 0.02291493 -0.083792806 -0.017454565
000210 94 63 80 3c cc 54 a6 3b 72 c3 da bc d4 80 2e 3d
       0.015672483 0.0050760265 -0.026704524 0.04260333
000220 c5 6f 32 3b 88 2d 46 3c 1f 3d 0b 3d 54 36 35 bd
       0.0027227264 0.012095816 0.033993836 -0.044241264
000230 57 6f f1 3c af 04 d5 bc be ab 3f bd 7b 59 9a 3c
       0.029472036 -0.02600321 -0.046794645 0.018841496
000240 e8 ba 04 3d de b3 0f bd e0 47 2d 3d 80 b9 58 bb
       0.03240481 -0.035083644 0.042304873 -0.003306955
000250 e4 c8 c9 3d c5 84 d6 bc f9 28 c7 3d ee 12 10 3d
       0.0985277 -0.026186356 0.09724612 0.035174303
000260 ed 36 52 3d 6c 5f 99 3c d8 f2 9c 3d 8f fa 57 3b
       0.051321913 0.018722259 0.07663506 0.003295574
000270 86 62 14 bd a1 01 c8 bc 60 e6 13 3d 23 58 9e 3d
       -0.03622677 -0.02441484 0.036108375 0.077316545
000280 b6 1c 95 bc 06 8f 14 bd 9b 63 8e bc c1 da 47 bd
       -0.018202167 -0.03626921 -0.01738148 -0.048792604
000290 c6 5b 11 39 ba 05 9d bc 4c 83 1e 3b be 6f 27 3d
       0.00013862466 -0.01916777 0.0024187146 0.04087805
0002a0 00 f7 9f bb 43 1a 4b 3d 55 77 03 bd fb d4 5e 3c
       -0.0048817396 0.049585592 -0.032096226 0.013600583
0002b0 34 0d be bd a6 e8 e5 bc 95 bf 6e 3c f4 ab 25 bb
       -0.09279862 -0.028065037 0.014572044 -0.0025279494
0002c0 90 44 07 bc 34 c2 57 bd 8f c4 72 3d eb 13 48 bd
       -0.008256093 -0.05267544 0.059269484 -0.04884712
0002d0 f2 2d 10 bd 11 4d 21 bd 93 be 99 3a b8 bd 00 3d
       -0.035200067 -0.039380137 0.0011729769 0.03143093
0002e0 40 e3 b1 bd 59 34 a0 bc 15 c7 17 3d 14 0a 5c 3d
       -0.086859226 -0.019556211 0.037055094 0.05372055
0002f0 63 9a 1e bd c4 44 67 3d 59 ee 59 bc 60 2e cc bc
       -0.038721453 0.056462064 -0.013301455 -0.024924457

transformer.layers.0.self_attn.out_proj.weight f4 [64, 64]
000000 bd ec bd bd b4 bd 97 3d 22 66 30 3e 6f 10 08 be
       -0.0927367 0.0740923 0.1722646 -0.13287519
000010 e5 43 b9 bc 8c 3d 0e be 93 c3 8d bd 03 a9 fa bb
       -0.022615382 -0.13890666 -0.069220684 -0.0076495423
000020 0a 1e 3a 3d 24 e4 d7 bd c0 0f 82 3d be cc 37 bd
       0.045438804 -0.10541561 0.0635066 -0.04487299
000030 97 96 64 bd 5e 20 dc 3d a4 60 a9 bd e3 d2 86 3c
       -0.055807676 0.10748361 -0.08270386 0.01645798
000040 b5 28 be 3d 35 2e 0e be e5 3c 44 bd cd 0a b7 bd
       0.09285108 -0.13884814 -0.047909636 -0.08937607
000050 80 c7 50 be cf ab 02 bd 24 ad d1 3d 3b c9 92 3d
       -0.20388603 -0.03190213 0.10238102 0.07167288
000060 65 13 a6 bd f2 18 87 be 36 d0 2e bd e4 a7 11 3e
       -0.08109168 -0.2638622 -0.042679034 0.14224201
000070 cc fb b8 bd cf 07 79 3c 23 c5 7f 3d a8 e5 75 3d
       -0.090324014 0.015199616 0.062443864 0.06003347
000080 4a f6 33 3e 22 9a 86 3d 4d 12 d1 bd a9 5a 38 be
       0.1757442 0.06572367 -0.10208569 -0.18003334
000090 63 c6 ae 3d 14 ee ff bc 1b 71 c6 bd 52 57 e1 bd
       0.08533933 -0.031241454 -0.09689542 -0.11002983
0000a0 19 ca 1a 3d ad 79 b8 3c 3f 57 d6 3d ac 48 5c 3d
       0.03779039 0.022518957 0.104658596 0.053780243
0000b0 b9 e7 ca 3b c2 c3 b5 bd 71 0c 08 be cb f7 e6 bc
       0.0061921743 -0.088752285 -0.13285996 -0.028194329
0000c0 f1 4d 1b 3d 0f 9d c0 bd ae 2c 5c 3d 5e 1c 0d be
       0.037916128 -0.094049565 0.053753547 -0.13780352
0000d0 f7 a2 b9 3d a2 0c 9e 3d db 2b d0 bd 25 fa 0f 3c
       0.09064286 0.07717253 -0.10164615 0.008787666
0000e0 72 c1 6c 3e f4 18 6f 3d 60 44 8c 3d 18 7e b4 bd
       0.23120669 0.058373407 0.06848979 -0.08813113
0000f0 d3 68 58 3e f8 6f 09 bd 9d 38 1f 3e 1b 95 96 3d
       0.21133737 -0.033554047 0.1554894 0.07352658
000100 bd 57 ae 3d 0f 44 37 bc 6f d9 9d bd 38 34 7d bc
       0.085128285 -0.01118566 -0.07707488 -0.015454344
000110 f9 07 1f 3d 69 78 83 3d c5 2c fc 3c 01 e6 36 be
       0.038825963 0.06419451 0.030783067 -0.17861177
000120 30 e5 5d 3d 45 b5 ea bc 59 fc 80 3b a3 f1 1d bd
       0.05417365 -0.02865089 0.003936332 -0.03856052
000130 b6 0d 22 bd a3 da 36 be e0 65 d1 bc 6b 2e 2d be
       -0.039563857 -0.17856841 -0.025561273 -0.16912238
000140 69 49 f4 3c c0 9e 32 be b1 b6 dd bc a6 9d 6d 3c
       0.029820161 -0.17443371 -0.027064653 0.014502918
000150 ff df fc 3d 38 8c 23 3e 29 cf 86 bd 67 0f 8d bc
       0.12347411 0.15971458 -0.065824814 -0.017219258
000160 3f e8 12 3e 0b aa 0d 3c 7e e1 5c bd ed 8d 76 be
       0.14346407 0.008646498 -0.053925984 -0.24077578
000170 20 f5 80 be 92 2d 5c bd ba 1c cc 3d d2 28 cf 3d
       -0.25187016 -0.053754397 0.09966417 0.10115208
000180 df d0 d0 3d 28 fb f4 bd 3a 3f ef 3d 68 d0 a7 3a
       0.10196089 -0.11961967 0.116819814 0.0012803199
000190 9a 4b 60 bd 24 fa c9 bd 5c 5a 96 bd bf 50 42 3c
       -0.0547596 -0.09862164 -0.073414534 0.011860072
0001a0 2b ec cb 3d 8d 24 40 3c eb ff d7 bd e3 13 bd bd
       0.09957155 0.011727464 -0.10546859 -0.09232309
0001b0 0a 6b ae 3d 04 4a 48 bd b2 1a 1c 3c 2e 6e 46 bd
       0.0851651 -0.04889871 0.009527849 -0.04844492
0001c0 45 78 47 3b 0a c9 38 bd ec 56 f8 bd 83 e1 d7 3d
       0.0030436676 -0.0451136 -0.12125954 0.1054106
0001d0 9d 3e 3a bd 83 8d 17 3d e6 1c a4 3d bc 97 0f be
       -0.04546987 0.03700019 0.080133244 -0.14022726
0001e0 5e 39 c8 bd 72 a4 99 3d 21 8b aa bc e3 b0 fc 3d
       -0.09776567 0.075020686 -0.020818295 0.12338426
0001f0 1d 9c 7a 3d ea 87 21 3d f6 5e 65 bc 6d fd e9 3d
       0.061184037 0.03943626 -0.013999691 0.1142529
000200 ae 83 69 3e f6 44 8d bc d5 65 30 3d df 93 6c ba
       0.22804138 -0.017244797 0.043065865 -0.000902472
000210 51 60 8b 3b 66 38 bf 3d cb 92 ba bd 3d 03 7f 3c
       0.004253425 0.09336929 -0.0911003 0.015564737
000220 50 26 99 3d 90 17 ac bd a1 0e 2a 3d 3e 5e 79 bd
       0.07478011 -0.08402932 0.041517857 -0.060880892
000230 9c ed b2 3d 8b 5f dd bc 95 4b f1 bd 96 53 c8 bc
       0.08736727 -0.027023098 -0.11781994 -0.02445392
000240 73 96 7a 3c 01 74 6d bd c0 cd 14 bd f2 1c fc 3d
       0.015294659 -0.057971958 -0.03632903 0.123102084
000250 0d 29 30 bc c4 ce 91 bc 0d 54 d6 3d cb ec c1 3d
       -0.010751975 -0.017798789 0.1046525 0.09468993
000260 4b a2 d9 bc 5c 12 79 3e ca e8 53 3e ed 5f df bc
       -0.026566645 0.2432341 0.2069427 -0.02726742
000270 b5 2f 15 be 23 62 61 bd 74 85 72 3e e4 1a 33 3e
       -0.1456898 -0.05502523 0.23683721 0.17490727
000280 2c a4 df bd 5d ea 03 3c e2 c4 6f bc 4d 1f 53 be
       -0.10919985 0.008051482 -0.014634343 -0.20617409
000290 bc 2e 66 3d 9f 48 b2 bc 21 c2 23 be c6 47 10 bd
       0.056196913 -0.021763144 -0.15992023 -0.0352247
0002a0 ba fb f8 3d d9 4a 18 bd 77 15 84 bd b4 96 96 bd
       0.12157388 -0.037180755 -0.064494066 -0.07352963
0002b0 47 e7 f7 bd 04 96 bd bd 38 3c 85 bd 12 7d 8e ba
       -0.121046595 -0.09257129 -0.065056264 -0.0010871014
0002c0 e9 da 80 bd 93 7c dd bd b4 ef 08 3e 1f 62 08 be
       -0.06291754 -0.10814776 0.1337269 -0.1331868
0002d0 47 69 fa 3d d0 87 bf bc d8 b7 13 3d c8 86 6d 3c
       0.12227111 -0.02338019 0.036064 0.014497466
0002e0 4e e0 34 bd 3e 28 48 bd ba fc 89 3d 0b 4c ca 3d
       -0.044159226 -0.048866503 0.06737657 0.09877785
0002f0 18 00 2d bc e6 09 3a 3e d1 2e 51 3c 44 2b 0c be
       -0.010559104 0.18167838 0.01276751 -0.1368838
000300 8e 8a 31 3c 77 fe 2b be 67 30 a3 bc 8f 19 ae bd
       0.010836257 -0.1679629 -0.019920541 -0.08500969
000310 8b e5 35 be 32 c2 9d bc 70 3b 12 3d 6d 71 64 bd
       -0.17763345 -0.019257639 0.035701215 -0.055772234
000320 9c 34 35 be c6 32 97 3d 89 6f 24 3c a3 2d ab 3d
       -0.1769585 0.07382731 0.010036358 0.08358314
000330 24 4a 07 bc cb 4b 06 3d d9 38 1a 3d 9f 43 de 3c
       -0.008257423 0.032787126 0.03765187 0.027131854
000340 ec bb f4 bd d1 5e d0 3d 4a 71 e8 3d 92 10 d1 bd
       -0.11949906 0.10174335 0.11349733 -0.10208239
000350 66 de e9 bd 3b 2c e3 3d f5 3d e0 39 85 83 5f bd
       -0.11419372 0.11092421 0.0004277077 -0.054568786
000360 a0 92 17 3e 6b 73 ad bd 9d dc 18 bd 22 e1 93 3d
       0.14802027 -0.0846928 -0.03731977 0.07220675
000370 f1 b3 21 bd 44 37 04 3a 47 a0 6b 3d 2b e3 34 3d
       -0.039478246 0.00050436356 0.0575259 0.044161957
000380 4c 0c 65 bd e8 55 9d bd 1e 7f c3 bd 0c 44 99 bd
       -0.05591993 -0.07682401 -0.0954573 -0.07483682
000390 ab 96 ce 3d e7 8e b6 3c 8e 9e d4 3c 3c e0 7c 3c
       0.100873314 0.022284938 0.025954511 0.015434321
0003a0 b1 a0 4b 3d 56 c9 70 3d 7c 23 54 bd dd 68 38 bd
       0.049713794 0.05878576 -0.051791653 -0.04502188
0003b0 d9 ae 11 3e 38 b0 13 be a7 22 aa bd ee c9 50 3d
       0.14226855 -0.14422691 -0.08307391 0.050973825
0003c0 64 78 00 be f0 50 2e bd 45 29 3a 3e 17 ab 2f 3d
       -0.12545925 -0.042557657 0.18179806 0.042887773
0003d0 f2 46 16 be 12 a0 2d be bf 58 59 3d 77 95 89 3d
       -0.14675501 -0.16955593 0.05306315 0.06717961
0003e0 6b f1 97 bd 7d e2 ce bd 5e f2 ab bd 8c 40 85 bd
       -0.07419094 -0.10101793 -0.08395837 -0.06506452
0003f0 01 cd e8 3d 8b ad 14 3d d6 81 37 bd 6a a2 b3 3d
       0.113672264 0.036298316 -0.044801556 0.087712124

transformer.layers.0.self_attn.out_proj.bias f4 [64]
000000 31 48 2e bd f7 dc 30 3d dc f6 dc 3d e6 b7 3e 3d
       -0.042549316 0.04317948 0.10789272 0.046562098
000010 8b 62 5d bd 84 2b ec bc b5 e8 3c bd 00 b0 a2 bd
       -0.054049056 -0.028829344 -0.046120364 -0.079437256
000020 10 4e c8 ba 2c 4c 81 bd 5e f8 9c 3d 52 72 dd bc
       -0.0015282054 -0.06313357 0.0766456 -0.027032051
000030 f4 51 8a 3c 31 ca 27 3c 87 56 cb 3c 9c 64 a4 3d
       0.016884781 0.010241077 0.024821533 0.08027002
000040 18 fb 45 bd 92 68 d2 bb 7d 58 3f 3d 7f 63 4a 3d
       -0.048335165 -0.006421157 0.04671525 0.049411293
000050 88 3e c1 3d ee e2 08 bd 17 7f c9 3c 41 05 2f 3d
       0.09435755 -0.033419542 0.024596734 0.04272962
000060 36 5f 16 bd 92 11 0e bd 11 cd f3 bd b6 49 ff bc
       -0.036711894 -0.034684725 -0.11904348 -0.031163078
000070 92 02 5f 3d 31 e5 a4 3d 09 a3 82 bd 96 f5 be bb
       0.05444581 0.08051527 -0.06378753 -0.005827616
000080 fe 04 5d 3b 3c 1b 21 3c 07 c9 3c bd e8 24 35 bd
       0.00337249 0.009833153 -0.046090152 -0.04422465
000090 0c 10 c3 bd b2 9d cb bc e6 73 3c 3d 4e b4 2c 3d
       -0.09524545 -0.024855468 0.046008967 0.04216414
0000a0 e0 10 f0 bd 9f 84 e0 3d 36 f4 21 bc fa 85 76 bc
       -0.11721969 0.109627955 -0.009884885 -0.015046591
0000b0 e5 53 ad 3c ad 19 5d bd c8 ef fa 3b 21 b8 24 3d
       0.021158168 -0.053979564 0.0076579787 0.04021466
0000c0 d1 44 bd bc dc 51 e3 3c f8 4c a5 3d 4d 64 eb 3c
       -0.023104103 0.027748995 0.08071321 0.02873435
0000d0 92 9b a4 ba b1 61 fc bc 2b fc f5 3c d7 e6 89 bd
       -0.0012558571 -0.030808302 0.03002747 -0.06733482
0000e0 9b 48 08 3c e8 33 1d be b0 cd a4 ba 34 27 fa 3c
       0.008318092 -0.15351832 -0.0012573507 0.030536272
0000f0 bf 3c 11 3d ba a1 90 3c ac 21 ce 3d 8e ab bd 3c
       0.035458323 0.017655242 0.10065016 0.023153093
