multi_digit_transformer_custom.pth (torch, 186990 bytes, 35 tensors)

pos_embed f4 [1, 64, 64]
000000 5a a8 7b be af 61 47 3d 06 ec d1 be dc 62 65 bf
       -0.2457594 0.048677143 -0.41000384 -0.8960397
000010 9c 7d da 3e 70 54 fa be 94 26 48 bf 89 71 45 bf
       0.42673957 -0.48892546 -0.78183866 -0.77126366
000020 69 5e b1 bf fe 27 84 bf 6d ad 9a bf f4 19 10 3e
       -1.3856937 -1.0324705 -1.2084175 0.140724
000030 75 1e 9b be a1 3d 7e be 93 d5 e0 be 44 c4 ad 3f
       -0.30296674 -0.24828197 -0.43912944 1.357552
000040 a3 3a f9 bf 4f e1 01 bd 60 82 81 3e a8 a9 52 bf
       -1.947102 -0.03170901 0.2529478 -0.82290125
000050 56 8c cd 3f eb 7d b0 be b3 5a f2 3f 7c 53 ee be
       1.6058452 -0.34471068 1.8933929 -0.4654807
000060 ed 02 44 bf b2 30 3f be 9b c5 9a 3e 57 b5 8c 3f
       -0.76566964 -0.1867092 0.30228886 1.099284
000070 f1 4e 51 3f b8 c6 eb be 25 cf 76 3d f6 8c cf 3f
       0.8176108 -0.46050048 0.060256142 1.6214893
000080 cf 20 61 bf 55 a0 c9 3e 62 98 f0 bb f0 e1 d6 be
       -0.87940687 0.39380136 -0.007342384 -0.41969252
000090 3d 3c 52 3d 9e 76 10 3f 09 28 cb 3f 1f e6 4c bf
       0.05132698 0.56430995 1.5871593 -0.80038637
0000a0 eb 49 a9 3f fe 68 99 3f 0a d8 fb be a6 44 e9 be
       1.3225683 1.1985166 -0.49188262 -0.45560187
0000b0 33 66 14 bf 77 55 06 3f 04 e8 52 bf 5d b9 e6 bf
       -0.57968444 0.5247416 -0.8238528 -1.8025318
0000c0 e6 1a 5b bf 7e e5 cb be 5e 2f 85 bf e7 f9 b7 bf
       -0.8558792 -0.39823526 -1.040508 -1.4373139
0000d0 4d d3 dd 3d 47 7f fa 3d 5b b3 7d 3e 63 a5 8f 3f
       0.10831318 0.122313075 0.2477545 1.1222347
0000e0 3f f4 1c bf f8 28 8d 3f 5c 8c 00 bf 40 e6 7d 3e
       -0.6131019 1.1028128 -0.5021417 0.24794865
0000f0 be e1 9c 3f e8 37 96 be a0 3d 01 bf 90 b0 f8 bc
       1.2256391 -0.29339528 -0.5048466 -0.030357629
000100 53 9e 37 bf 19 d6 09 c0 51 9e b4 bf 0f b9 92 3f
       -0.7172596 -2.1536925 -1.4110814 1.1462725
000110 b7 a8 67 bf 03 40 1c 3f ba ac 32 40 a0 cf 85 bf
       -0.90491813 0.61035174 2.7917924 -1.0453987
000120 a5 0d 04 bf 54 94 c6 3e ce 60 5a be cf 0d 63 3f
       -0.5158332 0.3878504 -0.2132599 0.88692945
000130 93 a2 67 bf da 3a 59 3f 7e 10 0d 3f f0 9d 3f 40
       -0.90482444 0.84855425 0.5510329 2.9940147
000140 90 0d 80 be 94 40 64 3e df 19 0d 3f 52 f4 e3 bf
       -0.25010347 0.2229026 0.551176 -1.7808936
000150 54 52 70 bf 14 29 ea be 51 27 ed 3d 05 69 6e 3f
       -0.9387562 -0.45734465 0.11579765 0.93129
000160 69 cc 2d 3e fe 24 2e 3f 2e 6b 3d 3d 42 e0 67 3e
       0.16972508 0.68025196 0.046244793 0.22644141
000170 15 67 4c 3e c6 e5 9a 3f 7a 41 7a 3e e7 c0 d6 bf
       0.19961198 1.2101371 0.2443904 -1.6777619
000180 58 04 3a bf e6 a7 d7 be 90 a2 12 3f a0 19 14 3f
       -0.7266288 -0.42120284 0.572793 0.578516
000190 f1 77 0e 3f c3 b4 3f 3d ec ee b4 bf 27 d8 2b 3f
       0.55651766 0.046803247 -1.4135413 0.671267
0001a0 35 da 73 3e 93 ee b7 3f 37 76 26 be b6 70 54 3f
       0.23813708 1.4369682 -0.16256033 0.82984483
0001b0 10 e8 b8 bf cb 2f 4f bf 8e 14 b7 be 16 3c 00 bf
       -1.444582 -0.809323 -0.3575787 -0.50091684
0001c0 1d 91 d3 3d 66 88 18 be b7 1e 8b 3f e9 69 c1 bf
       0.103304125 -0.14895782 1.0868748 -1.5110446
0001d0 e6 d9 22 3e ae 37 e6 bb bb 07 28 c0 4f 05 a7 3f
       0.15903434 -0.0070256805 -2.6254718 1.3048495
0001e0 1f aa 86 3e 5f 2f f4 3e 68 16 eb bf eb 7c 6c bf
       0.26301667 0.4769239 -1.8366213 -0.9237811
0001f0 73 6e bd be 35 f0 23 3f f7 69 85 3e ca f3 4a 3f
       -0.3699833 0.640384 0.26057407 0.7927824
000200 63 88 1c 3e d8 2e 4d 3d c5 51 73 be 94 41 00 bf
       0.15286402 0.0500935 -0.23761661 -0.50100064
000210 06 43 51 bf 0f 84 85 3f 89 ed 63 bb 04 da 37 bf
       -0.81742895 1.0430926 -0.0034779033 -0.7181704
000220 7b ba 9f bf cf ed e4 3f 18 19 29 3d 41 54 cd 3e
       -1.2478784 1.7885073 0.041283697 0.40103343
000230 2e 4b 10 bf 6a a6 8e 3f 0e 1d 52 3e 4f 2a d9 bf
       -0.56364715 1.1144536 0.20518896 -1.6966037
000240 79 88 43 be ff 59 d8 bf 9c 49 3e bf 64 c7 cc bd
       -0.19095029 -1.6902465 -0.7433107 -0.09998968
000250 bd c2 56 3f 16 86 dd bc d3 6d 5d bf 7c 6d e6 bf
       0.838909 -0.027041476 -0.86495703 -1.8002162
000260 ab 01 09 40 06 f6 bf 3f 10 16 48 bf 71 c3 e6 bd
       2.1407268 1.4996955 -0.78158665 -0.11267746
000270 12 de 8e bd ae a6 f7 be a8 24 13 c0 da fe 38 c0
       -0.0697595 -0.48369354 -2.2991123 -2.890555
000280 fd f4 38 bf 99 d4 0e bf 38 79 23 bc 6f 7b 59 bd
       -0.7224882 -0.5579315 -0.009977631 -0.05309623
000290 6f bf 16 bf 4b cd 09 bf 8f 6c 53 3f c7 ad 85 3e
       -0.58885854 -0.5382888 0.8258752 0.26109144
0002a0 49 48 d6 3e 59 ce cc bf a2 1d 7b bd 64 69 a0 bf
       0.41852024 -1.6000472 -0.061307557 -1.2532163
0002b0 9c de 9f be 0a b5 78 3f 5f c5 d1 3f a4 a4 9a be
       -0.31224525 0.97151244 1.6388358 -0.30203736
0002c0 16 c4 d0 3c 79 01 dc 3e 42 6f c1 3f 11 69 74 bf
       0.025484126 0.42969874 1.5112078 -0.9547282
0002d0 2c df 9b be d8 f5 bf 3e f7 a4 a1 be 44 64 af bf
       -0.30443704 0.3749225 -0.3157117 -1.3702474
0002e0 3d ae 67 3f f0 65 07 40 1c 5d 2f be df 51 0b bf
       0.9050024 2.1155968 -0.17125362 -0.544218
0002f0 ee 07 87 bf 47 36 2b bf fd 0a c5 3e a1 7c 9e 3f
       -1.0549295 -0.66879696 0.38484946 1.2381784
000300 b6 24 92 3f 8d c4 04 bf 7f c9 03 bf d1 20 cc 3e
       1.1417453 -0.5186241 -0.51479334 0.39868787
000310 03 69 cd 3d 44 c1 ca 3e 14 f3 13 bf 26 51 aa 3d
       0.10029795 0.39600575 -0.5779278 0.08316259
000320 14 d9 08 bf 78 03 87 bf c6 80 87 bf ce 9a f1 3f
       -0.53456235 -1.0547934 -1.0586174 1.8875368
000330 90 c7 10 3f e1 dc b5 be 2e 3a 48 bf 95 a1 a1 be
       0.5655451 -0.3552008 -0.78213775 -0.3156859
000340 5b ac 93 be 19 aa d0 3f 0b 6e bd bf e8 fd 89 3f
       -0.28842434 1.630191 -1.4799207 1.0780611
000350 ab fb d6 3d c8 f3 e0 be 30 88 c7 3d ff a7 fa 3e
       0.104972206 -0.4393599 0.097427726 0.48956296
000360 a2 cf a9 bf 66 d8 48 3f 28 4b 23 3f 28 dc 25 bf
       -1.326649 0.784552 0.63786554 -0.64789057
000370 f2 a2 0d bf 02 7e 8f be 05 91 e0 3f fc 53 dc bf
       -0.5532676 -0.28025824 1.7544256 -1.721313
000380 ea f5 d0 bf 15 ac a3 bf a8 99 f8 3f c6 0a 96 3e
       -1.6325047 -1.278689 1.9421892 0.29305094
000390 33 d4 98 3c 3e 0e c9 3e 27 e9 b8 bf 6a e1 5e bf
       0.018655872 0.39268678 -1.4446152 -0.87062705
0003a0 39 73 58 bf 06 d4 12 bf 24 e6 4e be 9f 31 20 be
       -0.84550816 -0.5735477 -0.20204979 -0.15643929
0003b0 4b 03 f7 3f c9 75 a8 be fd f4 83 bf c9 1e 33 c0
       1.929788 -0.32902363 -1.030914 -2.798754
0003c0 9a 19 11 bf 83 5b 08 3e d6 c6 c2 3d 11 cb 5b be
       -0.5667969 0.13316159 0.09510581 -0.21464182
0003d0 7c e3 e5 3e af 5d fa be 99 2c 17 bf 6e 06 65 3f
       0.4490012 -0.488996 -0.59052426 0.89462936
0003e0 ca d2 01 3d 77 5a 6b 3f ab c5 d5 bd b0 b0 92 3e
       0.031695165 0.91934913 -0.10438093 0.28650427
0003f0 f4 a4 0d 3e a8 2b 4a 3f b9 44 8b bf 35 cb 1f be
       0.13832456 0.78972864 -1.0880347 -0.15604861

patch_embed.weight f4 [64, 49]
000000 be 52 00 3e fa 79 5a bd 7a f9 b5 bd f8 cb 85 bb
       0.12531564 -0.053338982 -0.088854745 -0.004083153
000010 af 1b 44 be 85 51 8a bd 3c 00 26 bd 30 51 30 3e
       -0.19151185 -0.0675383 -0.040527567 0.1721847
000020 8d c7 ca 3d 61 fc f0 bd 31 df 05 be a0 e9 20 3d
       0.099013425 -0.117668875 -0.13073422 0.039285302
000030 01 4d fa bd 87 91 de 3d 41 bb e1 bd ef 9a 1f 3d
       -0.122217186 0.10867601 -0.11022044 0.038966116
000040 bf 79 84 3d 6d c6 dd 3d b5 47 95 3c e8 7d bc bc
       0.06468534 0.10828862 0.01822267 -0.023009256
000050 61 da f9 3d e9 53 00 be 04 64 e8 bc 41 89 8f bd
       0.121998556 -0.12532009 -0.028368004 -0.07008601
000060 d4 64 e9 3d 55 30 86 3d 28 dd ca bd 35 3f 8e 3d
       0.113961846 0.06552187 -0.099054635 0.069456495
000070 59 53 fe bd dd e0 40 bd a6 52 f2 3d f3 cb 04 3d
       -0.12418241 -0.047089446 0.1183217 0.032421064
000080 af 69 54 3d 94 3e 51 3c 56 c7 b7 bd b5 4b b3 bc
       0.0518586 0.012771267 -0.08973567 -0.021886686
000090 fa f5 5d bd 0e 2f 2d 3d db 44 e0 3c 71 f8 a6 bd
       -0.05418966 0.042281203 0.027376583 -0.08152855
0000a0 64 6b e9 bd 8e 49 d2 bc 6e 23 fb 3d 00 9a 8f bc
       -0.11397436 -0.02566984 0.12262617 -0.017529488
0000b0 05 c7 06 be dd 93 21 be 08 4d 83 3d 78 ce 89 bd
       -0.13161857 -0.15779062 0.06411177 -0.06728834
0000c0 06 21 79 3d ad 68 b5 3d 6f ff 88 bd 3f cc d9 bd
       0.06082251 0.08857856 -0.06689345 -0.1063466
0000d0 8d 0b 60 bd aa 54 b8 bd d7 65 40 bd 89 7e a2 3b
       -0.054698516 -0.090005234 -0.046972122 0.004958932
0000e0 31 95 1b 3e 59 38 b2 3d 85 a0 16 bd aa 1e f0 3d
       0.15193631 0.08702154 -0.036774177 0.11724599
0000f0 2e db 7f bd a3 a2 d4 bc 95 e6 e2 3d da 80 34 3c
       -0.062464885 -0.025956457 0.11079136 0.011017049
000100 6b 5c e8 3c ed 2d bb bc 9f c3 99 3d bf 62 26 bd
       0.02836438 -0.022849048 0.07508015 -0.040621515
000110 0d 47 45 bd 11 60 68 3d 6a fe f9 bb cc 0e d0 bd
       -0.048163462 0.05673224 -0.0076292055 -0.10159072
000120 63 bc 67 bd 3c 56 9e bd fa 35 ba 3c ec 4d 49 bd
       -0.056576144 -0.07731292 0.022730816 -0.049146578
000130 88 e2 ec bc 51 e5 ff 3c fe 38 0c be fd 24 0c be
       -0.028916612 0.031237276 -0.13693616 -0.13685985
000140 ab 88 f5 bd 3c 40 2b bd eb 34 95 3c 58 6d 64 3d
       -0.11988958 -0.041809306 0.01821371 0.05576834
000150 f2 c4 0e 3e 18 0e 18 3d 5f 29 b1 bd 06 f9 61 bd
       0.13942316 0.037122816 -0.08650469 -0.055169128
000160 f0 1d d4 bc 55 70 62 3d 75 ae d1 3d ff 77 3f bd
       -0.025893182 0.05528291 0.10238353 -0.046745297
000170 df 80 fc 3d 51 a8 f6 bd 63 28 10 be 20 42 8d 3c
       0.12329268 -0.120438226 -0.14077906 0.017243445
000180 cb c7 de 3a 63 f5 d3 3c 5f ba 04 bd 2d e6 a2 3d
       0.0016996799 0.025873845 -0.0324043 0.07954059
000190 e1 b4 18 3e 27 e5 4f 3d d0 14 fc bd 8b c1 38 be
       0.1491275 0.050755646 -0.12308657 -0.18042581
0001a0 b2 6d 3e be 4f d4 81 bd a4 f5 3c bd 71 3a 19 be
       -0.18596533 -0.06339323 -0.0461327 -0.149637
0001b0 ae 28 8d 3d 5a d0 36 bd 4d df d3 bd ec 94 22 be
       0.06892525 -0.044632293 -0.103453256 -0.15877122
0001c0 64 20 ba 3d c1 ce 88 bd fe 1a 6a bb e6 a6 78 bc
       0.09088209 -0.0668006 -0.0035721655 -0.01517651
0001d0 22 f4 02 bd fe cb ac bd 84 84 61 bd 1e a6 73 bd
       -0.031971104 -0.08437346 -0.055058017 -0.059484594
0001e0 2f d8 21 bd ee 8b 39 bd a4 76 bf bd 4c 14 0b 3e
       -0.03951281 -0.045299463 -0.09348801 0.13581961
0001f0 dd 00 57 3d d6 c7 dd bc 56 b0 a9 3d 41 e1 01 bd
       0.052491058 -0.027072828 0.082855865 -0.03170896
000200 e0 91 16 3d d3 8c e7 3d 7d 5b 6b 3d e3 92 06 be
       0.03676021 0.11306157 0.057460297 -0.1314197
000210 b4 92 a5 3d 44 01 a6 3d aa 23 e0 bb 71 a8 3b 3d
       0.08084622 0.0810571 -0.006840189 0.045814935
000220 35 59 ff 3d 15 b9 bf 3c 83 4b 73 bd 84 37 5d 3d
       0.12468187 0.023403684 -0.059398185 0.054008022
000230 11 1f 15 3d 9b 3d c6 bd 7e 11 1c 3d ac 14 c7 3d
       0.03640658 -0.09679719 0.03810262 0.0972074
000240 5c 92 f2 3d fc e7 b1 3d 5b 55 e1 3b c5 11 c7 bd
       0.11844322 0.08686826 0.0068766302 -0.09720186
000250 b8 f5 8c 3d 0d 1e a0 bd c6 60 d6 3c 7e af 03 3e
       0.06882805 -0.07818232 0.026169192 0.12859914
000260 23 60 e7 3d cb 88 03 be 99 0f 92 bc 82 d6 74 3d
       0.112976335 -0.12845151 -0.017829703 0.059774883
000270 97 46 81 3d fb fa 59 3c b7 70 32 bd 2d 68 65 bb
       0.06312292 0.013304467 -0.043564525 -0.003500472
000280 7e d2 fa bd bc 1a 46 3d cf 87 0c bd ae 31 42 be
       -0.122471794 0.04836534 -0.034309205 -0.18964264
000290 17 16 de 3c 92 53 82 bd ed 5b 3b 3d 6c a4 1d 3d
       0.027110143 -0.06363596 0.045741964 0.038486883
0002a0 dc e9 82 3d c4 1c 40 bd be 3c 54 3d df 1f dc bc
       0.063922614 -0.046902433 0.05181574 -0.026870666
0002b0 6a 8a be 3d 10 26 e2 3d 34 16 7d 39 8c 33 a9 bd
       0.09303744 0.11042416 0.00024136232 -0.08261785
0002c0 45 7a c2 3d f7 ed 9b 3d ac 3e a2 3c f9 3d 83 3d
       0.09495977 0.076137476 0.019805275 0.06408305
0002d0 cb d5 f1 bd ea 06 b6 3c 3c 81 94 3d 95 72 bd bd
       -0.11808356 0.022220094 0.07251212 -0.092503704
0002e0 a2 34 a3 bc d9 6f 30 3c ae c9 a1 3d 1c 05 92 bc
       -0.019922558 0.010768854 0.078997955 -0.017824702
0002f0 98 4b 41 be 09 c3 aa bd e0 38 86 bd b2 2d 3f be
       -0.18876493 -0.08337981 -0.06553817 -0.18669775
000300 ce 94 ee bb 6a a6 24 3d b7 7a ba 3d 82 9a b9 bd
       -0.0072809225 0.040197767 0.09105437 -0.09062673
000310 73 df 86 bd 07 6a 2b 3e 84 66 40 3d 38 d5 cc 3d
       -0.06585588 0.16739665 0.046972767 0.10001606
000320 2e b5 07 bd 81 a0 07 3e f0 ed fd 3c 29 d3 cf bd
       -0.03313177 0.13244821 0.030997247 -0.101476975
000330 3e 9b 83 bd 08 f9 cc bd 60 9a 0d be 7e 6a f2 3c
       -0.064260945 -0.100084364 -0.1382842 0.029591795
000340 c6 a5 0e 3e 93 8f 41 bd fc 95 b4 bd c1 28 be 3d
       0.13930425 -0.047256064 -0.0881767 0.09285117
000350 34 f7 9f bc 27 1b a6 bd d0 50 9d 3c b5 9d 12 3e
       -0.019527055 -0.08110648 0.019203573 0.14317973
000360 e8 cf 8a 3b 77 2d 5b 3c f7 46 13 be 41 97 77 bd
       0.00423621 0.013377539 -0.1438254 -0.06044698
000370 f2 e2 31 3b 01 1f 41 3e 5a 9d 35 bc 43 13 33 be
       0.0027143327 0.18859483 -0.011084879 -0.17487817
000380 07 7e 94 3c bd b7 50 3d b0 cd 22 3e e2 41 1b 3e
       0.0181265 0.050956476 0.15898776 0.15161851
000390 bb 18 17 3e e6 a9 a7 3d c9 85 a3 bd 00 c8 8a bd
       0.14755528 0.081867024 -0.07984502 -0.06776428
0003a0 0e 31 b4 bd 52 55 79 3a d4 f6 49 bd 8e 74 60 bc
       -0.08798419 0.000951131 -0.04930766 -0.013699664
0003b0 9e 39 b9 bd 90 c0 27 bd db 97 e5 3d 27 03 b7 3d
       -0.09044193 -0.040955126 0.11210605 0.08936148
0003c0 1e 59 b8 bd 81 c7 17 be 7d 63 23 be 89 3d d9 bd
       -0.09001373 -0.14822198 -0.1595592 -0.1060744
0003d0 6a 96 ae bd a2 c9 fc 3d d1 98 38 3c c6 aa 3e bd
       -0.08524783 0.12343146 0.011266903 -0.04654958
0003e0 a4 08 9f bc 53 d5 84 bd be 6e e6 3d 4d 82 da bb
       -0.0194133 -0.06486001 0.11251591 -0.006668365
0003f0 b7 b0 45 3c 89 28 11 be b5 41 1f bd 3a c3 9f 3d
       0.012066058 -0.14175619 -0.038881022 0.078009084

patch_embed.bias f4 [64]
000000 20 a3 bd 3d b8 54 27 bd 5c a2 48 bc c5 4b 18 3d
       0.09259629 -0.04085228 -0.012245741 0.037181634
000010 e6 9e 0b bd 66 f0 0f 3e c8 e7 f2 bc 20 67 7f bd
       -0.034087084 0.14056548 -0.029651538 -0.062354207
000020 65 4a f7 bc 9a 2b d2 3b 2e ec e2 bd 5d c6 c7 3a
       -0.030186841 0.006413889 -0.11080204 0.0015241612
000030 69 f5 ff bd d0 6d 8b 3d ab 28 fc 3d 12 84 a7 3d
       -0.1249798 0.068080544 0.12312444 0.08179487
000040 fd 7e e3 bd eb a7 91 bd 5f 2e 84 bd fb 58 3a bd
       -0.111082055 -0.07112106 -0.06454157 -0.045495015
000050 fc af c8 bd c1 cb c2 3d f2 f5 2e bd ea 24 83 bd
       -0.09799191 0.09511519 -0.04271502 -0.06403525
000060 4e 49 93 3d 07 a2 cb bc 3a dd c3 bd a5 3b de bd
       0.07191716 -0.024857534 -0.0956368 -0.1085122
000070 90 26 31 bc 8d 7a 9d bc 7e 63 15 3e a7 02 a2 bb
       -0.010812417 -0.019223476 0.14588735 -0.004944164
000080 42 ed 02 3e f4 93 ec bd 17 f5 1d 3d 05 2d 21 bd
       0.12785819 -0.11551657 0.038563814 -0.039349575
000090 13 a5 8e 3d ea 11 a9 3d 7a 4b 12 be 5f f8 94 3d
       0.06965079 0.0825537 -0.14286605 0.072739355
0000a0 c1 82 14 3d 3f 9f 02 3d b5 fd 58 3d dc 27 dc 3d
       0.03625751 0.03189015 0.05297633 0.1074979
0000b0 4a 14 36 3d 7a 6d c1 3b 40 10 f4 bc ca e4 fd bc
       0.044452943 0.005902943 -0.029792905 -0.030992884
0000c0 9f 1c 87 bd 4b aa 32 bd 92 11 31 3d f2 b3 c2 3d
       -0.06597256 -0.043619435 0.043229647 0.09506978
0000d0 3a 22 9e 3d d4 4b 08 3e 66 05 49 bd d2 42 2c bd
       0.07721372 0.13310176 -0.049077414 -0.042055912
0000e0 b6 8b 9b bd 0e 65 b5 3d 41 c6 93 bd 08 51 a5 3d
       -0.07595007 0.08857165 -0.07215548 0.08072096
0000f0 70 a3 93 bd df b6 06 3e e6 1f 2c bc a3 db 82 3d
       -0.072089076 0.13155697 -0.010505652 0.06389549

transformer.wV.weight f4 [64, 64]
000000 e3 08 1d be dc 42 38 3d fe d9 0b be c4 22 ef bd
       -0.15335421 0.044985637 -0.13657376 -0.11676553
000010 dc 7e 08 bd 02 a5 24 3c e4 d9 e0 bc c9 94 02 bd
       -0.033324108 0.010049107 -0.027447648 -0.031880174
000020 aa 1b 45 bd a6 ff 2b bd 82 fc 3b bd c1 1a 2f be
       -0.048122086 -0.041991852 -0.045895107 -0.1710005
000030 09 08 39 3d 2f f1 05 3e f6 12 a2 bd 4f 7b 76 3d
       0.04517368 0.13080285 -0.07913773 0.06017619
000040 4b c9 35 3b 11 43 bf bd 4a 0f 59 bc a1 a1 9d 3d
       0.0027738388 -0.09338964 -0.013248274 0.07696844
000050 d6 f6 ea 3d 26 6b 4f bb 00 6a 8b 3c ae 10 77 3d
       0.114728615 -0.0031649559 0.017018318 0.06031864
000060 07 9c 4d bd 65 7c 82 3c a4 3a 1a 3d 4a ba 1b be
       -0.050197627 0.015928457 0.03765358 -0.15207782
000070 1b 67 b9 bd bb e8 36 3d 95 67 0e be 53 e9 97 3c
       -0.09052869 0.044655543 -0.13906701 0.018543875
000080 c8 99 4b bd ca 32 62 3e 26 de 47 3d 3f 21 0d 3e
       -0.049707204 0.22089687 0.04879584 0.13782214
000090 c7 01 e5 3d 77 1a 3f bc 46 f5 e0 bd 66 12 cb 3d
       0.111819796 -0.011664025 -0.10984282 0.099156186
0000a0 9a a6 ec bd 1b 01 29 3d 87 ca 77 be fe b5 eb 3d
       -0.11555214 0.04126082 -0.24198352 0.11509322
0000b0 ba e7 c0 3b 3d ba 1f be ba 41 1f be 8e 68 2c bd
       0.005886999 -0.15598388 -0.15552416 -0.0420919
0000c0 1d 06 81 bc 96 79 37 3e 5c 1c 8f bd 9a 07 3d bd
       -0.015749985 0.17917475 -0.06987831 -0.046149828
0000d0 96 69 20 be b2 6c b7 bd e6 a6 18 bc 80 86 68 bd
       -0.15665278 -0.08956279 -0.009317135 -0.056768894
0000e0 05 66 18 be ec 1d 8d 3c d0 85 c9 3d 22 20 c3 3d
       -0.14882667 0.017226182 0.09839976 0.09527613
0000f0 1b af e5 b9 6d 1c 5c bc b6 21 7f bc 94 59 f9 bc
       -0.00043808747 -0.013434512 -0.015572002 -0.030438222
000100 e9 4a 6b bd 14 12 1c bd 2b cd b5 3d 06 62 7f bd
       -0.057444487 -0.03810318 0.08877023 -0.06234934
000110 07 31 d8 bd 10 c6 9c 3d 3a ad ec 3b bf 00 1e be
       -0.10556226 0.07654965 0.0072227987 -0.15429972
000120 c6 99 f7 3d fd b7 95 3c f4 80 bf bd 49 49 07 3e
       0.12089877 0.018276209 -0.09350768 0.1321155
000130 cc bf e3 bd ca b7 fb 3d 5e 7c f5 bd 80 6e 9e bd
       -0.11120567 0.12290914 -0.11986612 -0.0773592
000140 66 80 97 3d 4c 31 cf bd fa 25 ec 3d 7c f7 c4 3c
       0.07397537 -0.101168245 0.11530681 0.024043791
000150 82 2f 82 3d c9 29 17 3e 22 50 01 3e b8 da 8d bd
       0.06356718 0.14762034 0.12628224 -0.06926483
000160 90 0f fe 3b b1 ff c3 bd e2 17 6f be 94 03 dc bc
       0.00775332 -0.09570254 -0.23348954 -0.026857175
000170 ec f6 1e 3e 66 6a 0f 3d 16 cb 04 3e bb 83 e7 bc
       0.1552388 0.03501358 0.12968096 -0.028261056
000180 61 af 23 3c 1a 38 9e bd 5d 40 bb bd 2a b2 c3 bd
       0.009990544 -0.07725544 -0.09143136 -0.095554665
000190 2d cb ce bd 7c a3 cd bc 0c 15 89 bd ab 90 a3 bd
       -0.100973465 -0.02510237 -0.066934675 -0.079865776
0001a0 38 a4 10 3e 55 8c 3d 3d 30 40 82 3d c5 c9 5f be
       0.14125144 0.04627641 0.06359899 -0.21854313
0001b0 da 16 5a bd a3 62 b2 bd d1 5b fa 3b 49 80 7f bd
       -0.05324445 -0.0871022 0.00764034 -0.0623782
0001c0 4e 87 d4 3c dc 69 8c 3c e4 11 e3 3d aa b1 5c be
       0.025943425 0.017140321 0.11087397 -0.21552148
0001d0 e1 28 fc 3d b0 99 1e bc 87 07 49 3d ef 1c d4 3d
       0.123124845 -0.009680197 0.049079444 0.10357081
0001e0 e0 02 d7 3d 35 fd 24 3e 47 66 a9 bd 84 17 9a 3d
       0.10498595 0.16112216 -0.08271461 0.075240165
0001f0 cd 4a 02 be 97 57 03 bc 9a 0e 05 bc a4 3d f9 3c
       -0.12723847 -0.0080164885 -0.008121157 0.0304249
000200 0d f1 07 3e b7 87 08 3e 0d 32 fa 3d be 5e 90 bd
       0.13275547 0.13333021 0.12216578 -0.07049321
000210 31 9c ae bd ac 66 86 bd b9 bb 77 3d 6a e4 5c 3d
       -0.08525885 -0.06562552 0.06048176 0.05392877
000220 a8 7e 3f 3d 8e 23 62 bd d8 53 85 3d 96 66 d1 bb
       0.04675165 -0.05520969 0.065101326 -0.006390403
000230 9f 1c 34 be e9 fe d7 bd 07 75 b0 bd 2b 51 04 bd
       -0.17589043 -0.10546667 -0.08616071 -0.03230397
000240 76 fe 6b bd 82 13 0b 3d 21 14 06 be 63 2d e8 3c
       -0.05761572 0.03395415 -0.13093616 0.028341955
000250 a4 3a 9e bd 52 ad 67 3d 77 d4 b1 bd 6c c2 b9 bd
       -0.077260286 0.056561776 -0.086831026 -0.09070286
000260 f9 52 c6 bc 28 f2 31 3d 2b 5a a9 3b eb cd 6b bc
       -0.024209486 0.04344383 0.0051682196 -0.014392356
000270 bd 36 39 3e f4 56 13 3e 48 bf 20 3d 30 42 17 3e
       0.18087287 0.14388639 0.03924492 0.14771342
000280 53 f0 5c bd b5 45 14 be 03 2a 01 3d be f8 a8 3d
       -0.05394013 -0.14479716 0.031534206 0.08250569
000290 d6 85 d0 3d 61 0c 35 bd c4 af 60 3d 13 d8 4f 3d
       0.10181777 -0.04420126 0.054855123 0.050743174
0002a0 fc 7c 32 3e 3b bd e1 3d 2d bc 09 bd e7 25 12 be
       0.1743049 0.11022421 -0.033626724 -0.14272271
0002b0 d7 fb 73 3e d4 ce e6 ba e6 2a 58 bb d4 c8 3b bb
       0.23826538 -0.0017609247 -0.0032984554 -0.0028653638
0002c0 c0 a2 88 3c 05 cd 35 be cd 4c 0f 3e 6a 2f 3e 3d
       0.016679168 -0.1775399 0.13994141 0.046431936
0002d0 ab 4e 64 bd 4e 77 1a be 92 22 a6 bc 42 0c 44 3e
       -0.055739086 -0.15084574 -0.020280156 0.19145301
0002e0 e0 1a 1f bd 7d 65 1c bd e8 d8 54 3d 8d a1 37 3d
       -0.03884399 -0.038182724 0.05196467 0.0448318
0002f0 e2 4d b4 3b 79 1b 35 bd db 61 93 bd 7b 66 ca bb
       0.0055024484 -0.044215653 -0.07196399 -0.0061767674
000300 ce a8 4d bd a8 33 2c bd dc d9 9f 3d 93 c0 33 3d
       -0.050209813 -0.04204145 0.07805225 0.043884825
000310 2e e7 f3 bc 95 ec 21 be 8c 58 8a 3c 58 61 2b 3e
       -0.029773321 -0.15812905 0.016887926 0.16736352
000320 53 65 16 3e 87 ac d0 bb cf 82 91 3d bd d2 03 3d
       0.1468709 -0.006368223 0.07105028 0.032183398
000330 27 bc d9 bc 1c bb a5 bd 39 8d 42 bd 97 4d 29 3d
       -0.026578976 -0.08092329 -0.04749796 0.04133376
000340 15 b5 55 3d b2 b7 d5 3c e0 2d 24 be e0 ce ac 3d
       0.052174646 0.02608857 -0.16033125 0.08437896
000350 3c 27 c8 bd 42 28 33 bd 1f 74 04 3d 71 e5 4e bd
       -0.09773108 -0.043739565 0.032337304 -0.05051178
000360 cb 89 2b bd a9 c4 22 bd c6 30 17 3e 54 05 b1 3c
       -0.041879456 -0.03973833 0.147647 0.021608986
000370 a6 0e d0 bd ae c6 e1 3d 8f 26 39 3d 9c 0e df 3d
       -0.10159044 0.11024223 0.045202788 0.108914584
000380 40 a7 ca 3c 2b f6 1d be 56 fe 3d 3d f4 46 54 3c
       0.024737954 -0.15425937 0.04638513 0.01295637
000390 d4 58 cf 3c ba 60 92 bd 90 6a ff 3d 45 7c 15 3e
       0.025310911 -0.071473554 0.12471497 0.14598186
0003a0 99 8d 0f be b2 48 34 be 76 fa 2c 3d 10 2a b3 3d
       -0.14018859 -0.17605856 0.042231046 0.08748257
0003b0 0f 7a 81 3c f9 d3 31 3d 39 20 81 bd cb f4 37 3d
       0.015805272 0.043415044 -0.06304974 0.044911187
0003c0 4f 1b 25 bd 0e 31 40 3e e1 9d dc 3d 02 49 1e ba
       -0.040309247 0.18768713 0.107723005 -0.00060381007
0003d0 83 c1 00 3e f8 32 cf bd b3 0f 58 be ad 84 fc 3d
       0.12573819 -0.101171434 -0.21099739 0.123299934
0003e0 64 9f a7 bd 96 e3 41 be 79 1c 9f bd 0d 4d d5 3c
       -0.08184698 -0.18934473 -0.077691026 0.026037717
0003f0 64 25 6e 3a 16 2a b6 bd 80 ac 71 bd 32 1c d4 bd
       0.0009084551 -0.08894746 -0.0590024 -0.1035694

transformer.wV.bias f4 [64]
000000 6a e7 79 3c 43 9d 10 3e 0d c9 81 3d a6 f0 8c bd
       0.015252927 0.1412249 0.063371755 -0.068818375
000010 25 6e f1 3c 95 af 94 bd f5 38 d3 3d 69 e4 ac 3d
       0.029471466 -0.07260052 0.10313598 0.08442003
000020 ca 24 f1 3d e7 33 a6 bc 3b 93 e5 bd 17 57 c2 bc
       0.11774595 -0.02028842 -0.112097226 -0.023723168
000030 16 6b 0e bd f3 9e de 3c b1 3e e2 bc 97 03 c3 bb
       -0.034770094 0.027175402 -0.027617784 -0.0059513557
000040 6e 74 6f 3d 72 00 a4 bd 57 16 11 3c 1b cb f5 3d
       0.058460645 -0.080078974 0.008855424 0.1200163
000050 21 b4 3d 3d c3 b5 d1 3b 98 bc 8d bd e5 19 2f bd
       0.046314362 0.0063998415 -0.06920737 -0.042749304
000060 62 2c 26 bd 5d 3e 2a 3d 1c 34 ee 3c e7 bb 8f 3d
       -0.04056967 0.04156338 0.029077582 0.070182614
000070 f9 ba 21 3c ee fd cd bd 07 0e 5f bd 41 2a a5 bc
       0.009871238 -0.10058199 -0.054456737 -0.02016175
000080 de 81 4c bd 01 b3 a1 3d 67 80 cb bd 4f 41 78 bd
       -0.04992854 0.078954704 -0.099366 -0.060609158
000090 a7 21 bd 3d 7d d3 59 3d fe bd e7 bc ee d0 aa 3d
       0.09234934 0.053180207 -0.028288838 0.083406314
0000a0 6e ee 5b 3d 27 20 cf bd db 5a 4d bd 03 0d 86 3d
       0.05369418 -0.101135544 -0.050135475 0.065454505
0000b0 ce ea 87 3d ac cb 72 3d 94 8b 99 3d c2 15 2f 3d
       0.06636582 0.059276268 0.074973255 0.04274536
0000c0 8f dd 99 bd 61 04 81 bd 76 ca 61 bd 25 21 82 bc
       -0.07512962 -0.06299663 -0.055124722 -0.015884945
0000d0 07 08 4d 3d 42 34 19 be 23 32 74 3d ec 4f 08 be
       0.050056484 -0.14961341 0.059618127 -0.13311738
0000e0 af 7b e0 3d f5 16 97 bd 1d 89 30 bd 7e f4 c8 bd
       0.10961091 -0.073774256 -0.04309951 -0.09812258
0000f0 24 9e 6c 3d 55 80 82 bd 7d 9c 1a bd 32 a6 c8 bc
       0.057768002 -0.06372134 -0.037746895 -0.02449331

transformer.wQ.weight f4 [64, 64]
000000 11 1d c0 bd e2 23 df bd 96 bc e2 bd b8 0c 88 3d
       -0.09380544 -0.10895516 -0.11071126 0.06643051
000010 2d 23 68 3c ac fd e1 3d 0a 96 0b 3d aa d8 9d 3d
       0.014168543 0.11034712 0.034078635 0.07707341
000020 6d ef 8a 3d 65 6a 4a bd 34 02 4d bd 43 66 3d bd
       0.06783948 -0.049417872 -0.05005093 -0.046240102
000030 95 cc cc bd 41 b4 15 3d f6 b0 fb bc da c1 c7 3c
       -0.099999584 0.036548857 -0.03072403 0.024384428
000040 0e 8b b4 3d 8f ea ab bd 8f 09 b1 3c 70 92 ea 3d
       0.08815585 -0.08394348 0.021611003 0.11453712
000050 fc 98 48 bd 3a c8 c3 3a df 6e 39 bd ea 46 94 3c
       -0.048974022 0.0014936992 -0.04527175 0.01810022
000060 21 bf 61 bd 0c 6e cd bd 7d 72 12 be 7d 0c 8b 3d
       -0.055113915 -0.100307554 -0.14301486 0.06789491
000070 33 83 f4 bd b9 ed a4 bd c4 94 5f 3c a4 0a 65 bd
       -0.11939087 -0.080531545 0.013646308 -0.05591835
000080 49 2e 7d ba 7e 29 b8 3b 46 43 2d bd 50 e7 c2 bc
       -0.0009658081 0.0056201806 -0.042300485 -0.023791939
000090 59 97 85 bc 37 15 1b 3d 81 80 8a bc 13 13 52 bd
       -0.01630752 0.03786203 -0.016906979 -0.05128772
0000a0 d9 df e6 bb 03 a2 5f 3b a3 90 f1 3b bc e1 2a 3d
       -0.0070457277 0.0034123666 0.0073719784 0.041719183
0000b0 31 e3 11 3d 9d ed db bc bb 13 63 3d 95 1f 29 bc
       0.035617057 -0.026846701 0.05543874 -0.010322471
0000c0 f5 52 b5 bd 0b 18 53 bc 92 89 65 bd 6f e3 ca 3d
       -0.088537134 -0.01288415 -0.0560394 0.09906661
0000d0 77 1b 88 3d 47 bc 47 bd 39 a4 03 bd 2c 4f b6 bc
       0.066458635 -0.04876354 -0.032139037 -0.022254549
0000e0 f7 da 7d 3d 7b c3 0f 3d c7 bc 65 bc b6 98 16 be
       0.0619764 0.035098534 -0.014022059 -0.14706692
0000f0 b9 34 ed 3d 87 ad 0c be 2f 45 f2 bd 97 e6 a4 bd
       0.11582322 -0.1373807 -0.11829602 -0.08051794
000100 fb 43 b8 3d ce f9 c9 3d fd 72 99 bd 17 eb bf 3d
       0.08997341 0.098620996 -0.074926354 0.09371012
000110 e2 b5 30 3c a6 22 7d 3d 3e 6a 47 3d 73 9a 5f bd
       0.010785552 0.06180062 0.048685305 -0.054590654
000120 21 ee a0 bd 92 1e f6 3d b8 56 ab bc 38 83 a2 3d
       -0.078579195 0.120175496 -0.020915374 0.07935184
000130 00 be 24 ba 5c 02 a9 bd 16 df b5 3c c5 21 ae 3d
       -0.0006284416 -0.08252403 0.022201102 0.08502535
000140 af 56 ed bd b0 89 c0 3d 73 7c aa 3d 59 1a 33 bd
       -0.11588799 0.09401262 0.08324518 -0.0437263
000150 84 a0 01 3e fd bf 92 bc ba 5a 41 bc 6b a4 dc bc
       0.12658888 -0.017913813 -0.011801416 -0.02693387
000160 28 59 bd 3b f5 e6 a8 bb e5 64 35 3e 28 bf df bd
       0.0057784505 -0.0051544853 0.1771427 -0.10925132
000170 f5 46 e5 bd 95 61 e4 bd 27 be e7 bd ea a5 db 3d
       -0.111951746 -0.11151425 -0.113155656 0.10725005
000180 9f 51 92 3d 12 c7 f4 bc 72 d5 57 bd a6 1c 1c bd
       0.07144474 -0.02988008 -0.05269379 -0.03811326
000190 c2 52 e9 3c 8e 40 a8 3c 9e 57 6f bd 59 34 cb 3d
       0.028481845 0.020538595 -0.058433168 0.09922094
0001a0 3e 20 a3 bd f8 72 6d bd 70 90 8d bd 05 e5 27 3d
       -0.07965134 -0.05797097 -0.06912315 0.040989894
0001b0 88 dd 44 bd 15 5b d6 bd 05 5e 36 bd e2 ff cb 3d
       -0.04806283 -0.10466591 -0.044523258 0.09960915
0001c0 87 37 38 bc 75 1f 7c bd a6 cc 2d bd 31 b7 b2 bd
       -0.0112437075 -0.061553437 -0.042431496 -0.08726347
0001d0 ac fd 10 3b b3 98 8b 3d 29 b9 20 bd 99 e5 4b bd
       0.0022123856 0.068162344 -0.039239082 -0.04977951
0001e0 a2 cc af 3c 16 ba b9 bd d3 a1 81 3d e5 f2 8b 3d
       0.021459881 -0.09068696 0.06329694 0.06833438
0001f0 50 90 c6 bd 0f 21 1a bd 61 52 db bd 0a c5 db bd
       -0.09695494 -0.037629183 -0.10709072 -0.107309416
000200 63 b1 fc bd 22 d4 10 3c 2d b6 af bc d3 c1 1e bd
       -0.12338521 0.008839639 -0.021449173 -0.038759064
000210 2f 95 e3 bd c3 ff 9b 3c 71 5c 67 bd a7 b5 01 3e
       -0.11112439 0.019042855 -0.056484643 0.12666951
000220 02 11 87 3d ad 77 97 bb 1d 2a a5 bd 81 68 02 3d
       0.06595041 -0.0046224208 -0.08064673 0.031837944
000230 7c a9 9e bd 0e 21 02 3e ca 61 e0 3d b1 76 0c 3d
       -0.0774717 0.12707922 0.10956152 0.03429288
000240 4f a4 1d 3d 8b a6 94 bd ff c1 c9 bc f9 90 ad 3d
       0.038486775 -0.07258328 -0.024628637 0.08474917
000250 c3 1b 0e 3d e7 5d 0b 3e 17 dc b9 3d 9e 8c aa bc
       0.034694444 0.1361004 0.09075182 -0.020819005
000260 83 5d 2e bd 1d 38 f4 b9 c7 7b 02 3d 1a 02 9c bc
       -0.04256965 -0.00046581114 0.031856325 -0.01904397
000270 7b c9 53 bd 8c e1 b1 3d 6e b8 b7 bd f7 95 b4 3c
       -0.05170582 0.08685598 -0.08970724 0.022044165
000280 85 e1 16 3c 96 a8 cd bd 68 4e 2f bd 73 05 93 bd
       0.0092090415 -0.10041921 -0.042799383 -0.07178774
000290 23 c0 8d bc 55 23 95 bd 8d b6 05 be 36 60 04 3e
       -0.017303532 -0.0728213 -0.13057919 0.12927327
0002a0 9e 9e 6f 3d 0d 54 95 bd 15 7f 7f bd ea 48 43 bd
       0.05850088 -0.07291422 -0.062377054 -0.04767696
0002b0 9f 6a 0b bd e3 ce c2 bd 25 b0 13 bd c8 fa 04 3e
       -0.03403723 -0.09512117 -0.036056656 0.1298629
0002c0 cb 1e f3 3d e4 3b 04 3e 6d f4 da 3d e5 09 e8 3d
       0.11871108 0.12913471 0.10691152 0.11330012
0002d0 5c 5d f8 bd 94 35 01 3d f9 eb 36 bd 80 2e fc bd
       -0.12127182 0.031545237 -0.044658635 -0.12313557
0002e0 b6 a8 17 3e 5e 68 17 be c5 5b d9 3d f8 8d 88 3d
       0.14810452 -0.14785907 0.10613207 0.066677034
0002f0 97 93 3a bd e3 5a cb bd c0 86 48 3c e0 81 e1 bd
       -0.04555091 -0.09929445 0.012239158 -0.110111
000300 63 63 41 bc 5f 4e ad bd fd ca 3d 3b b7 84 aa bd
       -0.011803481 -0.08462214 0.0028960102 -0.083260946
000310 da 05 23 bd fe b8 3f bd 1c 95 6f 3d b2 94 c0 3d
       -0.039800502 -0.04680728 0.05849181 0.094033614
000320 86 3e ff 3d ff 8b 50 bb 14 2b 76 bd 1d 50 98 bd
       0.12463097 -0.0031821725 -0.060099676 -0.074371554
000330 84 e4 8b 3d a8 0d f0 3d 5b 70 aa bb 00 e9 6e 3d
       0.06830695 0.11721355 -0.005201382 0.058327675
000340 35 b0 d1 3d 6b e5 45 3d 85 76 1e 3a 16 9e 1e bd
       0.10238687 0.048314493 0.00060448825 -0.03872498
000350 c4 af 81 3d 17 3d 3f bd 4d fb 3c 3d 9d ce dc 3d
       0.06332353 -0.04668912 0.046138097 0.10781596
000360 94 00 bf 3d 23 15 d2 bb 19 59 dc 3c f8 4d 57 3d
       0.09326282 -0.006411211 0.026897954 0.05256459
000370 80 3b b8 bb 4a aa 11 3b 0d 2f 01 3e 91 0b 73 bd
       -0.0056223273 0.0022226744 0.12615605 -0.059337202
000380 c8 09 24 3d 39 d1 02 3e 6f fe ab 3d ba c8 17 3d
       0.04004839 0.12775125 0.08398139 0.037056662
000390 a2 a8 ce bc 6f c2 53 3d e1 9f de 3d b7 bf ec 3d
       -0.025226895 0.0516991 0.10870338 0.11560004
0003a0 87 f3 d1 bd e8 e3 04 bd a8 0e 2a bd 31 1e c3 3d
       -0.10251527 -0.03244391 -0.041517884 0.09527243
0003b0 13 e7 d4 3d a3 99 b6 bd 21 fc eb 3d 5b 47 9d 3d
       0.103956364 -0.08916023 0.11522699 0.076796256
0003c0 ab 2e 2d bd 51 db 7c bd fe 13 a1 bd 03 ec 63 bd
       -0.042280834 -0.061732594 -0.07865141 -0.055645
0003d0 92 a9 ef bc 97 f8 f8 3b 99 ea e3 bd 26 a9 af bc
       -0.029255662 0.0075979936 -0.1112873 -0.021442961
0003e0 60 d7 ad bd 89 bd 61 bd 70 a6 02 3e 09 99 ef 3c
       -0.08488345 -0.055112395 0.12758803 0.029247778
0003f0 f3 9c 85 bd 96 82 08 3c ae 01 a9 3c 3a 97 09 bd
       -0.06524076 0.008331915 0.020630684 -0.033591487

transformer.wQ.bias f4 [64]
000000 65 bd 3b 3d 8f 76 a5 bd 70 a4 dd bd c1 ae ee 3d
       0.045834918 -0.08079254 -0.108223796 0.116544254
000010 18 c0 0b 3d 0c af a8 3d f3 29 1d be 00 21 be bd
       0.03411874 0.082365125 -0.15348034 -0.09283638
000020 1e 76 7c bd a8 29 96 3d 90 15 28 bd dd fd 4e 3d
       -0.061636083 0.07332164 -0.04103619 0.05053507
000030 45 ce e3 bd 9c 98 c4 bd 91 53 01 3e 92 d9 fe 3d
       -0.11123327 -0.095994204 0.12629534 0.12443842
000040 6e 7e 29 bb 3c 07 bd 3d 91 7f aa 3d c8 b2 e0 3c
       -0.0025862711 0.092298955 0.083251126 0.027429
000050 ba c3 5c bc e5 a4 0f bd 1c 72 01 3e 69 ad d6 bd
       -0.013474399 -0.035069365 0.12641186 -0.10482294
000060 22 46 92 3c 09 4b 2b 3d 73 33 d0 bd f2 40 d5 3d
       0.017855708 0.041819606 -0.10166063 0.10412778
000070 05 86 22 3c 58 d3 3c bd c6 1b 30 3d ec 61 77 3d
       0.009919648 -0.04609999 0.042995237 0.06039612
000080 3f 07 84 3d b0 42 13 3e 24 7c 38 bd 4a 33 5a 3d
       0.064466946 0.14380908 -0.045040265 0.05327157
000090 15 20 bd bd 07 34 bb bc a5 4a 00 3e c1 57 bc bd
       -0.09234635 -0.022851957 0.12528475 -0.09196425
0000a0 73 96 12 3d 17 ee 05 bd 7a d0 a3 3c 71 48 b5 3d
       0.03578801 -0.032697763 0.01999687 0.08851708
0000b0 ec 2e 91 3d 18 88 5c bd db c9 f4 bc 6e 1f 1a 3e
       0.07089028 -0.053840727 -0.029881408 0.15051052
0000c0 ec 8e 99 3d f0 61 cc bd a4 21 57 bb 6b f6 5d bd
       0.07497963 -0.099796176 -0.0032826448 -0.05419008
0000d0 5e e7 c2 bd 53 e9 ec 3d c7 3d 45 bd 2a 17 08 be
       -0.09516786 0.115679406 -0.04815462 -0.13290086
0000e0 8d 49 9e 3c df 00 09 be e7 e6 6a 3d a8 0c 0d bd
       0.019322181 -0.13379239 0.057349112 -0.034435898
0000f0 86 a8 a9 bc e4 71 e1 3d c1 99 e4 3d 42 9e 94 3b
       -0.020710241 0.11008051 0.11162139 0.0045354674

transformer.wK.weight f4 [64, 64]
000000 e4 3e c3 bd 07 38 9a 3d cf 3e fb bd 7b 48 74 bb
       -0.0953348 0.075302176 -0.12267839 -0.0037274647
000010 24 af 9e bc f1 36 c1 3d 83 e0 36 bd 2e ca 04 3b
       -0.019370623 0.09434307 -0.044647705 0.002026211
000020 6e c6 d1 bd 82 7e 07 3d 3d 5e 65 bd cd 11 5d bd
       -0.102429256 0.03307963 -0.055998076 -0.053972054
000030 05 7c cc bd 16 a9 90 3d e7 09 f3 3c 7a 46 c6 3d
       -0.09984592 0.070635006 0.029667808 0.09681411
000040 39 66 12 3e af c4 46 3d 86 d8 b5 3d 27 60 93 3d
       0.14296807 0.048527416 0.08879189 0.07196074
000050 37 c0 24 be 21 3a a4 3d 66 0b 28 ba ae 45 ea bd
       -0.16088949 0.080189 -0.000641039 -0.114390716
000060 1c 46 67 bd 7c 98 69 3a c2 fe 92 bd d4 11 29 3c
       -0.056463346 0.00089109666 -0.071774974 0.010319192
000070 53 66 d0 bd df cd d1 bc ef 37 a5 bd f7 f7 cc 3b
       -0.10175767 -0.025610862 -0.08067309 0.0062551457
000080 55 26 f9 bd ed 13 46 3b 2c a2 0b 3d 89 c4 1e bd
       -0.121655144 0.003022428 0.034090206 -0.03876165
000090 15 b8 08 3e ce 5a 0a 3d 55 72 9e 3d 18 f3 13 3d
       0.13351472 0.033778004 0.07736651 0.036120504
0000a0 31 50 0b bc 74 65 30 3d 07 62 b4 bc 67 e5 9b 3c
       -0.008503006 0.043065503 -0.0220194 0.019030286
0000b0 01 a1 8c 3c 87 d9 15 3d 25 8b fc bd 4d a2 7b bd
       0.017166616 0.036584403 -0.12331227 -0.06143408
0000c0 4e 54 ab 3d b0 ac e9 3a 2e b6 52 3d 51 56 e3 bd
       0.08365689 0.0017827954 0.05144327 -0.11100448
0000d0 76 93 e4 3c f6 e6 05 3e 49 d1 70 bd 13 c5 08 3d
       0.027902346 0.13076386 -0.05879334 0.03339107
0000e0 66 a5 d8 bc 9a d4 b1 bc d0 e5 a8 3d fd 3b eb bc
       -0.026446056 -0.021707822 0.08246958 -0.028715128
0000f0 f3 ce 07 be 32 42 d7 3c 17 86 ee bd 29 71 a1 bd
       -0.13262539 0.026276682 -0.11646669 -0.07882912
000100 8d 99 89 3c 86 d7 8e 3d b6 a8 ff 3d 1b 3c ad 3d
       0.016796852 0.069747016 0.12483351 0.0845873
000110 d2 e6 84 bc b9 2f 25 3d 32 6f c3 3c c8 8c 05 3e
       -0.016223345 0.040328715 0.023856733 0.13041985
000120 1b d9 db bd fe 73 b7 3d 1a 44 ec 3d 7c 1c c8 bd
       -0.10734769 0.08957671 0.11536427 -0.09771058
000130 59 0c 01 3e cc c9 8b bd 20 03 9f bd bc fb 51 3a
       0.12602367 -0.06825599 -0.07764268 0.00080102286
000140 c0 ba 3c bd 34 d8 a2 3c de d4 88 3d 41 6d 52 3d
       -0.046076536 0.019878484 0.06681226 0.051373724
000150 5c 40 d0 3c e6 a5 c5 3d b9 0a 8b 3c 10 90 96 bc
       0.025421314 0.09650783 0.016972886 -0.018379241
000160 30 aa d0 3c 9b 1a c8 bc 5d 47 af 3b f0 9c a9 bb
       0.025471777 -0.024426749 0.0053490833 -0.005176179
000170 b4 5e af bd 68 7b ab bc 96 f1 77 bc 08 fd 8e 3d
       -0.08562985 -0.020932868 -0.015133282 0.06981856
000180 66 97 ca 3d 71 fa 1a be 68 a5 ac bd 8b ce bd bd
       0.09892158 -0.15134598 -0.08429986 -0.092679106
000190 e8 a5 f2 3d a8 ad 47 3d a2 8f 1b bd d5 5b 82 3d
       0.1184805 0.048749596 -0.037978776 0.06365172
0001a0 6b f6 0f be 2d a5 56 3d 96 4c 92 3d 66 da c0 bd
       -0.14058845 0.052403618 0.07143514 -0.09416656
0001b0 09 1f 80 3d 68 12 0d 3d 5e a1 48 bd aa 81 10 3e
       0.062559195 0.03444138 -0.048982017 0.14111963
0001c0 da d0 51 3c 1d e5 24 bc 2d 92 0b bd 9b 79 11 bd
       0.012806142 -0.0100643905 -0.03407495 -0.035516363
0001d0 2c 13 f7 bd 92 67 9e 3d 60 0f 96 bd ca 13 73 3b
       -0.120642036 0.07734598 -0.07327151 0.0037090653
0001e0 3b 9f ec 3c 9b 5f 95 3d 74 04 15 3d d6 1c c1 bc
       0.02888452 0.07293626 0.0363812 -0.02357332
0001f0 27 a5 3d bd 29 ea ce 3d f2 a9 c1 3d 60 0c 42 bd
       -0.04630008 0.10103256 0.094562426 -0.047375083
000200 3e 59 b5 bc 8a dd d5 3d 2b 75 40 be 8d 34 be bd
       -0.02213728 0.10442646 -0.18794696 -0.09287367
000210 74 c3 83 3d 8c 41 47 3d e8 81 22 bd 82 b0 0f bd
       0.06433764 0.048646495 -0.03967467 -0.03508044
000220 b2 7d a2 3c 5b 55 a5 3d 56 78 a4 bb c9 25 69 bd
       0.019835327 0.08072921 -0.005019228 -0.0569208
000230 38 25 36 bd 53 11 11 3e 97 85 6c 3d ef fe 61 3b
       -0.04446909 0.14166765 0.05774459 0.0034484228
000240 08 85 52 3d a1 96 8e 3d ab 7c 49 bd 2c 56 f2 bd
       0.0513964 0.06962324 -0.04919116 -0.11832842
000250 ba 49 d6 bd eb 6f 12 bd 09 5c c4 bc 37 cc 4a 3d
       -0.10463281 -0.035751265 -0.023969667 0.04951116
000260 93 9a bc bc 5b 48 1d 3e 33 64 f0 bd 49 cb a1 bd
       -0.023022925 0.15359633 -0.117378615 -0.07900102
000270 6b ca 8e bc b2 4e df 3c 04 f6 bc 3c c5 4a a0 3d
       -0.017430505 0.027259205 0.023066528 0.07826761
000280 ac e7 d1 bd 78 ae b2 3d 9a a9 37 bc 06 4e a2 bc
       -0.10249266 0.087246835 -0.01120987 -0.019812595
000290 e0 fd 83 3b 40 0b 14 bc 60 6a 68 3d f5 9a d2 ba
       0.004028067 -0.009035885 0.056742072 -0.0016067909
0002a0 6c f1 9f 3d 0a c6 9b 3d 39 95 3e be 2a ec 1d 3d
       0.078097194 0.07606132 -0.18611611 0.0385553
0002b0 d1 55 8b 3d 0f e4 14 be cf 90 09 3e 7d 2c 2d be
       0.068034776 -0.14540122 0.13434146 -0.16911502
0002c0 ab 2a 20 3e f8 13 f5 bc a7 75 a1 3d 4c b3 a6 3c
       0.15641277 -0.029916748 0.078837685 0.020349167
0002d0 7c d6 45 3d c5 11 4b bd b9 cd bc bc 3e f2 51 bb
       0.04830025 -0.049577493 -0.023047315 -0.0032035257
0002e0 35 83 10 bd e5 70 d7 3d e3 1e bf bc 10 ad a0 3d
       -0.03528138 0.1051958 -0.023330158 0.07845509
0002f0 dc 8c 1f be ea f9 c4 bd 54 19 b9 bc 41 40 30 3b
       -0.15581077 -0.0961798 -0.022595085 0.0026893767
000300 4b c9 12 bc d5 53 65 bd fd e7 f5 bd 3a 9f 5b bd
       -0.008959125 -0.05598815 -0.12007139 -0.053618647
000310 b5 2d c5 3d 2b ba c6 3d 47 84 e6 3d df b2 2e be
       0.096278585 0.097034775 0.11255699 -0.17060421
000320 9f 59 a9 3d 60 c7 e3 bd f5 38 ca bd 57 db bc bb
       0.08269047 -0.11122012 -0.09874145 -0.005763452
000330 64 e6 37 bd 38 ec e6 3c 70 77 aa bb 6b 70 13 bd
       -0.044897452 0.02818881 -0.0052022263 -0.035995882
000340 db a0 39 bd 28 ba 37 3c 20 b2 e2 3c 29 bc cb bd
       -0.04531942 0.011213817 0.027672827 -0.09947998
000350 d8 00 0b be d8 53 ab bd ed d0 d8 bc 30 01 3f 3c
       -0.1357454 -0.08365601 -0.026466811 0.011657998
000360 11 79 fb bd 46 bd a2 3d 1a 06 c9 bd d2 6d c9 bc
       -0.12278951 0.07946257 -0.09815617 -0.0245885
000370 54 3c c2 3c 35 1f 4c bd 1c f7 25 bd c4 9f a9 3b
       0.023710407 -0.04983445 -0.040518865 0.0051765162
000380 c5 b3 26 bd f7 37 11 3e ff 20 5f bd d7 92 6a 3d
       -0.040698785 0.14181505 -0.054474827 0.057268944
000390 ae cb 05 bc 16 8d 5e 3c af 37 ac bb 8b e6 d9 bc
       -0.008166237 0.013583442 -0.0052556614 -0.02659919
0003a0 e8 22 64 3d b2 6b 43 3d 6b 05 c1 bb 75 50 50 bd
       0.05569735 0.047710128 -0.0058905385 -0.05085798
0003b0 46 30 8f 3d 52 59 b4 3b 63 ad 4f bc 51 f9 08 be
       0.06991629 0.005503812 -0.012675616 -0.13376357
0003c0 03 00 9b bd 7b 42 97 bd 9f 11 74 bd 10 2d 16 3d
       -0.075683616 -0.07385727 -0.059587117 0.03666407
0003d0 1c 20 82 3d e2 05 40 3d d8 03 c8 bd 1a f0 14 3d
       0.063537806 0.04688061 -0.09766358 0.03636179
0003e0 21 69 8f bd 0f 4b 21 bc 98 2c 76 3d 83 18 cb bd
       -0.070024736 -0.0098445555 0.06010112 -0.099167846
0003f0 f0 27 f6 3c dc f8 b0 bd e1 52 c2 bc be 33 84 bd
       0.03004834 -0.08641216 -0.02372116 -0.064551815

transformer.wK.bias f4 [64]
000000 d0 b4 3a 3d 01 bc 9b 3c b5 7e cd 3c 34 00 bd 3d
       0.045582592 0.019010546 0.025084833 0.09228554
000010 44 12 eb 3c 1d fa ea bc 90 f2 ab 3d 7e af 20 bd
       0.028695233 -0.028683716 0.083958745 -0.039229862
000020 85 ca 4d bd c4 3c 36 3d 03 c0 e1 3d 3c 09 08 3c
       -0.050241966 0.044491544 0.110229515 0.008302983
000030 4f 4a 93 bc 4b f2 22 bc 56 a7 a7 bc 8b 07 33 3d
       -0.017979769 -0.009945462 -0.020465534 0.043708365
000040 9c 40 e0 3d 13 b8 8d 3d cc e1 5b 3b c4 4d 94 3d
       0.10949823 0.06919875 0.0033551333 0.07241395
000050 c4 93 f5 3d 20 5c 18 bd cc d8 5d bd 22 1c 4d 3d
       0.11991075 -0.037197232 -0.05416183 0.050075658
000060 48 05 e4 3d cf f6 e9 bd fa 07 bb bd 1e a2 bb 3d
       0.1113382 -0.11424028 -0.09132381 0.09161781
000070 be b2 d2 bd 2a 3b e8 3d c3 f5 5c bc 86 5f e2 bd
       -0.102879986 0.1133941 -0.013486329 -0.11053376
000080 53 3b 47 bd 04 a1 ea 3d f2 c3 e9 bc 78 d5 a2 3d
       -0.04864056 0.114564925 -0.028535817 0.07950872
000090 fa d5 b0 bd 4c 8d 51 3d a3 40 4f bd ae 9f dc bb
       -0.08634563 0.05116014 -0.05059875 -0.0067329025
0000a0 0e 79 bb bd 9f 80 e3 bd f4 72 63 bd ac 55 d8 3d
       -0.09153949 -0.11108517 -0.05552955 0.105632156
0000b0 d7 92 8b bd 55 e5 37 3d fb 08 0b bd 96 31 52 bd
       -0.06815117 0.044896442 -0.03394411 -0.05131682
0000c0 94 ed 91 bc 5f 95 9a ba 6d 79 9b bd 51 b4 a8 bd
       -0.017813481 -0.0011793784 -0.075915195 -0.082375176
0000d0 e0 fb 76 bd c7 07 d0 bd aa eb 34 3d b7 4b ab 3d
       -0.0602988 -0.101577334 0.04417006 0.08364051
0000e0 38 4f 2b 3d 0f 07 ad 3d 0a 7f 44 bd 7c ac 1b bc
       0.041823596 0.08448612 -0.047972716 -0.009501573
0000f0 1f 3c ed 3c cc 10 45 3d 88 0c f3 bd 73 ce 96 bd
       0.028959332 0.048111722 -0.118676245 -0.07363596

transformer.wO.weight f4 [64, 64]
000000 c6 6d 3f bd c1 4a 0b 3e 66 f7 99 3d 68 c9 17 3d
       -0.046735547 0.13602735 0.07517891 0.03705731
000010 ce a0 1b 3e 67 5b 0e 3d 63 27 1a 3d e9 29 d3 3d
       0.15198061 0.034755137 0.03763522 0.10310728
000020 d8 ef d8 3d 5f 7a 4b bd 30 04 da ba e0 f1 86 bd
       0.105926216 -0.04967725 -0.0016633328 -0.06589103
000030 ba 94 d6 bd 33 5d 94 3d 7b e2 89 bd 3d 98 11 3e
       -0.10477586 0.07244339 -0.06732651 0.1421823
000040 52 73 7c bb ec b1 3a bd 7a 21 39 be 82 4c 00 bd
       -0.0038520885 -0.045579836 -0.18079177 -0.031322964
000050 43 57 60 bd 87 1d 14 3e a5 0b 43 bc 3e 1c 4f bb
       -0.05477072 0.14464389 -0.011904632 -0.0031602527
000060 0d e0 09 be 57 df 43 bd 33 a9 b6 3b dc 5f 3c be
       -0.13464375 -0.047820415 0.0055743693 -0.18395942
000070 92 70 a4 bd 66 db f1 3c a9 44 df 3c 13 73 09 3e
       -0.080292836 0.029523563 0.02725442 0.13422804
000080 a2 b8 15 3d 21 82 3d 3c d7 85 b6 bd e6 cb dd 3d
       0.036553033 0.01156667 -0.08912247 0.10829906
000090 54 28 34 3d bf 51 9f bc f5 67 8c 3c 0b d2 c3 3d
       0.043983772 -0.01944816 0.017139414 0.09561547
0000a0 14 53 c7 bc 79 7e 9f 3a b9 65 b9 bd 68 08 8e 3d
       -0.024331607 0.0012168429 -0.09052605 0.06935197
0000b0 1d e4 82 3d 83 9c 98 bc c3 8b 24 3e ee 95 49 bd
       0.063911654 -0.018629318 0.1606894 -0.04921525
0000c0 e8 7c 66 3a a2 8a 87 be 98 cb 74 3d cc f8 de 3d
       0.0008792416 -0.26472956 0.059764475 0.10887298
0000d0 92 2e 44 3d 8c 94 db 3d 45 ba e4 3c 50 c2 38 3e
       0.047895975 0.107216924 0.027920851 0.18042874
0000e0 a5 99 15 be 78 12 40 bd 40 e1 23 be 50 d4 31 3e
       -0.14609392 -0.046892613 -0.16003895 0.17366147
0000f0 47 bc 5a 3d b9 40 5c bd 3e 8a 85 3d 87 51 16 bd
       0.05340221 -0.05377266 0.06520508 -0.036698844
000100 e4 e6 fb 3c c4 2c 11 be 38 31 d7 bd 4f d5 80 3d
       0.030749746 -0.14177233 -0.105074346 0.062906854
000110 48 75 71 3e 5b d5 db bd fd b1 80 bd e4 e6 bb 3d
       0.23579895 -0.10734054 -0.062839486 0.09174898
000120 bb 44 2c 3d d9 d1 f3 3c 26 fa 22 3e 2e c5 2e 3d
       0.042057734 0.02976315 0.15915737 0.042668514
000130 b7 ee a4 3d 5f e5 d5 3d 8a 2e 27 3c 15 05 85 bc
       0.08053344 0.1044414 0.010203967 -0.016237775
000140 da 3b 5a bd e3 8c b8 3d 67 6a 94 3d 03 df 9b bd
       -0.053279735 0.09011247 0.07246857 -0.076108955
000150 59 cd ae bd ad 1b e4 bd f1 8f 5c 3d 25 76 f6 3d
       -0.08535261 -0.11138091 0.05384821 0.12034253
000160 f1 56 dc 3c 82 a8 c3 bd 01 ae de bd 59 52 14 3e
       0.026896926 -0.09553625 -0.10873032 0.14484538
000170 2f e3 a5 3d 53 b1 84 3c bf 3f 8f 3d ca 7f d0 bd
       0.080999725 0.016197836 0.069945805 -0.10180624
000180 3f fa 1e 3e ae b5 8b 3d fb 33 2f 3d 79 2f 8a 3b
       0.15525149 0.06821762 0.04277418 0.004217085
000190 de 3a 57 3d fe fb 35 bd 4a 5d 59 3c 90 3f 5f 3d
       0.052546374 -0.04442977 0.013266871 0.054503977
0001a0 2b 17 f5 bd bc c1 21 3d c7 d1 c9 3d d4 e7 04 3e
       -0.119673096 0.0394914 0.09854465 0.1297906
0001b0 2c b4 0e 3e b8 84 aa 3d 0a f0 84 be 19 7f f2 3d
       0.13935918 0.08326095 -0.25964385 0.11840648
0001c0 4b cd 24 3d 4c e8 ea 3d 7b 38 bd bd d5 cc cb 3d
       0.040234845 0.11470088 -0.092392884 0.09951178
0001d0 77 24 f2 bc 45 c5 69 3d 72 d3 79 3d d8 5d 26 bd
       -0.029558403 0.057072897 0.060992666 -0.04061684
0001e0 82 97 a1 bd 91 7f c0 3d d7 79 76 3d 52 f3 c9 bb
       -0.07890226 0.09399331 0.06017479 -0.0061630392
0001f0 ed f3 68 3d ec d2 c7 bc 27 cc ee 3d 58 54 db 3c
       0.05687325 -0.024392568 0.11660033 0.026773617
000200 2a a7 02 bd 49 d8 37 3d 49 e0 f0 bc 26 2b 05 bc
       -0.0318977 0.044884 -0.029403822 -0.008127963
000210 b6 62 97 3d a9 38 b7 bb 6d c4 c8 bd dd 50 79 3c
       0.073918745 -0.005591471 -0.0980309 0.015217033
000220 9e c3 a0 3d aa 45 d6 bd 64 d0 27 be f3 c3 57 3e
       0.07849811 -0.10462506 -0.16388088 0.21070842
000230 f0 4e b8 3d a9 c6 20 3c 84 fc 89 3d 85 c3 ed bd
       0.08999431 0.009812989 0.06737617 -0.11609558
000240 12 cb ce bd 0b 6c df bd 7e 0c aa bb 85 94 e4 bd
       -0.10097326 -0.109092794 -0.0051894775 -0.1116114
000250 7b 95 9a bd dc 19 3f 3d 34 96 a2 3d 5e 68 08 bd
       -0.075480424 0.04665552 0.07938805 -0.033302657
000260 29 c7 1d 3d 7e 7c 92 3d df 4b b0 bd 95 ff 8a bd
       0.038520012 0.07152651 -0.08608221 -0.0678703
000270 d2 f3 35 3e 90 06 2b 3b 8c d7 58 3d 25 ff 42 be
       0.17768791 0.002609644 0.052939937 -0.19042642
000280 8f d5 d9 bd 73 df d1 bd 84 91 ce 3c 7c 22 1b 3e
       -0.10636436 -0.10247698 0.025215872 0.15149873
000290 32 6d 00 be 1f c2 80 bd bb ca 01 3e 19 6f 91 3c
       -0.12541655 -0.06287026 0.12674992 0.01775317
0002a0 88 79 07 3e c5 f0 e3 3b f9 ee 0c 3d 0e 43 11 be
       0.13229954 0.006956192 0.03440759 -0.14185736
0002b0 15 e5 c0 3d f3 2a 85 bd 4d ef 8d 3d 5c 16 c7 bd
       0.09418694 -0.065023325 0.069304086 -0.097210616
0002c0 e7 df 4a bd 30 54 b4 3d c7 49 d8 bc 31 ca b1 bd
       -0.049529936 0.0880512 -0.026402367 -0.08681143
0002d0 36 9f eb 3c 96 2d 20 bc 65 df 41 be fb b5 5b 3e
       0.028762441 -0.009776494 -0.18932875 0.21456139
0002e0 6b b5 4e bc 7d 10 bb 3d e8 af 03 3d 81 02 0f bd
       -0.012616496 0.09134004 0.03215018 -0.034914497
0002f0 5a 66 85 3d 90 9b 11 3c 0a 92 7e 3d 63 af 83 3d
       0.06513663 0.008887187 0.062150992 0.06429937
000300 f9 01 17 3d 59 85 51 3e 70 39 62 3d 2c 66 72 bd
       0.036867116 0.20461024 0.055230558 -0.05917947
000310 79 33 d5 bd 00 b2 55 3d 1b 64 f9 bd 97 49 e3 3d
       -0.10410208 0.052171707 -0.12177297 0.110980205
000320 1d a0 2d 3e 9c ca 4f be b0 52 97 3d 54 d5 4c 3c
       0.1695561 -0.20292133 0.07388818 0.012502033
000330 d2 5b 68 bd 85 a2 9f 3d 92 a0 94 3d 5c 82 41 3b
       -0.05672819 0.0779467 0.07257189 0.0029527163
000340 11 16 6b bd 64 bb 98 be ac ac c9 bb 32 be 80 bc
       -0.05739409 -0.29830468 -0.0061546173 -0.015715692
000350 5b a1 4b bb 2f 27 99 bd 3a d6 3e 3e eb a4 f2 3d
       -0.0031071517 -0.07478177 0.18636408 0.11847862
000360 f0 4e f9 bd 73 14 7d bd 01 28 a2 3c f4 b8 4c bd
       -0.12173259 -0.06178708 0.019794466 -0.049981073
000370 7e da ca bd 9e e0 9c bd 36 8b 63 be 06 63 84 bd
       -0.09904955 -0.0766003 -0.22221074 -0.064642
000380 94 03 fc 3d c7 62 0d 3d bc ec ec 3d 07 7f 7c bc
       0.1230537 0.03451803 0.11568591 -0.015411145
000390 36 22 15 3e 7a bd d6 bd 25 a7 95 3d 60 c5 81 bd
       0.14563832 -0.104853585 0.07307271 -0.063364744
0003a0 8c 29 83 3d 04 78 1e be 83 a4 1b be f1 5e b2 bd
       0.06404409 -0.1547547 -0.15199475 -0.08709515
0003b0 b2 77 52 3d 84 74 f9 3d 77 6a e4 3d 0a 4b 86 3d
       0.05138368 0.12180427 0.11153119 0.06557281
0003c0 36 a6 5b bd 27 c4 d8 bd dc 7b ca bd b9 3e 9f 3c
       -0.053625308 -0.10584288 -0.098869056 0.019439088
0003d0 ad f2 ef 3d c8 40 5b 3d b4 14 62 bd c5 12 19 bc
       0.117162086 0.053528577 -0.055195525 -0.009342854
0003e0 d7 29 07 be 19 3c ca bd 53 dc 36 bd 08 c8 10 bc
       -0.13199554 -0.09874744 -0.04464371 -0.008836754
0003f0 63 d1 a9 bd 8b ee 8d 3d f4 ef 27 3e a2 af 69 3d
       -0.082918905 0.06930264 0.16400129 0.057052262
